models/diabetes_model_20250210_174550.pth (torch, 13998 bytes, 5 tensors)

model.0.weight f4 [64, 8]
00000000: 2253 853d ac3a d13c 792d b93e 19cd 5d3e
00000010: e252 c5bd 582c 9d3e dfe5 38be 41ec 5bbd
00000020: e6d2 8c3e ba5c f53e 3275 293e 3152 94bc
00000030: c42c 9bbd 491f e83e abe0 98bc bb55 4f3e
00000040: 5f19 d73d 365e 093e 7f41 1bbd 0a58 153e
00000050: 40f8 cd3d 26e0 33be 56e9 2dbd 0f7a a1be
00000060: c5c1 893d 2c81 473d c94e d5bd 1cdd 14be
00000070: 2e9e d9bc a977 e3bd d6d7 0bbd 42ec 8bbd
00000080: 89c3 7bbe 7d36 1bbe 60e0 8dbd bdb9 8ebc
00000090: 2e0e 713b 3f7d 43bd 8324 c83c e09d 883e
000000a0: eb8d 673e 791c d8be 1ef3 a4bd 300e 2a3e
000000b0: 6e72 06be 9758 a1be a6bc 69bd 87e8 fd3c
000000c0: e547 19be 7af9 553e 19a1 0a3e b143 b1bd
000000d0: e44a c53d 9779 de3d 1e10 82bd c10d 993e
000000e0: 6f34 d3be 6ad6 7ebd dc81 cebd 328d 5f3e
000000f0: 198d 07be 726a 26be fe3f 86be d6b9 e4bc
00000100: 4a4a 953e eb3c 9c3e 3d60 e03d 18bd 773e
00000110: 1dfa f73d 34b2 933e f589 d1bd cac7 073e
00000120: 4274 0dbd 63af 933e 0e0b 83bd 6c60 c73e
00000130: 41ec 3e3e 870d 363e 1476 a5bd 1833 3a3e
00000140: 2646 1e3d 3269 423e 7078 373e 3630 983b
00000150: 506f b93c a55e 043e 7a72 103e ec78 72bd
00000160: 1f52 60be fee7 373d ba69 8d3d 8844 a3bc
00000170: a185 b13d 4068 4ebe 55bd 4e3e ffcc 223d
00000180: bd98 3d3e 1607 aebd 7ed4 acbe 8cdc 003e
00000190: d29a 963d 0fae 053d 2208 14be 0e3e 66bb
000001a0: db84 0e3e a868 ee3c 5312 58bd 3973 10bc
000001b0: d35d afbd d252 0cbd dca3 cabc 5845 c3bd
000001c0: be2a afbe 8c13 a0be b13f 893d 5dac de3d
000001d0: a313 b93c 5aac 613d b51c b03c b006 7a3e
000001e0: 34e8 1cbe 1851 223c 970c 863d a19f 813d
000001f0: 1147 9abb 8d7d 503e 4b71 003e 460a 90be
00000200: acf0 11be c35a bdbd 9c24 a1be 1454 8a3e
00000210: 09ae a13d c8db cebc 60d8 163c 5d91 d43d
00000220: b4d5 07be 1c10 1abe 19e3 863c 0797 6fbd
00000230: 946c 013e aa4f 88be de26 8f3e 47f3 04bc
00000240: 2b15 97be a33f 52bd 851b 93bd 0cbd f4bd
00000250: 9ee8 4c3d 685f 383d 4c00 02bd 7e75 aebe
00000260: d0db f2bb 468a 4ebe 5ebc ebbd 915b 5fbe
00000270: 47fb c83d 474b 37bd 36ae 8ebe 03f0 98be
00000280: ceb3 883e 1f0a 183c 57e8 86be 4bbd 3fbe
00000290: 7592 e23d d895 363e 41ee 88be 6e52 453e
000002a0: 9843 4a3e ede7 433d fc4f 33bc 3fcf d03d
000002b0: dcb7 ba3d 9be2 ea3c 4af9 c8bd 692a 083e
000002c0: 6a30 cebd e493 9cbe efb9 44bd e71f 95bd
000002d0: bc40 d0bc 91c8 55be 9864 ecbe 4a7d 24be
000002e0: fe6f a9be 9d24 793e 04df 72bd 01f9 55be
000002f0: 9039 39bd c32a 733e 8a08 3fbe 081b 5c3e
00000300: f16a 2ebe f3e0 11be d0ea a33c 2f26 42bd
00000310: 598c a8be 6536 8abe dbbf d1bd a1f0 7f3c
00000320: 17d1 e8bd a76c fabc 6cbe b83d ac28 bc3d
00000330: 09aa 7e3e f513 b9bd b800 0bbd 7d1a 0fbe
00000340: 2db4 f3bd fbe2 d53e fece d2bc 4215 27bd
00000350: 0286 f53d f288 043c eb52 18be 8e7d eebd
00000360: 7893 7c3e 9b96 5e3e fcdf 71be cd3a edbd
00000370: 5d48 8ebd f20d e83d 123a 35be bc8a 40bd
00000380: 97c8 3ebd 534b 2ebc 6d90 633b 5834 13bd
00000390: 21ff 923c 0ad2 36be d843 953d 550b 633e
000003a0: 68df 0abe 68e2 21be f01f 81be 968b 073e
000003b0: 5277 aa3e 6cca 033e aa0f 49be c045 88be
000003c0: 998c 70be 03f3 cd3c 2958 e93d 3666 b43d
000003d0: 1fc9 7e3e 761c 0c3e 7411 003e cb91 663e
000003e0: 9257 85be c3a0 9ebb e9fb 0a3e f7b3 c23d
000003f0: 76d3 45be e361 95bd 0a6e 0bbe 5854 8ebe
0.06509997 0.025540672 0.36167505 0.2166027 -0.09634949 0.30697894 -0.18056439 -0.053692106
0.27504653 0.47922307 0.16548613 -0.018105598 -0.07576898 0.4533637 -0.018661818 0.20247547
0.10502886 0.13414845 -0.03790426 0.14584365 0.100571156 -0.17565975 -0.042458855 -0.31538436
0.06726412 0.048707172 -0.10415418 -0.14537472 -0.026564684 -0.11106808 -0.034141384 -0.06832172
-0.2458631 -0.15157504 -0.06927562 -0.017422551 0.0036782133 -0.047726866 0.024431473 0.2668295
0.22612731 -0.42209223 -0.080541834 0.16606975 -0.13129589 -0.315129 -0.057064675 0.030994667
-0.14968832 0.20895949 0.13538016 -0.08655489 0.09633425 0.10863035 -0.0635073 0.29893306
-0.4125094 -0.0622162 -0.100833625 0.21831205 -0.13237418 -0.16251543 -0.26220697 -0.027920645
0.2915824 0.30515227 0.10955856 0.24193227 0.12108252 0.28846896 -0.10231391 0.13259807
-0.0345347 0.28844747 -0.06398593 0.38940752 0.18644811 0.17778598 -0.08079162 0.18183553
0.038641118 0.18985441 0.17917037 0.004644419 0.022636086 0.12926729 0.1410617 -0.05919735
-0.21906327 0.04489898 0.06904931 -0.01993014 0.08668066 -0.20156956 0.20189412 0.03974628
0.18515296 -0.08497445 -0.3375587 0.12584132 0.073537484 0.0326367 -0.14456227 -0.0035132202
0.13917868 0.029102638 -0.05275185 -0.008816534 -0.085628174 -0.03425867 -0.024736337 -0.09534711
-0.34212297 -0.31264913 0.06701601 0.108727194 0.022592371 0.055096008 0.021498064 0.24416614
-0.15322953 0.00990703 0.0654537 0.06329275 -0.004708179 0.20360394 0.12543218 -0.28132838
-0.14251965 -0.09245827 -0.31473243 0.27017272 0.07894523 -0.025251284 0.009206861 0.10379288
-0.13265115 -0.15045208 0.01646571 -0.05849364 0.12639076 -0.2662328 0.2795934 -0.008114642
-0.29508337 -0.05133022 -0.07182983 -0.1195012 0.05002653 0.04501286 -0.031738564 -0.34074014
-0.0074114576 -0.20169935 -0.115105376 -0.21812274 0.09813552 -0.044749524 -0.27867287 -0.29870614
0.2669968 0.009279757 -0.26349136 -0.18724553 0.11063091 0.17830598 -0.26744273 0.19269726
0.19752347 0.047828604 -0.010944363 0.10195779 0.091171 0.028672507 -0.09813173 0.13297428
-0.10067828 -0.30581582 -0.048028883 -0.072814755 -0.025421493 -0.20877291 -0.46170497 -0.16063419
-0.33093256 0.24330373 -0.059294716 -0.20895769 -0.04522091 0.23746781 -0.18655601 0.21494687
-0.17032982 -0.14245968 0.020009428 -0.047399696 -0.32919577 -0.26994625 -0.10241672 0.015621335
-0.11368006 -0.030569388 0.09020695 0.09187445 0.24869551 -0.090370096 -0.033936232 -0.13974948
-0.118996 0.41774735 -0.025733467 -0.040791757 0.119884506 0.008089291 -0.1487538 -0.116450414
0.2466563 0.21737139 -0.236206 -0.11583481 -0.06947396 0.11330785 -0.17697933 -0.047007307
-0.046578016 -0.010638076 0.0034723536 -0.03593859 0.01794392 -0.17853561 0.07288331 0.22172292
-0.13561785 -0.15809023 -0.2521968 0.13236842 0.3329416 0.12870187 -0.19634882 -0.26615715
-0.23491134 0.025140291 0.11393768 0.08808558 0.24881409 0.13682732 0.12506658 0.22516553
-0.26043373 -0.0048409416 0.13572659 0.09506982 -0.19318947 -0.07294061 -0.13616195 -0.27798724

model.0.bias f4 [64]
00000000: 550b a0bc 8315 153c adff fd3c 2cec 75bd
00000010: c2e6 7abc 4ee9 ae3d 7b42 13bc 6b0f 813d
00000020: 0878 31bd f40f c7bc aeef 1f3d 58a9 313d
00000030: 3cf9 8e3c 02e6 89bd 4f43 97bd bd04 0fbd
00000040: 7242 2d3d f3c3 353d cced 64bc 4cb9 8b3d
00000050: df27 3b3d 0e49 33bc 9471 c63d ae62 8ebc
00000060: efe5 d23d 549c 913c b004 26bd ffb8 acbb
00000070: 314a d23b 9f15 0cbb 7477 1abd 14b9 823c
00000080: 9a38 8b3d eab9 e0bc b4d7 ebbb e9f0 1bbd
00000090: 750b af3c f985 633d bf83 a03d 2cd6 063e
000000a0: 36ed 053b b16a 1a3d 201d 913d cb59 8ebb
000000b0: 7e94 21bd ba0d 8f3d d7db 863d 32d7 60bc
000000c0: 8604 443d 7110 7ebd c056 043c 914b 2ebb
000000d0: 751d f83b 0704 413d 9cff 483d 4dd7 143d
000000e0: 8995 0c3c 1d1e ce3d 3a87 eebc c049 8d3c
000000f0: 7f57 83bd 8aa6 c6bc 295e 933d 977e 7ebc
-0.019536654 0.009099367 0.031005705 -0.060039684 -0.015313806 0.08540593 -0.008988018 0.06301769
-0.04332736 -0.0242996 0.039046936 0.04337439 0.017452829 -0.06733324 -0.07385885 -0.03491663
0.042299695 0.044376325 -0.013972711 0.06822452 0.04569232 -0.010942711 0.09689632 -0.017381039
0.102977626 0.017774738 -0.040531814 -0.0052710767 0.0064175357 -0.0021375192 -0.037711576 0.015957393
0.06797905 -0.0274324 -0.0071973447 -0.038071547 0.021367768 0.05554769 0.078376286 0.13167638
0.0020435578 0.037699405 0.07085633 -0.0043442002 -0.039448254 0.0698504 0.065849 -0.013723182
0.047855876 -0.0620274 0.008077323 -0.0026595334 0.007571871 0.04712298 0.049071893 0.03633814
0.008580574 0.100643374 -0.029117215 0.01724708 -0.06413173 -0.024249334 0.07195694 -0.015533111

model.3.weight f4 [32, 64]
00000000: f5f0 15bc d31a 043e 0af5 9a3e a495 a13c
00000010: 1f0f 7dbe 50ca 813e 7a26 9f3e b79e 493e
00000020: e4bd 383e 8bfa 37be 6836 15be 8d9d 313d
00000030: 0406 063e 0f61 42be adb9 5ebe 1061 33be
00000040: e064 943e bc3d 1b3e d868 5b3e 0cb4 8d3d
00000050: a58a 84bd 2b62 28be 93a8 86b8 e791 3abe
00000060: b97b 693e 09bb 0e3d 418f a1bd 9bb9 5a3d
00000070: 29f5 29be 67bb 3b3e 48ac 3a3d b9c8 d33d
00000080: 05fa 33be af32 00be 24c9 8fbe d5ec 7e3e
00000090: ce5f 88bc 6ef6 953d 31fd e03d b7da b53d
000000a0: 3e10 4a3e c0e1 073e d23b 0ebe 85f9 02be
000000b0: 4748 99be 5767 c43d 6576 273e d351 b5bb
000000c0: fc18 1e3e a4c5 90bd d592 32be c86e 31be
000000d0: 5047 aabd 4141 8b3d d903 993e f609 c63d
000000e0: 4e86 1f3e 129a 873e 8724 203d 54fa 84bd
000000f0: 81f4 2c3e 7619 973c 48de bc3d 3a8c 503e
00000100: d705 87bd 3706 8f3e 6325 263e 3b32 d43d
00000110: 2a70 2abe 23ef e53a 66c3 d13d cb4f 90bc
00000120: 111d 053e 753d 763d f580 3b3e 4a31 913d
00000130: 3abd 9bbe 2f2f a53d c218 8abe b41b a13d
00000140: e919 38bd 4cc8 d0bd dbd4 56be 998a 1abe
00000150: 24a2 953d 261c 00be 61a5 ebbd 7f91 1e3e
00000160: e812 30be 8155 1d3e 4961 a33e 25b3 50bd
00000170: 407f 8fbe 6176 1a3c 465e 87be 697d 6a3e
00000180: 4eac 8dbe 1375 a53d 5ff1 63bd ee45 b7bd
00000190: ca8b 68bd 3868 8e3d e639 203d 5cdf a03b
000001a0: fd64 233d 1c40 063e d04d 83bc 8075 cd3d
000001b0: adea f73b ba1b 86be 7108 913d dc26 fbbd
000001c0: 297a 42be 5e22 1a3e c96f 543a 9895 26bd
000001d0: 83c7 2dbc 72ff 2a3d 4c40 b03d ebad 623e
000001e0: bb8a 24bd 6460 90bd 0ca2 d33d fb81 2d3e
000001f0: 1b80 363e 62c1 1d3e 0b7b ecbb e82d 713d
00000200: dc62 533b 9880 b5bc 02f7 563d 4acc 0ebe
00000210: 1952 37be a643 10bc a8ca b5bd 0498 d63a
00000220: 5f50 6d3d ae69 ba3e e852 f6bc 236a 3c3d
00000230: c818 1ebd 1386 c7bd b240 013e 2efe 653e
00000240: ed00 6ebe e325 473d 0f45 383d 8af4 e4bd
00000250: 6c56 d0bd 322b d13e f622 51bb 277c 5cbe
00000260: 4161 edbd e782 f03d a3b4 04bc 5206 c43d
00000270: 9c77 cfba 9636 90be c81d 183e 7f5d 1fbe
00000280: 7e65 8c3b 366c e1bd f39d c1bd 3657 59bc
00000290: b2fe 8c3c bd63 0cbe 41bf a7bd aa6b c53b
000002a0: 77ea 56bd 2d9c 65be c87b 7d3e a182 653d
000002b0: c532 883e b9a3 4cbe b2f8 f0bd 0e7e 873e
000002c0: e1bd 66bd 00ab 77be 34be 53bd 77a5 793e
000002d0: 60ae 8f3d feae 5abe c950 8cbe b1ae 45bd
000002e0: bb25 a73e 72d4 32bd 2748 48bd 63af db3d
000002f0: c575 cf3d 1a1c 373d 9d1f 9f3d d3c7 a6bc
00000300: d330 61bc 757c 5dbc 3d38 1f3e da39 ac3d
00000310: 788b debd 59e4 57be 8f9c e4bc 536a 03be
00000320: c812 403e c446 57be ad75 113e ff03 4bbe
00000330: 4570 0bbe 900a b1bd 4568 563e 7c46 73bc
00000340: f193 21bd 3bc4 aabd 7632 81be c95b 353d
00000350: 37d5 8e3d 140c 20bd 7c4d 2fbe a72f 203e
00000360: dbb7 423d ce1d 4b3c a393 953e cb9c bc3c
00000370: e294 bbbd 98be fabd bfef 44bd 6db2 04be
00000380: 7d06 1bbd e7f8 453e 44b2 8d3d 907b 9f3d
00000390: 6997 533d 99ee 97bc 6993 4abd 0769 95be
000003a0: e476 34bd c230 fbbd 3283 f83d 9dd4 94be
000003b0: 92d1 383d 39ac 4e3e 37c6 9dbd 5298 e33d
000003c0: 8acb 433c 49fa 713d 56ad ca3d 5f55 fcbd
000003d0: f88c 913e 03ba 203e b292 2ebe a185 98bd
000003e0: cad0 173d 3d11 c5bd a2e2 093e 6255 ea3d
000003f0: 5835 4c3e 3090 493e 7e8b 20be cef9 af3d
-0.009151687 0.12900858 0.30265075 0.019724675 -0.247128 0.25349665 0.31084043 0.19689451
0.18041188 -0.17966668 -0.14571536 0.043363143 0.13088232 -0.18982337 -0.21750517 -0.17517495
0.28983212 0.15160269 0.21426713 0.06919107 -0.06471757 -0.16443698 -6.421017e-05 -0.1821972
0.22801103 0.03484634 -0.07888652 0.053399663 -0.16597427 0.18333207 0.045574456 0.10341019
-0.17575844 -0.12519334 -0.28083146 0.24895032 -0.016647246 0.07322393 0.109857924 0.08879607
0.19732758 0.1326971 -0.13890007 -0.12790497 -0.29937956 0.09590023 0.16353758 -0.005533436
0.15439218 -0.07068947 -0.17438824 -0.17327416 -0.08314383 0.067995556 0.29885748 0.09669869
0.15578577 0.26484734 0.039097335 -0.06493059 0.16890146 0.018444758 0.09222084 0.20365992
-0.06592911 0.2793443 0.162252 0.10361143 -0.1664435 0.0017542582 0.102423474 -0.017616173
0.12999369 0.060117204 0.18310912 0.07089479 -0.30417806 0.0806564 -0.26972014 0.07866612
-0.044946585 -0.101944536 -0.20979635 -0.15091933 0.073063165 -0.12510738 -0.11506153 0.1548519
-0.17194712 0.15364648 0.3191016 -0.050952096 -0.28026772 0.009427638 -0.26439112 0.22899403
-0.2767052 0.08078971 -0.05565011 -0.08948885 -0.05677394 0.06953472 0.039117716 0.004909439
0.03989123 0.13110393 -0.016028315 0.10032177 0.0075658173 -0.2619303 0.07081688 -0.12263271
-0.18991913 0.15052173 0.00081038155 -0.040670007 -0.010606649 0.041747518 0.08606014 0.22136657
-0.040171366 -0.07049635 0.10333642 0.16944115 0.17822306 0.15405801 -0.0072168163 0.05888167
0.003225497 -0.022156045 0.05248166 -0.13945118 -0.17902412 -0.008805191 -0.08876544 0.0016372208
0.057937976 0.36408752 -0.03006883 0.045999657 -0.038597852 -0.097423695 0.12622336 0.22460243
-0.2324254 0.048620116 0.044987734 -0.111794546 -0.10172734 0.40853268 -0.0031911707 -0.21531735
-0.11590815 0.11743718 -0.008099708 0.09571518 -0.0015828493 -0.28166646 0.1485511 -0.1556301
0.0042845597 -0.11006968 -0.094539545 -0.013265422 0.017211292 -0.13709922 -0.08190776 0.0060247974
-0.052469697 -0.22422858 0.2475425 0.05603278 0.26601234 -0.1998433 -0.11766185 0.2646336
-0.056333426 -0.24186325 -0.051695064 0.24379526 0.07015681 -0.21355817 -0.27405384 -0.0482623
0.32645974 -0.043659635 -0.048896935 0.10726812 0.10129885 0.044704534 0.07769702 -0.020358955
-0.013744551 -0.013518442 0.15548797 0.08409472 -0.10866445 -0.21083201 -0.027906684 -0.12833528
0.18757164 -0.21023089 0.14205046 -0.19825743 -0.13617046 -0.08644593 0.20938213 -0.014848348
-0.03944773 -0.08338209 -0.2523381 0.044276986 0.06974261 -0.03907402 -0.17119402 0.15643178
0.04753862 0.012397243 0.292142 0.023023983 -0.091592565 -0.12243384 -0.048080202 -0.12958689
-0.037847985 0.1933323 0.06918767 0.077872396 0.051658068 -0.01854639 -0.049456988 -0.29181692
-0.044058695 -0.12265159 0.121343985 -0.2906846 0.045121737 0.20182885 -0.07703822 0.11113037
0.011950383 0.05907658 0.098963425 -0.12320971 0.28427863 0.15695958 -0.17048147 -0.07447363
0.03706435 -0.096224286 0.1346536 0.11442067 0.19942224 0.1968391 -0.15678212 0.08592568

model.3.bias f4 [32]
00000000: 234d 5b3d a78b e2ba baa9 11bd a7e2 c4bc
00000010: b7a4 61bd 38f7 efbb 4aac 31bd 9c8b 29bd
00000020: fb0c 8a3d fa64 e6bc cd8b 75bd 9c67 c03d
00000030: 717d e0bc c367 5cbc 4d34 ccbc f0a2 66bd
00000040: 8631 f33d e7aa 6dbc 7dd9 3fbd 6dbd 823d
00000050: 844f 27bd 841a 3cbd a287 8b3d d90c dc3d
00000060: daea 61bc a44f d43d 8ef0 0e3d 31e0 14bd
00000070: c08a b9bc dfef bc3c 064c a93d 381d f8bc
0.05354036 -0.0017284051 -0.035562254 -0.024033858 -0.055088725 -0.007323172 -0.0433772 -0.041392908
0.06740757 -0.028124321 -0.059947778 0.09394762 -0.027403565 -0.013452473 -0.024927283 -0.056307733
0.1187468 -0.014506078 -0.046838272 0.06383786 -0.040847316 -0.045923725 0.06812979 0.10744638
-0.013788903 0.10366753 0.03489738 -0.036346618 -0.022649169 0.023063598 0.082664534 -0.03028737

model.6.weight f4 [1, 32]
00000000: b4c0 c5be 5d75 b03d 572f 963e 2858 fd3e
00000010: 58fc 863e d72e 7f3e c551 de3e e5c0 4a3e
00000020: d3ed 12be 8a8a d53e 13e0 ac3e f4a5 fdbd
00000030: c672 7f3e 5a73 f43e 97f8 c13d bdb7 443e
00000040: 7b71 d9bd 221d 583e 6947 d93c 4bb4 93be
00000050: 5a73 b43d 71c9 353e cff1 a1be 6b68 1bbe
00000060: 0245 a93e 725c d6be 926f 063e fc3e 3a3e
00000070: 767a b93d b8c0 8bbe ac89 e4be d0da 3d3e
-0.38623583 0.08616135 0.29332992 0.4948132 0.26364398 0.24920212 0.4342176 0.19800146
-0.14348535 0.4170726 0.33764705 -0.12385169 0.24946126 0.47744256 0.09471243 0.19210716
-0.10617348 0.21104863 0.026523309 -0.2884849 0.08811064 0.17752625 -0.31629798 -0.15176551
0.3306046 -0.41867405 0.13128498 0.18188089 0.09056561 -0.2729547 -0.44636285 0.18540502
