models/model_epoch_50.pth (torch, 170358 bytes, 45 tensors)

model.0.weight f4 [128, 6]
-0.81318784 0.12521055 0.7392269 -0.35671684 -0.8824737 -0.67165697 0.8606592 -0.4122684
-0.06508662 0.15144537 -0.12052804 0.18527478 0.05555061 -0.30789235 0.29294443 -0.2596645
-0.79495186 0.16503339 -0.61682564 0.21210524 0.44752225 0.26180914 -0.65905935 0.28941151
-1.1660111 0.9920338 0.26241046 -0.7263498 -0.66630125 0.6189495 -0.45738798 1.1167649
-0.61177504 0.06437225 -0.0053936257 -0.048345126 -0.7700862 -0.039879736 -0.1278273 0.70239156
0.19015008 0.8750582 -0.26448122 1.2236812 -0.8124855 1.131508 0.73667395 0.5476024
0.46000552 1.2461151 0.8246818 0.4510355 0.3815274 0.29376793 -0.62083775 -0.21556774
-0.48126864 0.20478442 0.45262355 0.38587716 0.8197669 1.1207287 -0.25909495 0.2724978
-0.036466733 -0.07439577 -0.034636058 -0.017266035 -0.03008718 0.030005828 0.069148414 0.6449253
1.1115009 -0.10763931 -0.062270373 -0.11841297 0.26202422 0.9123717 -0.36700895 -0.16969295
-0.09816416 -0.54633385 0.64831924 -0.16010289 -0.19493584 0.77065223 -0.039734293 -0.054159164
-1.1799816 -0.47196206 -0.12373668 0.22829115 0.5753496 0.24797976 -0.29046103 0.7281944
0.0026107773 -0.26166704 0.32781217 0.16084978 0.8876415 -0.3161052 0.15962043 -1.2762234
0.38407367 0.63263386 -0.51146543 0.08813029 -0.61411816 0.17565517 1.0832891 -0.1492759
0.3022788 0.4141126 0.6393864 0.22802289 -0.1220663 -0.028591523 -0.8931907 -0.57649237
-1.5058897 -0.31067914 0.84165764 0.6595423 0.24548021 0.43219408 0.9630295 -1.2475555
0.7495364 0.097520284 0.15418233 -1.345958 -0.14462134 -1.0084938 0.37893295 -0.099611536
-0.22787769 -0.8497405 0.5996291 -0.28551933 0.66980714 -0.47887567 1.1163399 0.7256115
-0.18620685 0.17283203 1.2729633 0.09298969 0.27974334 0.48881045 -0.2854056 0.191409
-0.35069686 0.031506293 0.8083762 0.5996979 0.51672524 -0.599457 -0.3059442 -0.046664566
0.13135104 -0.01623159 -0.84903634 0.28685957 0.6053734 0.040754266 -0.015424906 0.011158488
0.29114375 -0.41976893 0.11346569 -0.46295583 -0.056811254 -0.14193606 0.019592028 -0.45292205
0.3333474 -0.19484173 0.24932589 -0.7426298 0.64893395 0.469509 -0.6249039 -0.19572535
-0.81900644 -0.3998237 -0.5986126 0.02144403 0.24290375 0.02370598 0.0034150258 -0.41297638
-0.116635844 -0.7986191 0.067124106 -0.07376149 0.27618757 0.05910087 1.332928 1.2894439
-0.46680328 -0.19746302 -0.62025356 0.28463647 0.0039193397 -0.7995961 0.27006432 -0.113536894
-0.42907292 -0.15622741 0.5622102 1.6962495 -0.04792885 0.22650078 -0.4040216 0.14415126
-0.7232237 -0.3633302 -0.035949055 0.85657763 -0.15875402 -0.63121605 0.17472488 -0.12944533
1.2877213 0.029771218 -0.0041546486 -0.5473487 0.8646897 -1.061586 -0.16049983 -0.17158435
-0.73357993 -0.19791876 -1.0766331 0.5127799 0.26503852 0.4777024 0.3732331 0.25499433
-0.17702004 0.9223366 -0.11682678 0.04356229 0.24124347 -0.11413066 0.4628088 0.63924676
0.43189874 0.76297075 -0.42007917 0.046921033 -0.06117788 -0.19223654 -1.0170925 0.30067578
00000000: 142d 50bf 3237 003e f93d 3d3f 97a3 b6be
00000010: cce9 61bf b6f1 2bbf 2954 5c3f d814 d3be
00000020: 224c 85bd 7f14 1b3e 68d7 f6bd acb8 3d3e
00000030: 0989 633d 11a4 9dbe d0fc 953e bff2 84be
00000040: f781 4bbf 83fe 283e 49e8 1dbf 1e32 593e
00000050: a321 e53e d90b 863e 1db8 28bf bf2d 943e
00000060: da3f 95bf edf5 7d3f aa5a 863e 0ff2 39bf
00000070: b892 2abf 7973 1e3f c22e eabe 27f2 8e3f
00000080: 4a9d 1cbf 99d5 833d 03bd b0bb 8a05 46bd
00000090: 5f24 45bf ef58 23bd 29e5 02be efcf 333f
000000a0: b4b6 423e d003 603f 156a 87be 96a1 9c3f
000000b0: 0dff 4fbf 41d5 903f aa96 3c3f ac2f 0c3f
000000c0: d885 eb3e b380 9f3f 591e 533f 20ee e63e
000000d0: 8f57 c33e c068 963e 39ef 1ebf cabd 5cbe
000000e0: d868 f6be 02b3 513e 46be e73e b191 c53e
000000f0: 3edc 513f 0a74 8f3f 18a8 84be d584 8b3e
00000100: 245e 15bd cf5c 98bd 8ade 0dbd 8071 8dbc
00000110: 6479 f6bc c8ce f53c af9d 8d3d d319 253f
00000120: a945 8e3f 0072 dcbd 380f 7fbd 8082 f2bd
00000130: 0a28 863e 3191 693f 99e8 bbbe fdc3 2dbe
00000140: 4b0a c9bd 89dc 0bbf 40f8 253f 03f2 23be
00000150: 439d 47be 7749 453f 6dc0 22bd 00d6 5dbd
00000160: a309 97bf 03a5 f1be a869 fdbd 28c5 693e
00000170: 1d4a 133f 68ee 7d3e 4fb7 94be f36a 3a3f
00000180: 9319 2b3b 39f9 85be ffd6 a73e ceb5 243e
00000190: 793c 633f 8ad8 a1be 8a73 233e 4a5b a3bf
000001a0: 4ea5 c43e 4bf4 213f 66ef 02bf a77d b43d
000001b0: d936 1dbf f3de 333e 38a9 8a3f c8db 18be
000001c0: 49c4 9a3e 9106 d43e d4ae 233f d57e 693e
000001d0: e5fd f9bd c538 eabc 25a8 64bf 0195 13bf
000001e0: fec0 c0bf 5611 9fbe e076 573f c4d7 283f
000001f0: 2a5f 7b3e 8b48 dd3e 1a89 763f e6af 9fbf
00000200: 9ee1 3f3f b7b8 c73d f9e1 1d3e 5a48 acbf
00000210: 9e17 14be 5316 81bf 8003 c23e 2201 ccbd
00000220: c558 69be 9888 59bf 4b81 193f 972f 92be
00000230: 7b78 2b3f 312f f5be 3ae4 8e3f adc1 393f
00000240: 02ad 3ebe e1fa 303e 76f0 a23f 6171 be3d
00000250: 853a 8f3e 5d45 fa3e af20 92be b900 443e
00000260: 8a8e b3be be0c 013d bef1 4e3f cd85 193f
00000270: 1b48 043f 0476 19bf b8a4 9cbe 5823 3fbd
00000280: e380 063e 1df8 84bc 725a 59bf 42df 923e
00000290: c0f9 1a3f f2ed 263d bfb8 7cbc 17d2 363c
000002a0: cb10 953e f4eb d6be b360 e83d 8c08 edbe
000002b0: ebb2 68bd b057 11be 767f a03c 66e5 e7be
000002c0: 83ac aa3e 9784 47be 494f 7f3e fd1c 3ebf
000002d0: 8920 263f 7c63 f03e b4f9 1fbf 3a6c 48be
000002e0: 68aa 51bf b1b5 ccbe ad3e 19bf 64ab af3c
000002f0: c3bb 783e 0b33 c23c a0ce 5f3b a471 d3be
00000300: c6de eebd 4d72 4cbf 5d78 893d 4410 97bd
00000310: 7568 8d3e c113 723d 629d aa3f 7f0c a53f
00000320: d700 efbe bf33 4abe f0c8 1ebf dfbb 913e
00000330: ce6d 803b 54b2 4cbf df45 8a3e 0886 e8bd
00000340: 72af dbbe 14fa 1fbe 02ed 0f3f b41e d93f
00000350: 0b51 44bd d2ef 673e ebdb cebe 639c 133e
00000360: 3025 39bf 6a06 babe 513f 13bd ac48 5b3f
00000370: 6a90 22be 6097 21bf 14eb 323e 518d 04be
00000380: 0dd4 a43f c5e2 f33c b823 88bb 0b1f 0cbf
00000390: 4e5c 5d3f 0de2 87bf 115a 24be cfb3 2fbe
000003a0: e5cb 3bbf 37ab 4abe 1dcf 89bf 8b45 033f
000003b0: 21b3 873e 6995 f43e 6918 bf3e 9e8e 823e
000003c0: be44 35be 401e 6c3f e142 efbd 5f6e 323d
000003d0: 8708 773e 56bd e9bd 46f5 ec3e ada5 233f
000003e0: d521 dd3e 0d52 433f 9e14 d7be 4530 403d
000003f0: a895 7abd a8d9 44be 1630 82bf 2df2 993e

model.0.bias f4 [128]
-4.1440362e-05 0.0021758515 -0.007092844 0.0030378783 -0.008441621 0.01216601 0.0006176352 0.007799662
-0.0002967179 0.0033382957 -0.0084874015 0.0070622857 0.0054951645 0.0103427535 0.001392286 -0.0015953874
0.0025002167 -0.005678217 0.010364046 -0.0018161066 0.00015689895 0.0032236103 -0.0024310849 0.008374746
0.0042409813 0.0019016621 0.009037782 -0.00552233 -0.014375184 0.005098732 -0.0013436269 0.0019052007
0.00069601677 0.00020001661 -0.0060053454 -0.0024567803 0.001127932 0.0024065776 0.005771511 0.0062412806
0.008037586 0.0023795066 0.00190678 0.0030114364 -0.0037984357 0.01272054 6.4292595e-05 -0.018591367
-0.0021345878 0.0012255565 0.00046154865 0.0016841396 0.00088564865 -0.020440387 0.0035095613 -0.0031157434
-0.0032703406 0.00948387 -0.0013406334 0.008445942 0.005839274 -0.014134878 -0.0026925248 -0.0015484003
-0.010076219 -0.0017113049 -0.011863389 0.005692191 0.002263159 -0.0007361418 0.005977048 0.003631659
0.0021378421 -0.00041440903 0.0041973605 0.010522505 0.0029066605 -0.006788506 -0.010052807 -0.010352374
-0.0023611363 0.008896384 0.0014226744 -0.0028995916 0.0028771616 -0.009468708 0.0021203533 -0.0022207047
0.0012009367 -0.0020912997 0.005622243 -0.004639165 -0.00201296 -0.01548683 0.05807975 -0.007872181
-0.005245743 0.003517114 -0.0059073213 -0.0013290762 -0.005100287 -0.0028024653 -0.0010853575 -0.0048137307
-0.0019230697 0.0012057956 -0.0019017443 -0.019861655 -0.003514183 0.012351638 0.0015334683 0.006038671
0.0103022 0.0064287535 -0.0018748378 -0.044779908 0.0030046052 -0.000370852 -0.00068757916 -0.011201315
-0.004729668 0.003298888 -0.0023695708 0.00399774 0.005492748 -0.00406557 0.005829428 -0.0019164265
00000000: 40d0 2db8 bb98 0e3b 176b e8bb 2417 473b
00000010: ba4e 0abc f253 473c cce8 213a 4f94 ff3b
00000020: cd90 9bb9 4fc7 5a3b be0e 0bbc bf6a e73b
00000030: c810 b43b a774 293c 5e7d b63a 511c d1ba
00000040: adda 233b 5610 babb f6cd 293c 6d0a eeba
00000050: 3e85 2439 3543 533b d652 1fbb 3b36 093c
00000060: eef7 8a3b 3141 f93a 3513 143c a9f4 b4bb
00000070: e485 6bbc 4413 a73b a31c b0ba edb7 f93a
00000080: e574 363a 8dbb 5139 7dc8 c4bb ef01 21bb
00000090: 1ed7 933a acb7 1d3b f11e bd3b a883 cc3b
000000a0: 14b0 033c 7ff1 1b3b ebec f93a 855b 453b
000000b0: 2def 78bb d069 503c d3d4 8638 ec4c 98bc
000000c0: 71e4 0bbb daa2 a03a 03fc f139 59be dc3a
000000d0: e02a 683a 9972 a7bc ab00 663b 8031 4cbb
000000e0: 3653 56bb 3c62 1b3c 31b8 afba d960 0a3c
000000f0: 6157 bf3b fa95 67bc 1275 30bb b1f3 caba
00000100: ba16 25bc dd4d e0ba a95e 42bc 8f85 ba3b
00000110: 8251 143b a4f9 40ba 1ddb c33b 2101 6e3b
00000120: 0a1b 0c3b 0a45 d9b9 038a 893b 9666 2c3c
00000130: ac7d 3e3b 1e72 debb 87b4 24bc 019d 29bc
00000140: 4bbd 1abb 24c2 113c 0879 ba3a 1307 3ebb
00000150: c38e 3c3b a422 1bbc a0f5 0a3b 3e89 11bb
00000160: c068 9d3a 300e 09bb cb3a b83b 2304 98bb
00000170: ddeb 03bb 79bc 7dbc 08e5 6d3d 52fa 00bc
00000180: 7be4 abbb 627f 663b 3492 c1bb 6634 aeba
00000190: 4f20 a7bb 91a9 37bb 8e42 8eba 80bc 9dbb
000001a0: 830f fcba c90b 9e3a f343 f9ba e9b4 a2bc
000001b0: 354e 66bb 865e 4a3c a8fe c83a 0be0 c53b
000001c0: 8fca 283c 4ba8 d23b 1ebd f5ba 236b 37bd
000001d0: e9e8 443b ea6e c2b9 a83e 34ba b885 37bc
000001e0: 55fb 9abb 2832 583b cd4a 1bbb 79ff 823b
000001f0: 83fc b33b 7938 85bb c904 bf3b 9a30 fbba

model.1.weight f4 [128]
0.8995257 0.96084994 0.9584536 0.9334471 0.87548715 1.2091116 1.0088894 0.93029255
0.9971526 1.0824882 1.0866367 1.0566293 1.0466309 1.0196824 0.9086918 1.017201
0.9096171 1.0431675 0.9476693 0.95302504 0.9188658 0.9349325 0.9630537 0.8814159
0.9787131 0.8899328 0.90752083 1.0964036 1.0499945 0.9099086 0.9562724 1.0102502
1.0468792 0.9900502 1.0286504 1.0594548 0.8894202 0.97790736 1.1018889 0.95387846
1.0519042 0.940308 0.984975 1.007029 0.99640924 1.1639717 0.8994375 0.9578264
0.9528805 0.88622177 0.8533169 0.9110979 1.0326813 0.98914 1.0131807 0.900724
1.0558457 0.91620517 0.85592616 1.0504857 0.92079926 0.90660334 0.9838922 0.9539704
0.9705047 0.93903106 0.9867138 0.9312468 0.97398174 1.0453807 0.9302922 0.9038394
0.87723625 1.0493081 0.95404524 0.9709917 0.9690302 1.0910985 1.0168735 0.9865693
1.0331085 1.0132697 0.9269868 0.86124694 0.8561573 1.0766197 0.9758653 0.9893847
1.0168138 1.0446535 0.8977264 1.073676 0.9589514 0.9284785 1.1019225 0.9938995
0.9053179 1.0181198 0.9877121 0.96815646 1.0105945 1.052557 1.0121245 0.9475382
0.9017003 1.0218709 0.99285764 1.062684 0.9668766 0.9187676 1.0241442 0.88475585
0.95129776 1.022268 0.9117054 1.0803431 1.0818548 0.9390832 0.9370017 0.96566194
1.0117912 0.8961357 0.9969234 0.9808733 0.9288759 1.0765625 0.9643555 1.0351597
00000000: 5147 663f 43fa 753f 375d 753f 64f6 6e3f
00000010: ed1f 603f 2bc4 9a3f 4a23 813f a727 6e3f
00000020: 6545 7f3f f98e 8a3f e916 8b3f a13f 873f
00000030: 00f8 853f f484 823f 07a0 683f a433 823f
00000040: abdc 683f 8386 853f 759a 723f 73f9 733f
00000050: ca3a 6b3f bc57 6f3f b08a 763f 79a4 613f
00000060: f18c 7a3f a3d2 633f 4953 683f f456 8c3f
00000070: 3866 863f c5ef 683f 45ce 743f e14f 813f
00000080: 2300 863f ee73 7d3f d1aa 833f 379c 873f
00000090: 0bb1 633f 2358 7a3f b20a 8d3f 6131 743f
000000a0: cca4 863f 06b8 703f 5227 7c3f 54e6 803f
000000b0: ad14 7f3f 06fd 943f 8941 663f 1c34 753f
000000c0: faef 733f 6edf 623f fa72 5a3f b63d 693f
000000d0: e72e 843f 4738 7d3f e8af 813f d995 663f
000000e0: f425 873f 6c8c 6a3f fa1d 5b3f 5176 863f
000000f0: 80b9 6b3f 2817 683f 5ce0 7b3f 6737 743f
00000100: ff72 783f 5764 703f 4799 7c3f 3166 6e3f
00000110: de56 793f 09cf 853f a127 6e3f 0562 673f
00000120: 8e92 603f ba4f 863f 4f3c 743f e992 783f
00000130: 5d12 783f 1ea9 8b3f e928 823f ce8f 7c3f
00000140: e63c 843f d2b2 813f 024f 6d3f ae7a 5c3f
00000150: 202d 5b3f adce 893f 4fd2 793f 5148 7d3f
00000160: f426 823f 35b7 853f 66d1 653f 376e 893f
00000170: d77d 753f c4b0 6d3f cc0b 8d3f 3370 7e3f
00000180: eac2 673f c051 823f b3da 7c3f 1ad9 773f
00000190: 295b 813f 30ba 863f 4c8d 813f dd91 723f
000001a0: d5d5 663f aacc 823f eb2b 7e3f 0806 883f
000001b0: 3a85 773f 5a34 6b3f 2817 833f 5c7f 623f
000001c0: 4088 733f aed9 823f 8665 693f af48 8a3f
000001d0: 387a 8a3f c267 703f 58df 6f3f 9f35 773f
000001e0: 6082 813f 2669 653f 5f36 7f3f 831a 7b3f
000001f0: d0ca 6d3f cdcc 893f 01e0 763f 1d80 843f

model.1.bias f4 [128]
-0.0829166 -0.10334489 -0.18107249 -0.1289021 -0.14231516 -0.39628664 -0.078064024 -0.13463685
-0.10297448 -0.054522503 -0.22887227 -0.113260135 -0.24040079 -0.0884809 -0.1357793 -0.08015822
-0.023525748 0.0800086 -0.105484135 -0.07050157 -0.03956156 -0.06266228 0.049624782 -0.07676657
-0.051463656 -0.07687355 0.09730001 -0.21259373 -0.23377003 -0.20472187 -0.108341224 0.025170375
-0.021342173 -0.25207376 0.12777843 -0.16967955 -0.031304173 -0.10842253 -0.042338997 -0.046685435
-0.063848615 -0.23429228 -0.081354655 -0.1317191 -0.09038904 -0.13029228 -0.06889387 -0.063348606
-0.27656838 -0.12720275 -0.17106041 -0.024514537 -0.14419636 -0.071563475 -0.10964274 -0.12514767
-0.046617657 -0.09378337 -0.33020428 -0.06887662 -0.16466571 -0.30082944 -0.057381574 -0.19883947
-0.2139514 -0.17066534 -0.077125944 -0.19250391 -0.18803972 -0.094461806 0.0060171764 -0.12299182
-0.16466519 -0.029057793 -0.3071617 -0.20151249 -0.12638594 -0.1170079 -0.030916356 -0.10662492
-0.16952232 0.0030838458 0.06247194 -0.09027722 -0.2662461 -0.33589086 -0.2055093 0.09169087
-0.22595587 -0.26215538 -0.13569285 -0.226619 -0.12987518 0.028734323 -0.622112 -0.2537542
-0.18594684 -0.177173 -0.2653438 -0.016792474 -0.11150917 -0.16269313 -0.2847543 -0.2001613
-0.08536055 -0.08095404 -0.07769147 -0.23276718 -0.21573684 -0.015942672 -0.0015921823 -0.16401844
-0.026834758 -0.076948754 0.08940279 -0.27366844 -0.048716355 -0.13709775 -0.17390706 0.0117707
-0.32152796 -0.051580112 -0.03174663 -0.33499017 -0.14240728 0.016618228 -0.1819708 -0.17799899
00000000: 2ed0 a9bd 7ca6 d3bd 116b 39be e9fe 03be
00000010: 11bb 11be 15e6 cabe 08e0 9fbd 3ede 09be
00000020: 49e4 d2bd fd52 5fbd 7e5d 6abe eef4 e7bd
00000030: a02b 76be 7935 b5bd bb09 0bbe fe29 a4bd
00000040: 12b9 c0bc 8ddb a33d 1108 d8bd 2163 90bd
00000050: 4d0b 22bd 1555 80bd 5b43 4b3d cb37 9dbd
00000060: 8ecb 52bd e16f 9dbd 3a45 c73d 2cb2 59be
00000070: 6961 6fbe 9ca2 51be 01e2 ddbd 1a32 ce3c
00000080: c8d5 aebc d00f 81be 59d8 023e 7ac0 2dbe
00000090: ce38 00bd a20c debd a86b 2dbd 3a39 3fbd
000000a0: 10c3 82bd 51ea 6fbe 459d a6bd 5fe1 06be
000000b0: e41d b9bd 576b 05be 3b18 8dbd eabc 81bd
000000c0: 5f9a 8dbe 7041 02be 762a 2fbe b6d2 c8bc
000000d0: 36a8 13be df8f 92bd 5f8c e0bd b626 00be
000000e0: 28f2 3ebd 7f11 c0bd 8910 a9be 2f0f 8dbd
000000f0: 219e 28be 5106 9abe f108 6bbd 939c 4bbe
00000100: 1316 5bbe e5c2 2ebe 35f4 9dbd bf1f 45be
00000110: 7c8d 40be 3175 c1bd bc2b c53b 23e3 fbbd
00000120: fe9d 28be 9c0a eebc 4c44 9dbe 4a59 4ebe
00000130: 516b 01be d6a1 efbd 4c44 fdbc 2b5e dabd
00000140: 4297 2dbe 591a 4a3b 94e2 7f3d 43e3 b8bd
00000150: 6951 88be e3f9 abbe 0871 52be 6cc8 bb3d
00000160: fa60 67be 3b39 86be 11f3 0abe d00e 68be
00000170: 00fe 04be 3e64 eb3c bb42 1fbf 12ec 81be
00000180: d968 3ebe d76c 35be 24db 87be 5f90 89bc
00000190: eb5e e4bd 0799 26be 51cb 91be 15f7 4cbe
000001a0: 83d1 aebd 3bcb a5bd b51c 9fbd 855a 6ebe
000001b0: 1eea 5cbe 359a 82bc c6b0 d0ba 73f4 27be
000001c0: 91d4 dbbc 4f97 9dbd cf18 b73d 451e 8cbe
000001d0: cd8a 47bd 5a63 0cbe b114 32be e5d9 403c
000001e0: 509f a4be ab45 53bd c108 02bd d583 abbe
000001f0: 37d3 11be f322 883c 8e56 3abe 5e45 36be

model.1.running_mean f4 [128]
-0.10952591 0.0045776065 -0.030719401 0.006444744 0.0084376 0.021099405 0.13328958 0.11844617
-0.039006688 0.10606945 -0.05596736 0.07183097 0.06477634 0.026569331 -0.09494374 0.03134085
-0.0016067479 0.0112402225 0.019442545 -0.1057123 0.079614826 -0.14351647 -0.07457525 0.058519624
0.0020458652 0.104192495 0.025110746 -0.011638155 -0.04183545 -0.062144466 -0.07390716 -0.027493972
0.03625137 -0.055288132 -0.027193468 -0.060705047 -0.008571783 -0.10875679 -0.031154105 0.060210854
-0.007994499 -0.04369486 0.077815525 -0.004375585 0.08118279 0.0035943286 -0.0126056345 -0.019066274
-0.07093979 -0.019005569 0.13813932 0.05049564 -0.08390977 0.009924626 0.028062506 -0.05807319
-0.012340963 -0.030474586 0.08076084 -0.04544513 -0.023178095 -0.060443763 0.0379432 -0.064314984
-0.063366786 -0.03688257 -0.005172231 0.081496604 -0.07268396 0.006885258 0.0008088511 -0.07064858
0.01703485 0.063890584 -0.011503407 0.019332588 0.06060708 -0.021276485 -0.023983423 -0.06529379
-0.02637243 -0.020691032 0.019830769 0.12897602 -0.12690943 0.0045291325 0.056957927 0.05693998
-0.063663304 0.060921915 0.05905702 0.041097645 0.03963683 -0.0052670753 0.050147373 0.005217941
-0.06318211 -0.056598093 0.014792842 0.019831227 -0.028454691 -0.0565354 0.018690225 0.07139451
0.14852852 0.086640626 -0.010554123 -0.029140083 -0.055911694 0.033338513 -0.014926295 -0.11957685
0.025566425 -0.0103567 0.006978159 -0.043177783 0.016637934 0.035265677 -0.07156641 -0.08187247
-0.060760345 -0.0034561954 -0.005545206 -0.034864858 -0.10782926 -0.08988512 0.030742692 -0.0952114
00000000: 1f4f e0bd bfff 953b 41a7 fbbc 6e2e d33b
00000010: dc3d 0a3c a9d8 ac3c 107d 083e e893 f23d
00000020: 7ac5 1fbd f13a d93d 083e 65bd 1e1c 933d
00000030: 75a9 843d eda7 d93c dd71 c2bd 435f 003d
00000040: 8399 d2ba e928 383c f945 9f3c b17f d8bd
00000050: 190d a33d fbf5 12be e9ba 98bd 46b2 6f3d
00000060: ec13 063b e062 d53d 0db5 cd3c f6ad 3ebc
00000070: a65b 2bbd 328b 7ebd a35c 97bd 0a3b e1bc
00000080: 517c 143d cf75 62bd d6c4 debc dba5 78bd
00000090: aa70 0cbc e1bb debd e536 ffbc a89f 763d
000000a0: 5cfb 02bc 62f9 32bd bf5d 9f3d 1161 8fbb
000000b0: 2a43 a63d d48e 6b3b dd87 4ebc e030 9cbc
000000c0: e148 91bd 91b1 9bbc 6574 0d3e 84d4 4e3d
000000d0: e3d8 abbd e69a 223c 57e3 e53c 27de 6dbd
000000e0: c031 4abc d7a5 f9bc f065 a53d ac24 3abd
000000f0: fddf bdbc e193 77bd 546a 1b3d 93b7 83bd
00000100: 72c6 81bd 2d12 17bd d17b a9bb b1e7 a63d
00000110: 54db 94bd bb9d e13b 1409 543a 34b0 90bd
00000120: ab8c 8b3c 11d9 823d c978 3cbc 605f 9e3c
00000130: 213f 783d 064c aebc e278 c4bc c0b8 85bd
00000140: ff0a d8bc 3d80 a9bc 2374 a23c 4a12 043e
00000150: 8cf4 01be 1e69 943b b74c 693d e539 693d
00000160: e861 82bd 4289 793d c6e5 713d 0156 283d
00000170: 3b5a 223d 6e97 acbb 5567 4d3d 43fb aa3b
00000180: 9f65 81bd 67d3 67bd ad5d 723c 1975 a23c
00000190: d019 e9bc aa91 67bd 3e1c 993c 4937 923d
000001a0: dc17 183e a470 b13d 33eb 2cbc 2fb7 eebc
000001b0: a903 65bd f78d 083d 6b8d 74bc b5e4 f4bd
000001c0: ae70 d13c 26af 29bc 0aa9 e43b 30db 30bd
000001d0: 474c 883c be72 103d 6991 92bd c1ac a7bd
000001e0: d7df 78bd 5681 62bb 8fb4 b5bb 74ce 0ebd
000001f0: 96d5 dcbd b115 b8bd 19d8 fb3c 32fe c2bd

model.1.running_var f4 [128]
1.7864797 0.22095478 0.844024 0.49538177 1.3914537 0.21627092 3.0256643 2.9006772
5.703965 2.8623686 3.1184685 0.49739975 0.9939093 1.1945581 2.7498338 0.73177844
0.8940228 1.1154268 0.42651403 2.6707866 2.327484 2.6188958 0.83126783 1.961187
1.2891954 1.8769379 0.19259895 0.026914371 0.29296568 0.5181617 1.7888594 0.16307668
0.96872634 5.0996284 0.44389805 5.180038 1.529716 2.6883478 0.82200974 0.83298296
0.519016 3.4106035 1.788799 1.8281204 3.1642897 1.1568419 2.1258013 0.6662436
2.9711237 1.0063789 3.9028175 0.53915644 1.701421 0.41117603 1.2764231 0.69143337
0.5621064 1.0472549 4.112739 1.6600688 3.1177065 0.81669843 2.2020495 2.212587
2.2510762 1.1985083 0.4814972 0.7149614 7.2934647 3.293554 0.74821633 5.65816
1.7385895 0.78227484 0.26563266 1.3278592 0.6592943 1.1522492 0.21812317 0.7630846
3.8621216 0.5304291 2.6766741 4.593909 2.6545014 0.037899032 0.6337608 2.605184
9.427553 0.8371877 0.79761004 0.744169 0.24033238 0.6414506 0.046014488 0.10032459
1.5234842 1.0152546 4.9036336 2.8824427 0.2546912 3.9783416 0.39076304 1.6538194
7.058406 3.8186178 1.8090367 0.1407926 2.5066612 0.5736087 1.5770577 3.9309292
1.0253241 0.36919948 2.6203167 0.043045323 0.690297 4.353036 2.3553329 1.84364
3.800965 1.9102879 1.0057762 1.0009778 2.296464 2.1686072 1.2443362 2.354665
00000000: 5eab e43f f841 623e f511 583f aea2 fd3e
00000010: 281b b23f 2076 5d3e 7ca4 4140 b2a4 3940
00000020: e286 b640 0c31 3740 fd94 4740 2eab fe3e
00000030: d770 7e3f 48e7 983f 47fd 2f40 d555 3b3f
00000040: aede 643f 4ec6 8e3f 0c60 da3e 2bee 2a40
00000050: 7ff5 1440 fd9b 2740 f8cd 543f 2d08 fb3f
00000060: 5b04 a53f 803f f03f a938 453e 877b dc3c
00000070: 99ff 953e 3fa6 043f 58f9 e43f 93fd 263e
00000080: 73fe 773f 2830 a340 9b46 e33e dfc2 a540
00000090: bccd c33f e40d 2c40 3b6f 523f 5f3e 553f
000000a0: 3cde 043f 5447 5a40 5ef7 e43f d9ff e93f
000000b0: b983 4a40 6513 943f 210d 0840 f18e 2a3f
000000c0: e426 3e40 06d1 803f c3c7 7940 2806 0a3f
000000d0: 2ac8 d93f aa85 d23e d561 a33f c701 313f
000000e0: 34e6 0f3f 730c 863f 8f9b 8340 227d d43f
000000f0: 8188 4740 2613 513f 61ee 0c40 079b 0d40
00000100: a211 1040 b868 993f cd86 f63e b607 373f
00000110: 1064 e940 97c9 5240 1b8b 3f3f a60f b540
00000120: 1a8a de3f 2a43 483f 0101 883e 4af7 a93f
00000130: 83c7 283f e77c 933f ae5b 5f3e 8359 433f
00000140: 002d 7740 34ca 073f a14e 2b40 4d01 9340
00000150: 5ae3 2940 043c 1b3d 263e 223f 56bb 2640
00000160: 42d7 1641 ef51 563f 2c30 4c3f dc81 3e3f
00000170: b119 763e 1b36 243f b079 3c3d fb76 cd3d
00000180: 8801 c33f ddf3 813f 91ea 9c40 f179 3840
00000190: e366 823e 269d 7e40 1812 c83e 5bb0 d33f
000001a0: 76de e140 3c64 7440 848e e73f ef2b 103e
000001b0: 236d 2040 05d8 123f 07dd c93f 5894 7b40
000001c0: d23d 833f b707 bd3e 45b3 2740 4b50 303d
000001d0: 4eb7 303f 124c 8b40 c6bd 1640 65fc eb3f
000001e0: 0343 7340 5084 f43f 46bd 803f 0a20 803f
000001f0: 44f9 1240 76ca 0a40 6946 9f3f d5b2 1640

model.4.weight f4 [64, 128]
0.097857 -0.046812877 0.03275112 0.080913775 -0.16140637 -0.23393549 0.14322011 -0.0047115437
-0.025301086 0.021474473 0.10722537 0.20167553 -0.024705535 0.19920388 -0.10059658 -0.028179128
0.10604689 0.05790628 -0.029541155 -0.30951318 0.14445409 0.1916457 0.04515264 0.10593225
0.035208035 0.008711049 -0.08338589 -0.061033066 0.018426595 0.3528369 0.06730226 -0.012751787
-0.08641525 -0.089266784 -0.17801617 -0.16680744 -0.09696958 0.025316676 0.25722542 0.20358413
0.080491796 -0.28058353 0.15680973 0.04834918 -0.009114528 -0.13092658 -0.023479013 -0.0756704
0.111780815 0.024438096 -0.024728663 0.12646396 0.02484407 -0.085620046 0.06460724 -0.05963055
0.07261025 0.16174036 -0.029480787 0.15151824 -0.1728773 -0.089295805 0.27088588 -0.040154133
-0.054690126 0.10105302 -0.1213793 0.09704564 0.21929008 0.010683324 -0.084705904 -0.0049773455
-0.017836597 -0.073629536 -0.070569105 0.055027846 0.0047913194 0.06785766 0.21172093 -0.036507994
-0.1003271 -0.10649759 -0.011631064 0.17077816 0.07705722 -0.25521144 0.2027354 0.06792074
-0.03961516 0.12801567 0.20298961 -0.09496384 -0.043876138 -0.22765487 -0.1450254 0.025997264
-0.19360325 0.063926935 0.16424799 0.21875882 0.068650626 0.06263187 -0.06869379 -0.0006026372
0.071705185 0.11666084 -0.0719276 0.07515596 0.02308415 0.10160184 0.1856847 0.09506854
-0.22534697 0.010906429 -0.084379844 0.0049856217 0.38255915 -0.0059126993 -0.19085833 -0.14493427
-0.11002074 0.3568952 0.14852448 0.24219376 -0.030170351 0.04260519 0.061579235 0.012581436
0.01820849 -0.049350977 -0.10041759 -0.1669345 0.079248905 0.018973531 -0.09066524 -0.10803205
0.018923974 0.014685151 -0.06738893 0.060366355 -0.030468155 -0.0050073788 -0.043697283 -0.1373352
0.40112516 -0.05577414 0.260323 -0.05391318 0.037127923 0.13495453 0.016546395 -0.123471014
-0.0013139483 0.09255124 -0.10171582 0.14397162 -0.087787695 0.017110465 0.10376604 0.28845686
0.020520302 0.049937982 0.020021731 -0.035532475 -0.2024875 0.15905449 0.17302711 -0.08768664
0.080622494 -0.04188315 -0.15740153 -0.14074314 0.2035836 -0.15201989 0.21743445 -0.021500265
-0.090549536 -0.12359324 -0.10700594 0.117853135 0.37298992 -0.17716154 -0.12297759 -0.02228335
-0.16043 -0.08412627 0.21320227 -0.036452435 0.25246316 0.36467412 0.17604557 0.002799388
0.18285285 0.03770809 -0.067875735 0.023070604 -0.14795782 0.17154291 0.043775935 -0.05047002
0.12152049 0.1189453 -0.061794844 -0.067914136 0.024126122 0.014349725 0.07068905 0.13956308
-0.26284716 0.021123625 -0.020272724 -0.041905697 0.07178527 0.13049823 -0.11652221 -0.04525296
-0.095877305 0.039920986 0.029284302 -0.016380087 0.07572668 -0.2065712 0.13570511 -0.14633739
0.19803901 0.17818646 -0.073381074 -0.06743129 0.049330104 -0.012540274 -0.111614615 -0.015252074
-0.12792796 -0.24180129 0.20671923 -0.07066945 -0.042222887 0.19015169 -0.0066149984 0.10104456
-0.102939494 -0.305793 0.05441197 0.111996934 -0.10220028 -0.038911387 0.07802809 -0.06354239
-0.050693262 -0.2712286 0.118682474 -0.11869442 0.011368811 0.15018381 0.06732561 -0.0046384702
00000000: 4069 c83d dcbe 3fbd 0a26 063d 1fb6 a53d
00000010: b647 25be c98c 6fbe 4ba8 123e 4b63 9abb
00000020: 3944 cfbc 3ceb af3c fa98 db3d 0884 4e3e
00000030: 4363 cabc 1afc 4b3e 9405 cebd ead7 e6bc
00000040: 1d2f d93d 232f 6d3d 4b00 f2bc 8378 9ebe
00000050: c6eb 133e c53e 443e faf1 383d 02f3 d83d
00000060: 4d36 103d cab8 0e3c 39c6 aabd cffd 79bd
00000070: 5ff3 963c 0aa7 b43e c4d5 893d dfec 50bc
00000080: 7bfa b0bd 81d1 b6bd df49 36be 92cf 2abe
00000090: fd97 c6bd eb64 cf3c 0db3 833e 5c78 503e
000000a0: e2d8 a43d a5a8 8fbe bb92 203e ca09 463d
000000b0: 1a55 15bc 9e11 06be 0f57 c0bc 15f9 9abd
000000c0: 57ed e43d 6732 c83c c493 cabc c57f 013e
000000d0: cb85 cb3c 9059 afbd cd50 843d 2a3f 74bd
000000e0: afb4 943d 449f 253e b181 f1bc 9927 1b3e
000000f0: bf06 31be b8e0 b6bd 8eb1 8a3e a978 24bd
00000100: c102 60bd e3f4 ce3d b695 f8bd ddbf c63d
00000110: 948d 603e 1c09 2f3c 4a7a adbd 0019 a3bb
00000120: 0e1e 92bc 15cb 96bd 8986 90bd e164 613d
00000130: 8000 9d3b f5f8 8a3d 5fcd 583e 6889 15bd
00000140: 4b78 cdbd 691b dabd 3890 3ebc 78e0 2e3e
00000150: 2dd0 9d3d 13ab 82be de99 4f3e 071a 8b3d
00000160: 8243 22bd 8a16 033e 82dc 4f3e 677c c2bd
00000170: 77b7 33bd 5c1e 69be 8a81 14be 37f8 d43c
00000180: ee3f 46be 20ec 823d a030 283e 5002 603e
00000190: b398 8c3d 2345 803d 54af 8cbd 4cfa 1dba
000001a0: 2bda 923d e1eb ee3d c74e 93bd 5eeb 993d
000001b0: f91a bd3c a014 d03d 2124 3e3e 4bb3 c23d
000001c0: 5bc1 66be e1b0 323c 57cf acbd 6d5e a33b
000001d0: cbde c33e 51bf c1bb 5e70 43be a669 14be
000001e0: 8e52 e1bd f8ba b63e cd16 183e a401 783e
000001f0: d027 f7bc c882 2e3d 823a 7c3d 5e22 4e3c
00000200: f929 953c 4024 4abd bda7 cdbd e1f0 2abe
00000210: 404d a23d 616e 9b3c b3ae b9bd e83f ddbd
00000220: 7306 9b3c fd99 703c 3503 8abd b642 773d
00000230: 5a98 f9bc f014 a4bb ecfb 32bd 99a1 0cbe
00000240: 4760 cd3e 6d73 64bd 0e49 853e 11d4 5cbd
00000250: 7313 183d 8531 0a3e 4e8c 873c 5fde fcbd
00000260: ca38 acba 818b bd3d 6250 d0bd 4c6d 133e
00000270: 09ca b3bd 3f2b 8c3c 4a83 d43d 9eb0 933e
00000280: 311a a83c c58b 4c3d 9d04 a43c 808a 11bd
00000290: e258 4fbe 2edf 223e 052e 313e 0e95 b3bd
000002a0: 681d a53d aa8d 2bbd de2d 21be f81e 10be
000002b0: 3878 503e 1aab 1bbe 23a7 5e3e 5321 b0bc
000002c0: 0972 b9bd 741e fdbd ee25 dbbd fc5c f13d
000002d0: 89f8 be3e d669 35be addb fbbd 928b b6bc
000002e0: c347 24be 654a acbd b251 5a3e 264f 15bd
000002f0: da42 813e 91b6 ba3e 4a45 343e f075 373b
00000300: c73d 3b3e cc73 1a3d 6f02 8bbd 90fe bc3c
00000310: 4182 17be f2a8 2f3e 654e 333d a7b9 4ebd
00000320: bcdf f83d 9899 f33d 971c 7dbd 9116 8bbd
00000330: 25a4 c53c 1c1b 6b3c 6cc5 903d a0e9 0e3e
00000340: e793 86be 740b ad3c fc12 a6bc 4fa5 2bbd
00000350: 2804 933d 54a1 053e 32a3 eebd 2b5b 39bd
00000360: 525b c4bd 3084 233d a2e5 ef3c 882f 86bc
00000370: 9716 9b3d 6787 53be 48f6 0a3e 78d9 15be
00000380: bdca 4a3e 8376 363e d148 96bd 6b19 8abd
00000390: 5d0e 4a3d b975 4dbc 3496 e4bd d6e3 79bc
000003a0: 8cff 02be c29a 77be 35ae 533e 25bb 90bd
000003b0: e8f1 2cbd 20b7 423e a1c2 d8bb 73f0 ce3d
000003c0: f1d1 d2bd e690 9cbe 16df 5e3d a65e e53d
000003d0: 614e d1bd 8c61 1fbd 31cd 9f3d 8322 82bd
000003e0: bda3 4fbd 7ade 8abe cc0f f33d 0f16 f3bd
000003f0: 4044 3a3c c9c9 193e 02e2 893d 4ffe 97bb

model.4.bias f4 [64]
-0.00092381536 -0.0024371145 0.0018955915 -0.006118123 -0.0028159567 5.6929937e-05 -0.0027467536 0.00075600995
-0.0028700167 -0.0024851535 0.0070074806 -0.005176963 -0.0070789815 -0.0032279794 -0.009944847 0.0028107387
0.00062754884 0.005782752 -0.0056137703 0.006763914 -0.004763262 0.0008762274 0.0044241804 0.012971676
-0.0031005132 0.0010926537 -0.010755714 -0.0015109557 -0.011162984 0.004559421 -0.0034468218 -0.0043100966
-0.0020002748 -0.0025303198 0.0013989919 -0.007959704 -0.0018776449 0.0025398324 0.001437299 0.0045331502
0.003012439 0.012599631 4.095541e-05 -0.010231046 0.0006706508 -0.0057381294 0.0024378935 -0.0034716423
-0.007408333 -0.0035290148 0.014856625 -0.004461011 -0.00318435 -0.0033456741 0.014906979 0.002232321
0.013497774 0.005186131 -0.0030748274 0.0020872608 -0.0010637362 -0.0089933835 0.0014531735 0.0018993815
00000000: 332c 72ba ffb7 1fbb 7f75 f83a 897a c8bb
00000010: ea8b 38bb 0ec8 6e38 e102 34bb f82e 463a
00000020: e416 3cbb f5dd 22bb 029f e53b 83a3 a9bb
00000030: cdf6 e7bb 828c 53bb b6ef 22bc 5f34 383b
00000040: 1782 243a 3d7d bd3b b8f3 b7bb d3a3 dd3b
00000050: 2315 9cbb a0b2 653a b7f8 903b 2787 543c
00000060: fb31 4bbb 6037 8f3a bc38 30bc 430b c6ba
00000070: f3e4 36bc 3267 953b 13e4 61bb b63b 8dbb
00000080: 0b17 03bb b9d3 25bb 615e b73a 6b69 02bc
00000090: 4f1b f6ba 5173 263b c063 bc3a d28a 943b
000000a0: 576c 453b af6e 4e3c 89c7 2b38 1ea0 27bc
000000b0: 9dce 2f3a eb06 bcbb 11c5 1f3b 7e84 63bb
000000c0: 9ac1 f2bb 0b47 67bb 3469 733c ac2d 92bb
000000d0: 87b0 50bb 1943 5bbb 673c 743c 224c 123b
000000e0: c425 5d3c 6cf0 a93b 0b83 49bb 6dca 083b
000000f0: 106d 8bba fc58 13bc 6978 be3a abf4 f83a

model.5.weight f4 [64]
0.9876417 0.9083246 0.8534806 1.0088894 0.883088 1.0402585 0.987194 1.0670893
1.0149323 0.9893227 0.9921347 1.0946333 0.99721986 1.0167142 0.9489549 1.0343151
1.0360421 1.0898496 1.1348675 0.98863274 0.880723 1.0266699 1.0008916 0.9719066
0.9650841 0.92892534 0.9820728 1.0956551 1.0280569 1.0340136 1.0220326 0.9245268
1.0367624 0.9432393 1.0540173 0.9866962 0.9690999 0.87055063 0.91087824 1.0618522
0.93256783 0.9378059 0.93701285 1.0724722 0.98216283 1.0319357 1.0036632 1.1464615
1.1635466 0.9671101 0.98250747 1.0251817 0.8849452 1.0309112 1.0476736 0.9615301
0.97332954 0.8636422 0.9449473 0.9717636 1.0501717 1.0122976 1.2270292 1.0462916
00000000: 16d6 7c3f f687 683f b47d 5a3f 4a23 813f
00000010: 0e12 623f 3127 853f bfb8 7c3f 6296 883f
00000020: 4de9 813f 4144 7d3f 8afc 7d3f f21c 8c3f
00000030: cd49 7f3f b123 823f b5ee 723f 7064 843f
00000040: 079d 843f 3180 8b3f 5743 913f 0917 7d3f
00000050: 1077 613f eb69 833f 371d 803f dfce 783f
00000060: c00f 773f 0dce 6d3f 1f69 7b3f 6d3e 8c3f
00000070: 5e97 833f 8f5a 843f f7d1 823f caad 6c3f
00000080: a1b4 843f 2178 713f 0aea 863f 1f98 7c3f
00000090: ee16 783f 68dc 5e3f 512f 693f c6ea 873f
000000a0: c4bc 6e3f 0c14 703f 13e0 6f3f c546 893f
000000b0: 066f 7b3f 7816 843f 0978 803f 40bf 923f
000000c0: 18ef 943f 8794 773f 9c85 7b3f 2739 833f
000000d0: c58b 623f e6f4 833f 2b1a 863f d626 763f
000000e0: 202c 793f a817 5d3f 11e8 713f 80c5 783f
000000f0: 076c 863f f892 813f 4b0f 9d3f e2ec 853f

model.5.bias f4 [64]
0.0022979365 -0.17734799 -0.07525274 0.073829144 -0.11558077 0.023252945 -0.120138705 -0.135871
-0.005907195 -0.032144643 -0.06683908 0.024383549 -0.16909955 0.072256856 -0.20590469 0.0016978428
-0.103142925 -0.017015783 0.0916445 -0.08634276 0.031841513 -0.030872293 -0.049023736 -0.06469287
-0.07225274 -0.1954214 -0.018432949 0.04164909 -0.08660246 0.044087242 0.012902131 -0.12511128
-0.031394362 -0.056050427 -0.1351689 -0.074689575 -0.006071538 -0.1318274 -0.15399186 0.044645723
-0.08344294 -0.1518334 -0.13413623 -0.099741824 -0.062243715 -0.080002815 0.103420995 0.1481142
0.004303234 -0.11798421 -0.066227324 0.012440458 -0.09127391 -0.2045565 -0.05557542 -0.09314003
-0.11500831 -0.1050891 -0.10090846 -0.15525833 0.06381155 0.038893513 0.1750076 -0.08684549
00000000: fa98 163b b69a 35be 1c1e 9abd bc33 973d
00000010: 9cb5 ecbd f67c be3c 480b f6bd c421 0bbe
00000020: 2591 c1bb 1aaa 03bd ede2 88bd 02c0 c73c
00000030: 6f28 2dbe 67fb 933d aed8 52be 278a de3a
00000040: 993c d3bd af64 8bbc 1db0 bb3d 79d4 b0bd
00000050: 3f6c 023d e4e7 fcbc 1dcd 48bd b27d 84bd
00000060: 3ff9 93bd 8c1c 48be b200 97bc 3c98 2a3d
00000070: a15c b1bd d394 343d 7663 533c 2c1d 00be
00000080: 6097 00bd 2295 65bd b769 0abe d9f6 98bd
00000090: c1f3 c6bb c3fd 06be 0bb0 1dbe 6fde 363d
000000a0: 22e4 aabd 377a 1bbe 025b 09be 7145 ccbd
000000b0: 44f3 7ebd 84d8 a3bd 63ce d33d 40ab 173e
000000c0: 2502 8d3b b5a1 f1bd 31a2 87bd 10d3 4b3c
000000d0: d1ed babd 4277 51be 0da3 63bd 33c0 bebd
000000e0: 7a89 ebbd f438 d7bd 18a9 cebd 0afc 1ebe
000000f0: a1af 823d ce4e 1f3d 3135 333e 0cdc b1bd

model.5.running_mean f4 [64]
0.9538753 0.2899178 -0.77601385 -0.05804119 0.13225096 -0.94528717 1.1498371 1.2827841
1.1197081 -0.5894485 0.99101424 -0.54665416 1.4051534 -0.482339 -0.2807673 -1.2203493
1.2478063 1.658216 -1.6877483 1.2552212 0.41444385 1.1879641 0.57722074 -0.4529724
1.7643911 -0.033521403 -0.6567853 -1.9863821 -0.11482929 0.40547895 -1.0338027 1.6224312
0.7690119 -0.9501375 1.0988984 0.6836394 1.0130864 0.055410627 -0.7273785 -0.36830235
1.7815305 0.5242388 1.4932499 0.019945584 -1.6981963 -0.8669804 0.76818705 -0.9858905
0.32149738 -0.3701193 -0.57993525 -0.24809887 0.5629832 1.5148001 1.1700433 0.6748702
-0.7828119 0.8673593 0.41235256 1.6750726 0.1744733 0.99732 -1.4602802 0.3694071
00000000: 2c31 743f 1b70 943e d8a8 46bf 99bc 6dbd
00000010: cc6c 073e 57fe 71bf dd2d 933f 4532 a43f
00000020: 9852 8f3f 19e6 16bf 1cb3 7d3f 87f1 0bbf
00000030: 11dc b33f 23f5 f6be bbc0 8fbe 6834 9cbf
00000040: 1eb8 9f3f 6c40 d43f 2308 d8bf 17ab a03f
00000050: fc31 d43e 350f 983f bdc4 133f 00ec e7be
00000060: 91d7 e13f bd4d 09bd 1523 28bf c541 febf
00000070: 9e2b ebbd f09a cf3e a653 84bf d3ab cf3f
00000080: f7dd 443f 363c 73bf b4a8 8c3f fe02 2f3f
00000090: d1ac 813f 41f6 623d 7a35 3abf 2092 bcbe
000000a0: 3109 e43f 8434 063f d022 bf3f ec64 a33c
000000b0: 7f5e d9bf 6df2 5dbf e8a7 443f 5263 7cbf
000000c0: 4e9b a43e 4780 bdbe a376 14bf a10d 7ebe
000000d0: ab1f 103f f8e4 c13f fbc3 953f 4bc4 2c3f
000000e0: 5c66 48bf 420b 5e3f e01f d33e c768 d63f
000000f0: 21a9 323e 5d50 7f3f 76ea babf ed22 bd3e

model.5.running_var f4 [64]
1.7983242 1.2857809 1.2582188 2.0412788 1.36642 2.1765406 1.5046449 1.6918819
2.0514328 1.713169 1.9921684 1.7252867 2.5425305 2.3359253 1.1193779 2.5482864
2.0553596 1.8311124 2.5350049 2.7667785 1.2973335 1.8650906 2.3956604 1.8782439
0.956478 1.3593231 1.401129 2.195931 1.8686246 1.5336541 2.0837724 1.217998
2.610644 1.4011383 3.7123952 2.8955169 1.7525998 2.8001242 1.8694237 2.2770069
1.1866629 1.5222723 1.2241634 2.9429476 2.0154037 3.7735553 2.1726017 2.7945812
2.0250533 1.6737069 1.3011016 1.6842508 1.6780137 1.3219489 1.5290134 2.448398
1.4676149 0.8662991 1.9591278 1.6125693 1.5422635 1.1839838 2.841231 1.741078
00000000: 7d2f e63f 7894 a43f 500d a13f 50a4 0240
00000010: dae6 ae3f 714c 0b40 3498 c03f 968f d83f
00000020: ad4a 0340 1f49 db3f 60ff fe3f 32d6 dc3f
00000030: d2b8 2240 cd7f 1540 c647 8f3f 2017 2340
00000040: 038b 0340 e461 ea3f 853d 2240 e612 3140
00000050: 060f a63f 4abb ee3f 8052 1940 4c6a f03f
00000060: bedb 743f 4dfe ad3f 3258 b33f 228a 0c40
00000070: 172f ef3f c74e c43f 875c 0540 5ce7 9b3f
00000080: cb14 2740 8058 b33f e297 6d40 2650 3940
00000090: 3155 e03f 3c35 3340 4749 ef3f 7bba 1140
000000a0: 92e4 973f d2d9 c23f 63b1 9c3f 4159 3c40
000000b0: 60fc 0040 ee81 7140 e80b 0b40 6bda 3240
000000c0: 799a 0140 073c d63f 7f8a a63f 8895 d73f
000000d0: 27c9 d63f 9f35 a93f b6b6 c33f 8eb2 1c40
000000e0: ceda bb3f c7c5 5d3f b3c4 fa3f ac68 ce3f
000000f0: e468 c53f c88c 973f bbd6 3540 a5db de3f

model.8.weight f4 [32, 64]
-0.0875232 0.19024841 -0.06577864 -0.025019683 -0.07823781 0.47604504 -0.10182598 -0.085155256
0.037232596 -0.44555232 0.04804993 0.081073575 0.1344597 0.12707448 -0.015859967 -0.050477564
-0.25194895 -0.0040386734 -0.08824507 -0.021530489 -0.24750276 -0.024377497 0.19425468 0.16773672
-0.017224105 0.35761875 0.20476124 -0.15869087 0.30408508 -0.43539894 -0.124161445 -0.28137505
-0.17668077 0.031627256 -0.20725442 0.006396423 -0.2736398 -0.15311576 0.2618795 -0.19858426
-0.22858186 -0.16696589 -0.08304351 -0.02320588 0.08234961 -0.091101214 -0.01901535 -0.18958923
-0.20032501 0.13281412 0.05145297 0.059823945 0.07536659 -0.07691123 -0.09396648 0.05816389
-0.21363148 0.06736712 0.32674003 -0.14673837 0.06001246 -0.3380831 -0.39621133 -0.027692582
-0.18374376 0.05733068 0.29191428 -0.41261837 -0.22942315 -0.18476912 -0.02143215 -0.03701233
0.10706569 0.2577964 -0.13648418 -0.0029491363 -0.009810021 -0.1650392 0.41423866 -0.2927992
-0.06678487 -0.087377116 -0.08941507 -0.016534848 -0.39086697 -0.3668983 -0.35905415 -0.018384831
-0.2600669 0.22644746 -0.024909379 -0.32463273 -0.14212757 -0.04358765 -0.33871627 -0.22458416
-0.2785332 0.06052174 -0.30788198 0.015359985 -0.20840004 -0.04211179 0.31152335 -0.11452779
-0.053064723 0.13826767 -0.2916452 0.0494616 0.0036704964 0.24929535 -0.016759599 -0.18109077
-0.1269934 0.15800975 -0.022272227 0.18721084 -0.048076574 -0.2707908 0.032873634 0.024331555
-0.15872101 0.025693312 -0.025589034 0.20800978 -0.0069403704 -0.253513 -0.3452495 0.29639557
0.054442506 -0.13193046 0.07608029 -0.09198935 0.19220705 -0.1526592 0.18716101 0.24214618
0.032000165 -0.06685716 -0.12561636 -0.15479273 0.102483705 0.18714294 0.04034237 -0.2742826
0.037864044 0.16909856 0.4051872 -0.17093538 -0.1852515 0.24283318 0.24268462 -0.13990764
0.12742795 -0.23452783 -0.0018481496 0.07633474 -0.28848216 0.18397316 0.21450126 -0.21185225
-0.07316051 0.045832857 0.10949573 0.10525723 -0.26661208 0.3283072 -0.13879326 -0.53018737
-0.019908391 0.19225374 -0.5803365 -0.090822145 -0.815474 -0.1267151 0.118947886 0.17928064
-0.024134517 -0.091613285 -0.026627474 -0.061039045 0.13980556 0.09321761 -0.06487453 0.011390805
-0.05671944 -0.028638208 -0.061752904 -0.16386355 0.07979634 -0.090915166 0.091020465 0.044318132
0.011687646 0.009026039 0.10456404 0.24993208 0.28204137 -0.2882083 0.0020270473 -0.14382762
-0.29297733 -0.15561378 -0.036059584 -0.16405265 -0.10224784 -0.20575605 0.051722597 0.08745861
-0.2974172 -0.22944608 0.14240631 0.23739678 0.20388879 -0.13714135 0.17055929 -0.21477862
-0.037582103 -0.21032438 -0.11934397 -0.030010875 -0.18721576 -0.17330307 0.18275224 -0.28887066
-0.15715292 0.24879642 -0.08062502 0.14102286 0.092462376 -0.12781166 0.08361576 -0.108917475
0.0488226 0.024690378 -0.046776198 0.30609217 -0.12946124 -0.21267183 -0.17062168 0.17188583
0.13271922 -0.06720993 -0.18950772 -0.015488196 -0.3067184 -0.08544406 -0.22843428 0.05672694
-0.32524982 -0.018725721 0.08903404 -0.2790841 0.5153109 0.23748356 0.034854766 -0.46925986
00000000: 5d3f b3bd 7bd0 423e f4b6 86bd 14f6 ccbc
00000010: 253b a0bd 2dbc f33e 248a d0bd e165 aebd
00000020: 3581 183d 6f1f e4be 01d0 443d e709 a63d
00000030: ceaf 093e d01f 023e c3ec 81bc 90c1 4ebd
00000040: 74ff 80be d956 84bb d5b9 b4bd b560 b0bc
00000050: 5d71 7dbe 51b3 c7bc b3ea 463e 2dc3 2b3e
00000060: 9119 8dbc ce19 b73e eeac 513e dc7f 22be
00000070: 0ab1 9b3e 9cec debe 5b48 febd 6410 90be
00000080: ceeb 34be 958b 013d 813a 54be 1699 d13b
00000090: 841a 8cbe 61ca 1cbe 1215 863e ac59 4bbe
000000a0: 5d11 6abe 1bf9 2abe b712 aabd 421a bebc
000000b0: eaa6 a83d 4693 babd 14c6 9bbc ae23 42be
000000c0: 0022 4dbe 6d00 083e 59c0 523d f409 753d
000000d0: cc59 9a3d a383 9dbd 7f71 c0bd 423d 6e3d
000000e0: 36c2 5abe c6f7 893d 784a a73e 9542 16be
000000f0: a0cf 753d 3a19 adbe 36dc cabe 8edb e2bc
00000100: 5327 3cbe 93d3 6a3d ca75 953e b742 d3be
00000110: e7ed 6abe 1e34 3dbe 7a92 afbc 3e9a 17bd
00000120: 4245 db3d e4fd 833e 82c2 0bbe 4c46 41bb
00000130: 36ba 20bc 0900 29be 1717 d43e c7e9 95be
00000140: 82c6 88bd c6f2 b2bd 401f b7bd 1774 87bc
00000150: b71f c8be 18da bbbe f2d5 b7be c99b 96bc
00000160: 7d27 85be d8e1 673e c10e ccbc 4336 a6be
00000170: e489 11be f788 32bd 386c adbe 64f9 65be
00000180: e79b 8ebe a5e5 773d b5a2 9dbe 72a8 7b3c
00000190: d266 55be 6a7d 2cbd fd7f 9f3e 8c8d eabd
000001a0: 655a 59bd 0a96 0d3e 8552 95be 3f98 4a3d
000001b0: b68c 703b 4847 7f3e 6d4b 89bc dc6f 39be
000001c0: 8f0a 02be 4fcd 213e 3f74 b6bc 33b4 3f3e
000001d0: f1eb 44bd 17a5 8abe 81a6 063d f852 c73c
000001e0: c387 22be c87a d23c 18a0 d1bc 8400 553e
000001f0: 0c6c e3bb 75cc 81be 8bc4 b0be 29c1 973e
00000200: 1bff 5e3d c718 07be fccf 9b3d ea64 bcbd
00000210: edd1 443e b152 1cbe 23a7 3f3e 2bf5 773e
00000220: 9b12 033d 68ec 88bd 93a1 00be fc81 1ebe
00000230: fae2 d13d 66a2 3f3e 0a3e 253d c56e 8cbe
00000240: 5417 1b3d 2c28 2d3e b274 cf3e af09 2fbe
00000250: 92b2 3dbe 43a9 783e 5182 783e f343 0fbe
00000260: 797c 023e 1028 70be 9c3d f2ba 6355 9c3d
00000270: efb3 93be 7663 3c3e 38a6 5b3e ccef 58be
00000280: 2dd5 95bd 3cbb 3b3d 4c3f e03d 1a91 d73d
00000290: 6181 88be e217 a83e d21f 0ebe 5cba 07bf
000002a0: ec16 a3bc 2ade 443e ef90 14bf f600 babd
000002b0: e7c2 50bf 9ac1 01be f39a f33d 5895 373e
000002c0: c0b5 c5bc bf9f bbbd dc21 dabc 1404 7abd
000002d0: 3029 0f3e e0e8 be3d f0dc 84bd 80a0 3a3c
000002e0: a552 68bd ad9a eabc 9df0 7cbd d9cb 27be
000002f0: 436c a33d bb31 babd f068 ba3d ee86 353d
00000300: 8a7d 3f3c f4e1 133c ac25 d63d 32ee 7f3e
00000310: ba67 903e 0a90 93be 36d8 043b 8c47 13be
00000320: 2001 96be 3859 1fbe 37b3 13bd 6bfd 27be
00000330: 5167 d1bd b7b1 52be 13db 533d 801d b33d
00000340: 1147 98be eaf3 6abe f6d2 113e 2418 733e
00000350: 39c8 503e c86e 0cbe 18a7 2e3e edee 5bbe
00000360: b1ef 19bd 465f 57be 9d6a f4bd 5ed9 f5bc
00000370: 7db5 3fbe 5c76 31be 6723 3b3e dbe6 93be
00000380: b2ec 20be 7dc4 7e3e bb1e a5bd 4c68 103e
00000390: ea5c bd3d 0fe1 02be bd3e ab3d 2010 dfbd
000003a0: 35fa 473d 7a43 ca3c 6698 3fbd 1db8 9c3e
000003b0: 7d91 04be a5c6 59be 73b7 2ebe d702 303e
000003c0: 8ce7 073e 5ca5 89bd 500e 42be 34c2 7dbc
000003d0: 320a 9dbe 4cfd aebd adea 69be 825a 683d
000003e0: 2587 a6be af66 99bc 7b57 b63d 1ce4 8ebe
000003f0: 6aeb 033f e42e 733e dfc3 0e3d d442 f0be

model.8.bias f4 [32]
0.006848244 0.004241605 -0.0027317626 0.0058860797 0.005732768 0.012659485 -0.004512464 -0.0039502
-0.003167706 -0.003673031 -0.0028610213 0.014447629 -0.00951497 0.00095002464 -0.0007505082 -0.005653069
0.00093472423 -0.007793117 0.00486069 -0.00093644793 0.004661183 -0.009724189 -0.0013783188 0.0074080094
0.011597102 0.009159324 -0.007982479 0.00794675 -0.0014147859 -0.005142999 0.007185298 0.008406864
00000000: 3c67 e03b 29fd 8a3b 5f07 33bb 04e0 c03b
00000010: f2d9 bb3b bb69 4f3c 4bdd 93bb ae70 81bb
00000020: 4a99 4fbb 3cb7 70bb f97f 3bbb c0b5 6c3c
00000030: ade4 1bbc 130b 793a c1bd 44ba 613d b9bb
00000040: 4808 753a 675d ffbb 6c46 9f3b f57b 75ba
00000050: d6bc 983b 3452 1fbc b4a8 b4ba e3be f23b
00000060: c501 3e3c fd10 163c f2c8 02bc 1633 023c
00000070: 5670 b9ba 9a86 a8bb a672 eb3b f1bc 093c

model.9.weight f4 [32]
0.84812015 0.9252668 0.9317277 0.9318563 0.91804504 0.822705 0.8806845 0.90720433
0.85343283 0.8832603 0.9039091 0.9256307 0.8862804 0.98788655 0.93719655 0.88690156
0.88688 0.8931774 0.7369907 0.9698038 0.60480976 0.73027027 0.895005 0.8601033
0.7357122 0.7412128 0.9096905 0.9032022 0.9076302 0.9686097 0.80609316 0.76334834
00000000: 671e 593f 49de 6c3f b585 6e3f 228e 6e3f
00000010: 0005 6b3f cb9c 523f 8a74 613f 8b3e 683f
00000020: 937a 5a3f 591d 623f 9666 673f 22f6 6c3f
00000030: 46e3 623f 22e6 7c3f 1dec 6f3f fb0b 633f
00000040: 910a 633f 46a7 643f 6cab 3c3f 1045 783f
00000050: d0d4 1a3f fef2 3a3f 0c1f 653f bb2f 5c3f
00000060: a257 3c3f 1fc0 3d3f 7ae1 683f 4238 673f
00000070: 745a 683f cef6 773f 1f5c 4e3f cc6a 433f

model.9.bias f4 [32]
-0.15383679 -0.09992833 0.1235437 0.09389445 0.02557909 -0.10434736 -0.09841478 -0.019556843
-0.1478068 -0.0381243 0.08366146 -0.085445605 -0.06736863 0.056465134 -0.022542609 -0.07525293
-0.07261264 -0.075568326 -0.25918135 0.07093638 -0.30619428 -0.27527022 -0.060400188 -0.1311891
-0.2204324 -0.13226359 0.029455334 0.11339258 -0.024193585 -0.029494978 -0.18181923 -0.19746931
00000000: 6487 1dbe 39a7 ccbd 7b04 fd3d bc4b c03d
00000010: 3d8b d13c 12b4 d5bd b08d c9bd ac35 a0bc
00000020: aa5a 17be 3a28 1cbd b356 ab3d 1bfe aebd
00000030: 90f8 89bd fc47 673d 47ab b8bc 351e 9abd
00000040: f0b5 94bd 91c3 9abd 6bb3 84be 1847 913d
00000050: 7fc5 9cbe 38f0 8cbe 3066 77bd 6f56 06be
00000060: 08b9 61be 1b70 07be 504c f13c 5e3a e83d
00000070: a031 c6bc 749f f1bc d22e 3abe 6535 4abe

model.9.running_mean f4 [32]
-1.087159 -1.8190626 -0.30412027 -0.75330454 -0.9162115 -0.70936704 0.5529852 -0.35286057
-1.8696651 -0.6843988 -0.56801397 -1.6730281 -0.2628712 -1.4358562 -0.646555 -0.43910575
0.58262753 0.44746402 -1.4888691 -0.16669191 -1.5026544 -1.740567 0.09414227 -1.5506567
-1.7437007 -0.5581014 -1.0047637 -0.6190008 -0.7484982 -1.6269809 -1.3492774 -1.4079254
00000000: 0728 8bbf 0bd7 e8bf a7b5 9bbe 91d8 40bf
00000010: d68c 6abf 1499 35bf 7090 0d3f 24aa b4be
00000020: 3051 efbf c234 2fbf 5d69 11bf c925 d6bf
00000030: 0e97 86be 23ca b7bf a184 25bf 78d2 e0be
00000040: 1427 153f 011a e53e 4393 bebf 49b1 2abe
00000050: fb56 c0bf e6ca debf aacd c03d eb7b c6bf
00000060: 9631 dfbf bcdf 0ebf 199c 80bf d676 1ebf
00000070: 949d 3fbf e940 d0bf 1fb5 acbf e636 b4bf

model.9.running_var f4 [32]
2.7144809 4.136302 3.2499604 3.7647316 3.074446 2.032732 2.1197453 1.743689
3.810419 3.588088 2.6561184 3.8482006 1.8601314 4.277413 1.8264552 2.450576
2.2084239 1.0146294 3.6477227 1.8171736 4.66385 3.73024 1.6927335 4.107715
4.353283 1.5840796 3.655558 2.745045 1.9031392 3.0448692 2.813336 4.6026144
00000000: 0eba 2d40 965c 8440 5aff 4f40 5df1 7040
00000010: b9c3 4440 4818 0240 e8a9 0740 3331 df3f
00000020: e8dd 7340 3ca3 6540 d8fd 2940 eb48 7640
00000030: c918 ee3f 91e0 8840 49c9 e93f 3dd6 1c40
00000040: d156 0d40 60df 813f 4a74 6940 2599 e83f
00000050: 423e 9540 41bc 6e40 7eab d83f 6772 8340
00000060: 184e 8b40 1fc3 ca3f aaf4 6940 d1ae 2f40
00000070: 119a f33f 23df 4240 b20d 3440 9e48 9340

model.12.weight f4 [1, 32]
0.065759 0.0863079 -0.043748323 -0.032267045 -0.036939483 -0.033395275 -0.0323022 -0.026464917
0.057584926 0.067774266 -0.035138 0.065376885 0.049293723 -0.032143082 -0.03427315 0.07823795
-0.017012931 -0.025640892 0.12182933 -0.032563485 -0.2233983 0.15419053 -0.027725011 0.08011875
0.097037435 -0.029358195 -0.036674704 -0.04016786 -0.026366837 0.07203099 0.10707097 0.10710521
00000000: a8ac 863d 32c2 b03d 7131 33bd 732a 04bd
00000010: db4d 17bd 7cc9 08bd 504f 04bd f4cc d8bc
00000020: 2cde 6b3d 3ccd 8a3d ddec 0fbd 51e4 853d
00000030: 37e8 493d 77a8 03bd 0162 0cbd 383b a03d
00000040: b45e 8bbc d90c d2bc a881 f93d 4a61 05bd
00000050: 86c2 64be 1fe4 1d3e 901f e3bc 4d15 a43d
00000060: 90bb c63d 9980 f0bc 3738 16bd 0e87 24bd
00000070: 44ff d7bc fc84 933d 0648 db3d fa59 db3d
