models/model_epoch_40.pth (torch, 168822 bytes, 45 tensors)

model.0.weight f4 [128, 6]
0	0xbf46e327	-0.77690357
1	0x3e27756c	0.16353387
2	0x3f41bead	0.75681573
3	0xbeb8af4a	-0.36071235
4	0xbf659393	-0.89678305
5	0xbf2ae5d5	-0.66756946
6	0x3f5b1b6d	0.85588723
7	0xbed99c36	-0.42501992
8	0xbd8513b6	-0.064979
9	0x3e15ad70	0.14616942
10	0xbe042b41	-0.12907125
11	0x3e2bb09e	0.16766593
12	0x3d69f972	0.057122655
13	0xbe8f6f59	-0.2801464
14	0x3e909cc5	0.28244606
15	0xbe9a7d82	-0.3017388
16	0xbf49912d	-0.78737146
17	0x3e3f1315	0.18659623
18	0xbf193eec	-0.59861636
19	0x3e74593e	0.23862168
20	0x3eeaaf00	0.4583664
21	0x3e710294	0.2353614
22	0xbf21a6bd	-0.6314505
23	0x3eae04d9	0.33988073
24	0xbf938a17	-1.1526517
25	0x3f7f29e9	0.99673325
26	0x3e8845e7	0.2661583
27	0xbf36752e	-0.7127255
28	0xbf2eeb9a	-0.6832825
29	0x3f20fa1d	0.6288164
30	0xbef5bc0a	-0.47995025
31	0x3f8d7dab	1.1053976
32	0xbf1c0faf	-0.6096143
33	0x3d8c891d	0.0686209
34	0xbc341883	-0.010992172
35	0xbd495904	-0.049157158
36	0xbf420e3b	-0.75802964
37	0xbb475584	-0.0030415962
38	0xbe1c51fc	-0.1526565
39	0x3f363958	0.7118125
40	0x3e31a39d	0.1734757
41	0x3f5e25dc	0.8677652
42	0xbe953ff6	-0.2915036
43	0x3f999325	1.199803
44	0xbf55c746	-0.8350719
45	0x3f8bd9a8	1.0925798
46	0x3f46a5c4	0.7759669
47	0x3f1035da	0.5633217
48	0x3ef9a2c6	0.48757
49	0x3f98b6f6	1.1930835
50	0x3f50fdf5	0.8163751
51	0x3ee9e25a	0.45680505
52	0x3ebff12a	0.3748868
53	0x3ebaef44	0.3651067
54	0xbf1698aa	-0.58826697
55	0xbe416726	-0.18887004
56	0xbeed1341	-0.46303752
57	0x3e666065	0.22497709
58	0x3efa9ab4	0.48946154
59	0x3eb537fa	0.3539427
60	0x3f541faa	0.82860816
61	0x3f8be0c9	1.0927974
62	0xbe70fa17	-0.23532902
63	0x3e945418	0.28970408
64	0x3b2989ff	0.0025869606
65	0xbdbb3646	-0.09141211
66	0xbcbc2b0e	-0.022969749
67	0x3ccbb638	0.024867162
68	0xbcc4197f	-0.023937939
69	0x3cbd6853	0.023121035
70	0x3d53342f	0.051563438
71	0x3f253813	0.6453869
72	0x3f96d2c3	1.1783069
73	0xbd2edc68	-0.042690665
74	0x3cb3b008	0.021934524
75	0xbdd46807	-0.10371404
76	0x3e69f5a8	0.22847617
77	0x3f5c88f2	0.8614646
78	0xbeadf2b2	-0.33974224
79	0xbe285866	-0.16439971
80	0xbd96d9e3	-0.07365777
81	0xbf02dc50	-0.5111742
82	0x3f3593b7	0.7092852
83	0xbe3570a5	-0.17718752
84	0xbe67c36a	-0.22633138
85	0x3f3bed13	0.7340862
86	0xbdb0dee3	-0.08636262
87	0xbd8e6b40	-0.0695405
88	0xbf9758f3	-1.182402
89	0xbefb0182	-0.49024588
90	0xbe0d9303	-0.13825612
91	0x3e6f814b	0.23389165
92	0x3f0d02d0	0.55082417
93	0x3e730e89	0.23736013
94	0xbeb0acbf	-0.34506795
95	0x3f399c7e	0.72504413
96	0x3bcedd74	0.0063130204
97	0xbe829f74	-0.25512278
98	0x3eabf8ba	0.335882
99	0x3e2ab16f	0.16669248
100	0x3f60d3aa	0.87822974
101	0xbea2efc9	-0.31823567
102	0x3e1f8862	0.1557937
103	0xbfa464bd	-1.2843243
104	0x3eb79c5b	0.35861477
105	0x3f2624d2	0.64899933
106	0xbef4650a	-0.47733337
107	0x3db39706	0.0876904
108	0xbf147760	-0.5799465
109	0x3e4c7b5d	0.19968934
110	0x3f85e435	1.0460268
111	0xbe176733	-0.14785461
112	0x3eb48fbe	0.35265917
113	0x3ef3a81c	0.47589195
114	0x3f1ae6f2	0.60508645
115	0x3e317f1c	0.17333645
116	0xbe18cf0f	-0.14922737
117	0xbd84f525	-0.0649207
118	0xbf6d22c3	-0.9263117
119	0xbf123a01	-0.57119757
120	0xbfbcf565	-1.4762388
121	0xbe9227e3	-0.28546056
122	0x3f5c9ee5	0.86179954
123	0x3f34765f	0.7049312
124	0x3e8553c6	0.26040477
125	0x3ecc3bf2	0.39889485
126	0x3f736422	0.95074666
127	0xbfa18b41	-1.2620622
128	0x3f416217	0.755403
129	0x3ddcf882	0.107895866
130	0x3e15081d	0.14553876
131	0xbfaa7d62	-1.3319514
132	0xbe05565e	-0.13021228
133	0xbf7f25bd	-0.9966696
134	0x3ebc3eab	0.36766562
135	0xbdac50d2	-0.08413853
136	0xbe6ecd9f	-0.23320626
137	0xbf5fa119	-0.8735519
138	0x3f12f062	0.57398045
139	0xbea0797a	-0.3134268
140	0x3f2da268	0.6782594
141	0xbefe15ca	-0.49626
142	0x3f8d9c17	1.106326
143	0x3f3a517c	0.72780585
144	0xbe34e461	-0.17665245
145	0x3e1169e3	0.14200549
146	0x3fa036b0	1.2516689
147	0x3debdae2	0.11516358
148	0x3e96371f	0.2933893
149	0x3f036737	0.5132937
150	0xbe8e209e	-0.2775926
151	0x3e4afe95	0.19823678
152	0xbeb3cf8f	-0.35119292
153	0x3cc882de	0.024476465
154	0x3f539d76	0.8266214
155	0x3f13ae1d	0.5768755
156	0x3f065a4c	0.5248153
157	0xbf14fdf9	-0.5820003
158	0xbea7bc3c	-0.327608
159	0xbcadc8ac	-0.021213852
160	0x3df5f4b9	0.12009568
161	0xbc81a3b3	-0.015825128
162	0xbf5b0b93	-0.85564536
163	0x3e896032	0.26831204
164	0x3f16b0f6	0.5886377
165	0x3db3a73c	0.08772132
166	0x3d20158d	0.039083052
167	0x3cd12b24	0.025533266
168	0x3e8c581c	0.27410972
169	0xbed996f3	-0.42497978
170	0x3de9980d	0.114059545
171	0xbede9c85	-0.4347879
172	0xbd81da22	-0.06340434
173	0xbe2f7adb	-0.1713671
174	0x3c7a8c42	0.015292229
175	0xbee40b6f	-0.44539973
176	0x3e99006b	0.2988313
177	0xbe4b136a	-0.19831625
178	0x3e7c4568	0.24635851
179	0xbf48de25	-0.78463966
180	0x3f21832b	0.6309077
181	0x3ed669e3	0.4187766
182	0xbf1ead5e	-0.6198329
183	0xbe55799b	-0.2084717
184	0xbf59042a	-0.8477198
185	0xbedc4eac	-0.43028772
186	0xbf1aa4aa	-0.6040751
187	0x3ce0126a	0.02735253
188	0x3e5fc4ad	0.2185237
189	0x3cc4d688	0.024028078
190	0xbc19d1d5	-0.009388407
191	0xbed34a93	-0.41267833
192	0xbdc58402	-0.09644319
193	0xbf43b90e	-0.76454246
194	0x3d876354	0.06610742
195	0xbde4c6e7	-0.1117075
196	0x3e9e7951	0.30951932
197	0x3cdb71a0	0.026787579
198	0x3fab3fc2	1.3378832
199	0x3fa195e0	1.2623863
200	0xbedb4541	-0.42826274
201	0xbe196395	-0.14979394
202	0xbf26db99	-0.6517883
203	0x3ea5f3a5	0.3241245
204	0xbbcfee80	-0.00634557
205	0xbf54e339	-0.83159214
206	0x3e8343ff	0.25637814
207	0xbe0779db	-0.13230078
208	0xbebc9681	-0.36833575
209	0xbe2f2ba9	-0.17106499
210	0x3f1509cf	0.5821809
211	0x3fd31593	1.6490959
212	0xbcb6a05c	-0.022293262
213	0x3e9076f9	0.2821577
214	0xbed5f19c	-0.41785896
215	0x3dd37a9c	0.1032612
216	0xbf398d32	-0.7248107
217	0xbeb8287c	-0.35968387
218	0xbd347269	-0.044054423
219	0x3f5d7cf5	0.86518794
220	0xbe2a6664	-0.16640621
221	0xbf1dd49f	-0.6165256
222	0x3e1a9139	0.1509446
223	0xbe220f44	-0.15826136
224	0x3fa7d873	1.311293
225	0x3dade387	0.08490663
226	0xbccdb726	-0.025111746
227	0xbf027314	-0.50956845
228	0x3f64daac	0.89396167
229	0xbf8210c7	-1.016137
230	0xbe18f85d	-0.14938493
231	0xbe605b6d	-0.21909876
232	0xbf416bb7	-0.75554985
233	0xbe5e89c0	-0.21732235
234	0xbf85c5d7	-1.0451001
235	0x3f098bbf	0.5372886
236	0x3e98b151	0.29822782
237	0x3effec8b	0.49985155
238	0x3ebd5caa	0.3698476
239	0x3e81744b	0.25284037
240	0xbded9c82	-0.11602117
241	0x3f703682	0.9383317
242	0xbd8e252b	-0.06940683
243	0x3d3b210d	0.045685817
244	0x3e71a7f5	0.23599227
245	0xbdfcd1a0	-0.1234467
246	0x3edb94e9	0.42887047
247	0x3f18ba19	0.5965896
248	0x3ed97621	0.42472938
249	0x3f481216	0.78152597
250	0xbee5e7c0	-0.44903374
251	0x3d2d1bbc	0.042262778
252	0xbd3494d9	-0.044087265
253	0xbe30ca7f	-0.17264746
254	0xbf80729b	-1.0034975
255	0x3ea881c0	0.3291149

model.0.bias f4 [128]
0	0x3b23a9d5	0.0024973054
1	0xbac01be0	-0.0014656745
2	0xbbadfed1	-0.0053099175
3	0x3abe0b0f	0.0014499145
4	0xbbeb1016	-0.0071735485
5	0x3ba84749	0.005135451
6	0x3998696b	0.00029070242
7	0x3be01100	0.006837964
8	0xbaa2caee	-0.0012420097
9	0x3b25dbd4	0.002530803
10	0xbbb1133b	-0.005403904
11	0x3bfb625e	0.0076716384
12	0x3bcc2bb8	0.0062307976
13	0x3c374e84	0.011188153
14	0x3aabf106	0.0013118095
15	0x3a83b044	0.0010047038
16	0x3b2368a8	0.0024934206
17	0xbb0fabaf	-0.00219224
18	0x3c202653	0.009774762
19	0xb9d4099f	-0.0004044296
20	0x3abd96a4	0.001446445
21	0x3b6abda9	0.0035818613
22	0xbbc1891c	-0.0059062373
23	0x3c24dae0	0.0100619495
24	0x3b54c687	0.0032466964
25	0x3b08a05f	0.0020847542
26	0x3bfdab18	0.007741343
27	0x3c4b5023	0.012409243
28	0xbc9046d3	-0.017611897
29	0x3bfb45a6	0.007668215
30	0xbb677a2e	-0.0035320628
31	0x3b5e4be8	0.0033919755
32	0x3ab0e67b	0.0013496423
33	0xbb50ff01	-0.0031890275
34	0xba3120e0	-0.0006756913
35	0xbbb9efd5	-0.005674342
36	0x3aa2cbef	0.0012420396
37	0x3b531b9b	0.00322125
38	0x3b2cf57a	0.0026391433
39	0x3c042b3c	0.0080669485
40	0x3b90d68a	0.0044201063
41	0x3b3a7f92	0.0028457385
42	0x3ae3b802	0.0017373564
43	0x3b587758	0.0033030119
44	0xbb692dde	-0.0035580317
45	0x3c18371b	0.009290482
46	0xba965336	-0.0011468891
47	0xbcbce05a	-0.023056198
48	0xbb5c67dc	-0.003363124
49	0x3a1d8e23	0.0006010255
50	0x3a290cae	0.0006448728
51	0xb9f8bbea	-0.00047442253
52	0xbb122b1c	-0.0022303527
53	0xbc835163	-0.01603002
54	0x3b488269	0.0030595309
55	0xbb6cdf6e	-0.0036143917
56	0xbace65b6	-0.0015746865
57	0x3c013b58	0.007887684
58	0xba8cc59d	-0.0010740046
59	0x3b12225f	0.0022298319
60	0x3bac2a37	0.005254056
61	0xbc3a5727	-0.011373318
62	0xbb4463c8	-0.00299667
63	0x391bf2bb	0.00014872376
64	0xbc0f98ed	-0.008764488
65	0xbb04eed0	-0.0020283945
66	0xbc58b2c3	-0.013226214
67	0x3ba10275	0.004913623
68	0x3af63ab9	0.0018785811
69	0xb8183685	-3.62904e-05
70	0x3bcb3742	0.0062016556
71	0x3b47ebc5	0.003050552
72	0x3ab08204	0.0013466482
73	0x3b081817	0.0020766312
74	0x3bc62e41	0.0060479944
75	0x3c252a51	0.01008089
76	0x3b11502e	0.0022173035
77	0xbb8f4b87	-0.0043730172
78	0xbbef112a	-0.0072957473
79	0xbbf5f6f5	-0.007506246
80	0xbb05b226	-0.0020400374
81	0x3be7552f	0.007059715
82	0x3ae9b457	0.0017830235
83	0xbb2687ef	-0.0025410613
84	0x3b0770ba	0.0020666556
85	0xb9a700ff	-0.00031853464
86	0x3b131062	0.0022440185
87	0xbb0acbd2	-0.0021178615
88	0x3b173eff	0.002307832
89	0xb902cc38	-0.00012473844
90	0x3bbc065b	0.0057380623
91	0xba0d271f	-0.00053845526
92	0xba88f403	-0.0010448698
93	0xbc6a0d70	-0.01428543
94	0x3d15caca	0.036570348
95	0xbb944db7	-0.004525866
96	0xbb93be9f	-0.004508808
97	0x3b62b0cb	0.003459024
98	0xbb6fc9fa	-0.0036588893
99	0xbacf7e99	-0.0015830576
100	0xbb135800	-0.0022482872
101	0xbb767465	-0.0037605998
102	0xbb89803b	-0.0041961945
103	0xbbbcea5c	-0.0057652425
104	0xbb04280a	-0.0020165467
105	0xb976fab1	-0.00023553778
106	0xbb5b1a0b	-0.003343227
107	0xbc09b57f	-0.008405088
108	0xbb095ee0	-0.002096109
109	0x3c3d90c2	0.0115701575
110	0x3aa7eb62	0.0012811238
111	0x3ba92678	0.0051620565
112	0x3c4afc13	0.012389201
113	0x3be8b308	0.0071014203
114	0xbaca8651	-0.0015451406
115	0xbd43a23a	-0.047762133
116	0x3ba3ed70	0.00500267
117	0xb91125ee	-0.00013842407
118	0xba0282e3	-0.000497861
119	0xbc39a4c4	-0.011330787
120	0xbb72987e	-0.0037017162
121	0x3b6a644d	0.003576535
122	0xba89ff46	-0.0010528348
123	0x3ae74ba2	0.0017646442
124	0x3b9afb8c	0.0047296938
125	0xbb508894	-0.0031819688
126	0x3b95eb54	0.0045751724
127	0xbaaa53bb	-0.0012994924

model.1.weight f4 [128]
0	0x3f6784f3	0.9043724
1	0x3f791196	0.9729246
2	0x3f78ac3f	0.97137827
3	0x3f75d7de	0.9603251
4	0x3f68594a	0.90761244
5	0x3f99e144	1.2021871
6	0x3f835e00	1.0263062
7	0x3f6d4d3c	0.92695975
8	0x3f8080eb	1.0039343
9	0x3f8acfad	1.0844628
10	0x3f89e79c	1.0773807
11	0x3f85ec6d	1.0462776
12	0x3f87f386	1.0621192
13	0x3f82edc1	1.0228807
14	0x3f6d9e2b	0.9281947
15	0x3f7f704a	0.99780715
16	0x3f6a7b8d	0.91594774
17	0x3f878825	1.0588423
18	0x3f70910f	0.9397134
19	0x3f6829a0	0.90688515
20	0x3f73da13	0.9525463
21	0x3f6c2589	0.92244774
22	0x3f76b080	0.9636307
23	0x3f655647	0.89584774
24	0x3f79f04d	0.97632295
25	0x3f67baa2	0.90519154
26	0x3f6d48f5	0.9268945
27	0x3f8843aa	1.064565
28	0x3f86448c	1.0489669
29	0x3f690466	0.91022336
30	0x3f740531	0.9532042
31	0x3f7c491a	0.98549044
32	0x3f8a710d	1.081575
33	0x3f7d36b1	0.9891158
34	0x3f85726a	1.0425541
35	0x3f89f9ad	1.077932
36	0x3f681702	0.9066011
37	0x3f75dab1	0.9603682
38	0x3f8abc56	1.0838726
39	0x3f7bcfa5	0.98363715
40	0x3f854d62	1.041424
41	0x3f7268ba	0.9469105
42	0x3f7a488e	0.9776696
43	0x3f808afa	1.0042412
44	0x3f82e7d3	1.0226997
45	0x3f97bb35	1.1854006
46	0x3f728875	0.94739467
47	0x3f79ed3f	0.97627634
48	0x3f7d1792	0.9886409
49	0x3f6a6e59	0.9157463
50	0x3f64d141	0.89381796
51	0x3f78bed6	0.9716619
52	0x3f7d991e	0.99061763
53	0x3f830130	1.0234737
54	0x3f832919	1.0246917
55	0x3f693c89	0.91107994
56	0x3f882bd4	1.0638375
57	0x3f670841	0.9024697
58	0x3f5dcd5f	0.86641496
59	0x3f8bc5bf	1.0919722
60	0x3f71c145	0.9443553
61	0x3f730b67	0.94939274
62	0x3f7bceba	0.98362315
63	0x3f7654f5	0.96223384
64	0x3f73dbe1	0.95257384
65	0x3f77f989	0.96865135
66	0x3f7ac9f0	0.9796438
67	0x3f708fd4	0.93969464
68	0x3f7fae68	0.998755
69	0x3f8424d4	1.0323739
70	0x3f762dca	0.9616362
71	0x3f732362	0.94975865
72	0x3f623e3c	0.8837621
73	0x3f84f1cc	1.038629
74	0x3f745656	0.9544424
75	0x3f7ae3cb	0.98003834
76	0x3f806230	1.0029964
77	0x3f8b3e8c	1.0878463
78	0x3f8433ed	1.0328346
79	0x3f775635	0.96615916
80	0x3f8411f9	1.0317985
81	0x3f831402	1.0240481
82	0x3f6c5998	0.9232421
83	0x3f66d13f	0.90163034
84	0x3f62d73e	0.88609684
85	0x3f88252c	1.0636344
86	0x3f78d185	0.971947
87	0x3f82c873	1.0217422
88	0x3f7dc093	0.9912197
89	0x3f8472aa	1.0347493
90	0x3f6a5706	0.9153904
91	0x3f8aa933	1.0832886
92	0x3f7c8e18	0.9865432
93	0x3f73967f	0.95151514
94	0x3f9000eb	1.125028
95	0x3f8168e2	1.0110133
96	0x3f721502	0.94563305
97	0x3f82dccd	1.0223633
98	0x3f7d359c	0.98909926
99	0x3f726e3c	0.94699454
100	0x3f7c8e6e	0.9865483
101	0x3f86fb27	1.0545396
102	0x3f8228ad	1.0168663
103	0x3f76db6a	0.9642855
104	0x3f6e86d5	0.9317449
105	0x3f80189a	1.0007508
106	0x3f802fce	1.0014589
107	0x3f89f67d	1.0778347
108	0x3f80fa96	1.0076473
109	0x3f7879fe	0.97061145
110	0x3f81a8b2	1.0129607
111	0x3f668d80	0.9005966
112	0x3f74f4a5	0.956858
113	0x3f8151fc	1.0103145
114	0x3f6cd5ab	0.9251353
115	0x3f8e934e	1.1138704
116	0x3f812122	1.0088236
117	0x3f7a37c6	0.97741354
118	0x3f6da485	0.9282916
119	0x3f794319	0.9736801
120	0x3f800e73	1.000441
121	0x3f68c8d0	0.90931416
122	0x3f7f4917	0.997209
123	0x3f7e6700	0.99375916
124	0x3f7850f0	0.969985
125	0x3f86abee	1.0521219
126	0x3f7dda39	0.99161106
127	0x3f81a855	1.0129496

model.1.bias f4 [128]
0	0xbd84f400	-0.06491852
1	0xbd9402a8	-0.07227069
2	0xbe08b9e0	-0.13352156
3	0xbdb02919	-0.08601589
4	0xbdd5c3de	-0.10437749
5	0xbeab496e	-0.3345446
6	0xbd77cc86	-0.060497783
7	0xbddbea26	-0.1073802
8	0xbd7e0e1b	-0.06202517
9	0xbd44edd3	-0.04807837
10	0xbe13f98b	-0.14450662
11	0xbd8b81ce	-0.06811868
12	0xbe31e126	-0.17371044
13	0xbdbd19ee	-0.09233461
14	0xbde9f00c	-0.114227384
15	0xbdaeff96	-0.08544843
16	0xbd4119e2	-0.047143824
17	0x3da7cfe4	0.08193949
18	0xbd9b74b9	-0.075906225
19	0xbdad5774	-0.08463946
20	0xbc8557fc	-0.016277306
21	0xbdab25e1	-0.08356834
22	0x3d810c50	0.063011765
23	0xbdc2e527	-0.095163636
24	0xbc9e8585	-0.019350776
25	0xbdaaec0f	-0.08345806
26	0x3da4f4c1	0.080544956
27	0xbdabb2e4	-0.0838373
28	0xbe3ac382	-0.18238643
29	0xbe29e9af	-0.1659305
30	0xbd8a5d77	-0.06756108
31	0x3d06fdbc	0.032956824
32	0xbca95849	-0.02067198
33	0xbe3e4839	-0.18582238
34	0x3df8c247	0.121464305
35	0xbdc7526e	-0.09732519
36	0xbd24f9f3	-0.040277433
37	0xbdab30ae	-0.08358894
38	0x3c6b2557	0.014352164
39	0xbd498f77	-0.049209084
40	0xbd3da512	-0.0463
41	0xbe4f5568	-0.20247424
42	0xbda77083	-0.08175757
43	0xbdfc9145	-0.123323955
44	0xbd31dee0	-0.04342544
45	0xbdb1c0d2	-0.08679356
46	0xbd11de2b	-0.035612267
47	0xbd4dbf5b	-0.05023132
48	0xbe48bb59	-0.19602717
49	0xbdacee21	-0.08443857
50	0xbe12a962	-0.14322427
51	0xbc34b0da	-0.011028493
52	0xbdd0e802	-0.10200502
53	0xbcad6431	-0.021165939
54	0xbda3d9e7	-0.08000546
55	0xbdae318a	-0.085055426
56	0xbb88585b	-0.0041609234
57	0xbddd8402	-0.10816194
58	0xbe9bfcbd	-0.30466262
59	0x3c459ddc	0.012061562
60	0xbe083215	-0.13300355
61	0xbe465981	-0.1937008
62	0xbcae07b8	-0.021243915
63	0xbe173d57	-0.14769493
64	0xbe2b9385	-0.16755493
65	0xbdc0c396	-0.09412305
66	0xbda5d5b1	-0.08097399
67	0xbe0a1c2f	-0.13487314
68	0xbe023eed	-0.12719317
69	0xbdb6e79d	-0.089308955
70	0x3a89d0de	0.0010514518
71	0xbd747c7b	-0.059689026
72	0xbe0cdf1e	-0.13756987
73	0xbc8622ef	-0.01637408
74	0xbe858fd9	-0.2608631
75	0xbe21e0bb	-0.15808384
76	0xbd9751ea	-0.07388671
77	0xbd80f843	-0.06297352
78	0xbad390f2	-0.001614122
79	0xbdaef026	-0.085418984
80	0xbdf7e1ad	-0.12103591
81	0x3cb6953b	0.022287956
82	0x3d5a3031	0.053268615
83	0xbd90236a	-0.07038005
84	0xbe429bf8	-0.1900481
85	0xbe8105a4	-0.25199616
86	0xbe1a8973	-0.15091495
87	0x3d90ce69	0.070706196
88	0xbe48208d	-0.19543667
89	0xbe4f4393	-0.20240621
90	0xbdfbcd37	-0.12295001
91	0xbe2e54a1	-0.17024471
92	0xbdd40370	-0.10352218
93	0x3c3f1cac	0.011664551
94	0xbeeadb92	-0.45870644
95	0xbe50f648	-0.20406449
96	0xbe0cda64	-0.13755184
97	0xbe1e90fe	-0.15484998
98	0xbe4795e7	-0.19490777
99	0xbd0292dc	-0.031878337
100	0xbda56dcd	-0.080775835
101	0xbe061eb4	-0.1309765
102	0xbe70cdc4	-0.23515993
103	0xbe28c4ad	-0.16481276
104	0xbd8ffeac	-0.07030997
105	0xbdde00fe	-0.10840033
106	0xbda1b271	-0.07895363
107	0xbe2106fe	-0.15725324
108	0xbe10706e	-0.14105389
109	0xbccdc672	-0.02511904
110	0x3c970925	0.018436978
111	0xbe070ddf	-0.13188885
112	0xbd975401	-0.07389069
113	0xbd868091	-0.06567491
114	0x3d8fa778	0.07014364
115	0xbe44f8c7	-0.19235526
116	0xbd19d30b	-0.037554782
117	0xbdaaf926	-0.083483025
118	0xbe2a2756	-0.16616568
119	0x3b19dc12	0.002347712
120	0xbe8317ec	-0.25604188
121	0xbd85bcd1	-0.065301545
122	0xbd07df8a	-0.033172168
123	0xbe905ed6	-0.28197354
124	0xbdba7aa6	-0.091054246
125	0x3d432f55	0.04765256
126	0xbe061d74	-0.13097173
127	0xbe11fe58	-0.1425718

model.1.running_mean f4 [128]
0	0x3c867807	0.016414655
1	0xbbd0835a	-0.0063633146
2	0x3c14105e	0.009037105
3	0xb7c107f1	-2.301109e-05
4	0x3c9b1382	0.0189302
5	0xbc624534	-0.013810445
6	0xbc694913	-0.014238614
7	0xbd2ed612	-0.042684622
8	0xbc5a41a0	-0.01332131
9	0xbae97014	-0.0017809891
10	0xbd059bb7	-0.032619204
11	0x3c4e1b77	0.01257979
12	0x3c6c51c1	0.0144237885
13	0x3d05066f	0.03247684
14	0xbc5d269a	-0.013497973
15	0x3b7b94a0	0.0038388148
16	0x3bab3cca	0.0052257525
17	0xbc22dfbb	-0.009941037
18	0x3d126aa3	0.035746228
19	0xbc67c48e	-0.014145983
20	0x3b311254	0.002701898
21	0x3bce15da	0.006289226
22	0x3b1959e4	0.0023399526
23	0x3d481122	0.048844464
24	0x3cb4d860	0.022075832
25	0x3ba78b91	0.005113073
26	0x3bf8c474	0.0075917784
27	0x3c98fc5b	0.01867502
28	0x395550a4	0.00020343304
29	0x3c85cd1a	0.016333152
30	0xbc9edd17	-0.019392533
31	0x3b829e22	0.003986136
32	0x3c756a7f	0.014979004
33	0xbcad46f9	-0.021152006
34	0x3c3539e2	0.011061164
35	0xbd0b215b	-0.033967357
36	0xbceeb9a9	-0.029141264
37	0x3c6932e6	0.014233327
38	0x3bff70c5	0.0077954256
39	0xbab4973e	-0.0013777984
40	0xbbbf3751	-0.0058354517
41	0xbcde06f6	-0.027102929
42	0xbca6015c	-0.02026432
43	0xbc420183	-0.011841181
44	0x3d4c02b6	0.049807273
45	0x3c06b6e0	0.008222312
46	0x3cbeaa79	0.023274647
47	0xbccb0541	-0.024782779
48	0x3c1e500e	0.009662641
49	0x3cc115dc	0.023569994
50	0xbd4edca2	-0.05050338
51	0x3cc8bdf6	0.024504643
52	0xbcf7cb44	-0.030248292
53	0xb93343cf	-0.00017096031
54	0x3cbb6c55	0.022878805
55	0x3c01a1ae	0.007912083
56	0x3cc6a812	0.024250064
57	0x3b1a5656	0.0023549995
58	0xbd0856bd	-0.033285845
59	0x3c93eb56	0.018056553
60	0x3a58d43c	0.00082713715
61	0xbd19058e	-0.037358813
62	0x3d2bdeac	0.041960403
63	0xbc8b4c4a	-0.01700415
64	0xbcce6584	-0.02519489
65	0x3b0863d2	0.002081145
66	0xb9e789f9	-0.0004416255
67	0x3c844930	0.01614818
68	0x3cf6d3e6	0.030130338
69	0x3da26c81	0.07930852
70	0xbc06a06d	-0.008216959
71	0xbc4e7fb8	-0.012603693
72	0x3ae8fbb7	0.0017775212
73	0xbc03b8b3	-0.008039641
74	0xbbba4ebc	-0.0056856554
75	0x3c80ebd9	0.01573746
76	0x3c66e512	0.014092701
77	0x3c30d794	0.010793585
78	0xbc1d1652	-0.009587841
79	0x3bea9b7e	0.0071596494
80	0x3b22c7df	0.002483837
81	0xbbce378b	-0.0062932423
82	0xbd282084	-0.041046634
83	0x3b099ed6	0.0020999215
84	0x3cb7f9d9	0.022458004
85	0xbc5573d0	-0.0130281
86	0x3bef1d12	0.0072971666
87	0x3c812192	0.015763078
88	0xbcd384c1	-0.025820138
89	0x3caa6b5c	0.020803146
90	0xbb9771f5	-0.004621739
91	0xbc18ab34	-0.009318162
92	0xbc24845e	-0.010041324
93	0x3c9fb2e7	0.019494487
94	0x3d2138b6	0.039360724
95	0xbc1f30bd	-0.00971621
96	0xbd008a7f	-0.03138208
97	0x3c57205e	0.0131302755
98	0xbca6cabc	-0.020360343
99	0x3d0bd99f	0.034143087
100	0x3c2d77c3	0.010587635
101	0x3ab03e09	0.0013446222
102	0xbcc8cd75	-0.024512032
103	0xbc807cb0	-0.015684456
104	0x3ce394d6	0.027780931
105	0xbcd9a549	-0.026568072
106	0xbb8d6f29	-0.00431623
107	0xbc8cf991	-0.017208846
108	0xbceaa9cf	-0.028645424
109	0x3c0a9db6	0.008460453
110	0xbaff4b9a	-0.0019477487
111	0xbcafba84	-0.021451242
112	0xba07385f	-0.0005158241
113	0x3c795690	0.015218392
114	0x3ad6d31f	0.0016389823
115	0xbd446a63	-0.04795302
116	0x3ca1957a	0.019724596
117	0xbb6321b2	-0.0034657535
118	0x3c2dc773	0.010606634
119	0x3c98be27	0.01864536
120	0xbc6a88b0	-0.014314815
121	0x3c96649a	0.018358517
122	0xbafd4eb5	-0.0019325825
123	0x3d06437e	0.03277921
124	0x3bcf850a	0.006332998
125	0x3d068c50	0.032848656
126	0xbc965b80	-0.018354177
127	0x3c5ed041	0.013599456

model.1.running_var f4 [128]
0	0x3fc54f33	1.5414795
1	0x3e6aa89e	0.22915885
2	0x3f401b36	0.7504152
3	0x3f0099a6	0.5023445
4	0x3fa4cee8	1.2875643
5	0x3e6afb75	0.22947486
6	0x402b67aa	2.6782022
7	0x400f7f3a	2.2421403
8	0x40aee5e6	5.465564
9	0x40240ec2	2.5634007
10	0x404f7996	3.241796
11	0x3eea5a96	0.45772237
12	0x3f99472f	1.1974849
13	0x3f9da396	1.2315547
14	0x40131de4	2.2986994
15	0x3f4c53f3	0.79815596
16	0x3f4c99d1	0.79922205
17	0x3f923719	1.1423064
18	0x3f03e01b	0.5151383
19	0x4013c499	2.3088744
20	0x3ff84d61	1.9398614
21	0x402bad5e	2.6824565
22	0x3f526ca0	0.82197
23	0x3feca7ff	1.8488768
24	0x3f9cc49f	1.2247504
25	0x3fd74ffc	1.6821284
26	0x3e366a3c	0.17813963
27	0x3d254472	0.040348478
28	0x3e60538e	0.21906874
29	0x3f1bef7d	0.60912305
30	0x3fcd856d	1.6056343
31	0x3e377f29	0.17919602
32	0x3f693aa2	0.9110509
33	0x40a95eaa	5.2928057
34	0x3ed10156	0.40821332
35	0x40b06762	5.51262
36	0x3fc1cbb4	1.514029
37	0x40270ff7	2.6103494
38	0x3f3e0333	0.7422363
39	0x3f1b8df1	0.6076346
40	0x3f31971d	0.69371206
41	0x40543d06	3.3162246
42	0x3fcfbbdc	1.6229205
43	0x4003547e	2.052032
44	0x405a3d0b	3.4099758
45	0x3f9b9a83	1.2156528
46	0x3fd74a6e	1.6819589
47	0x3f27143b	0.65265244
48	0x400aea2b	2.1705425
49	0x3f8d0998	1.1018553
50	0x405525d2	3.3304334
51	0x3f1a507b	0.60279053
52	0x3ff8faf5	1.9451586
53	0x3eef07f1	0.46685746
54	0x3faee1fb	1.3662714
55	0x3f1e0644	0.6172831
56	0x3f1eba6f	0.62003225
57	0x3f5efba1	0.87102705
58	0x405d0f5c	3.4540625
59	0x3fc7c37d	1.5606533
60	0x40248e5f	2.5711896
61	0x3f6c17a6	0.92223585
62	0x40059d76	2.0877357
63	0x40119774	2.274869
64	0x400e886d	2.2270768
65	0x3f83b21a	1.0288727
66	0x3eeaeedf	0.4588537
67	0x3f594552	0.848714
68	0x40d700ac	6.718832
69	0x40507b4e	3.257526
70	0x3f438bcc	0.7638519
71	0x40ad4928	5.41518
72	0x3fd63bb5	1.6736971
73	0x3f2de9b5	0.67934734
74	0x3e840aae	0.25789398
75	0x3f9a8de8	1.2074556
76	0x3f13f457	0.5779471
77	0x3f8d8c21	1.1058389
78	0x3e4a0822	0.19729665
79	0x3f1aca70	0.60465145
80	0x4063b923	3.5581748
81	0x3f0a6d4e	0.54073036
82	0x40131bd5	2.2985737
83	0x409448d3	4.6338897
84	0x4025826b	2.586085
85	0x3d3892af	0.045061763
86	0x3f16d4da	0.58918536
87	0x40370b48	2.8600636
88	0x41160487	9.376105
89	0x3f4b6037	0.7944369
90	0x3f28a508	0.6587682
91	0x3f216b00	0.63053894
92	0x3eab5c55	0.3346888
93	0x3f2ce6a0	0.67539406
94	0x3d640dfc	0.0556774
95	0x3dfc027e	0.12305163
96	0x3fc12f5f	1.5092582
97	0x3f49ebef	0.7887563
98	0x409113b7	4.5336566
99	0x40533dfe	3.3006587
100	0x3e88e074	0.26733744
101	0x407781ec	3.8673048
102	0x3ef0fe5f	0.4706907
103	0x3ff0e9cf	1.8821353
104	0x40e45423	7.1352706
105	0x4069e0f8	3.654356
106	0x3fead2ee	1.8345621
107	0x3e2526a8	0.16128027
108	0x4023e88c	2.5610685
109	0x3f016766	0.505484
110	0x3fb94c8d	1.4476486
111	0x408126a9	4.0359693
112	0x3f409175	0.7522195
113	0x3e9734aa	0.29532367
114	0x402c6add	2.6940224
115	0x3d3dce43	0.046339285
116	0x3f0ee7b3	0.55822295
117	0x40830ecb	4.095556
118	0x400cadec	2.1981153
119	0x3fe632de	1.7984273
120	0x4059eefc	3.4052114
121	0x3fdb37b9	1.712638
122	0x3f66c99b	0.90151376
123	0x3f52daf0	0.8236532
124	0x4014b1d4	2.3233538
125	0x3ff39802	1.9030764
126	0x3f824178	1.017623
127	0x400e21b7	2.2208078

model.4.weight f4 [64, 128]
0	0x3de5b495	0.11216084
1	0xbcbd4a5d	-0.023106748
2	0x3d5ef52e	0.05443304
3	0x3db4dcb7	0.088311605
4	0xbe4035b1	-0.18770482
5	0xbe64100a	-0.22271743
6	0x3e0f724b	0.14008443
7	0xbb524049	-0.0032081774
8	0x3bfd5458	0.007731002
9	0x3cced3b9	0.025247442
10	0x3e09c7f9	0.1345519
11	0x3e54ea3d	0.2079248
12	0xbd0fbaad	-0.035090137
13	0x3e32e2d2	0.17469338
14	0xbdc7ccac	-0.09755835
15	0x3baa10b7	0.005189981
16	0x3e0f972f	0.14022516
17	0x3d5b1454	0.053486183
18	0xbca20698	-0.019778535
19	0xbe9d5fd9	-0.30737188
20	0x3e1bacc8	0.1520263
21	0x3e72bca9	0.2370478
22	0x3d2db1e5	0.04240598
23	0x3dd0713c	0.10177848
24	0x3d594ef7	0.053053822
25	0xbcf910f8	-0.0304036
26	0xbdc156e7	-0.094404034
27	0xbd48783d	-0.048942793
28	0x3ca9acc3	0.020712262
29	0x3ec63c9b	0.38718113
30	0x3d88f772	0.066878214
31	0xbc05c79d	-0.008165267
32	0xbda36e7c	-0.079800576
33	0xbd626e84	-0.055281177
34	0xbe3d4048	-0.18481553
35	0xbe1dd8e3	-0.15414767
36	0xbddbd38b	-0.10733708
37	0x3d3cc871	0.046089593
38	0x3e8d1be5	0.27560344
39	0x3e584b95	0.21122582
40	0x3db0b11b	0.0862753
41	0xbe836cc2	-0.25668913
42	0x3e15d1e0	0.14630842
43	0x3d824383	0.06360533
44	0xbc984c1e	-0.018590983
45	0xbdd1b52d	-0.10239635
46	0xbcf7fed8	-0.030272886
47	0xbda4ac63	-0.08040693
48	0x3dcc565a	0.09977408
49	0x3c62b212	0.013836401
50	0xbccb4e51	-0.024817618
51	0x3dd70011	0.104980595
52	0x3d9ed368	0.07755166
53	0xbdb4ff09	-0.088377066
54	0x3d8239f9	0.06358714
55	0xbdb379ae	-0.08763443
56	0x3d3c6e79	0.046003792
57	0x3e17fe18	0.14843023
58	0xbca1e8b7	-0.019764287
59	0x3e145af4	0.14487821
60	0xbe33cc72	-0.17558458
61	0xbd8c3fc9	-0.068481036
62	0x3e83d72a	0.25750095
63	0xbb336b15	-0.0027377058
64	0xbc27d3b1	-0.010243342
65	0x3dd0b252	0.10190262
66	0xbe1b592d	-0.15170737
67	0x3db15c15	0.086601414
68	0x3e743929	0.2384993
69	0x3b337eba	0.0027388767
70	0xbdc8229b	-0.097722255
71	0x3cc1d2ea	0.023660142
72	0xbc8f7353	-0.017511046
73	0xbdbb768c	-0.091534704
74	0xbdb5bcea	-0.08873923
75	0x3d99ea31	0.075153716
76	0xbbf2e9a2	-0.007413105
77	0x3d590645	0.052984495
78	0x3e805ac3	0.25069246
79	0xbca3dda5	-0.02000315
80	0xbdde39cb	-0.10850867
81	0xbdc8dd93	-0.09807887
82	0xbb423fda	-0.002964011
83	0x3e1114f9	0.14168157
84	0x3d9059dd	0.0704839
85	0xbe8303cc	-0.25588834
86	0x3e5ad1cc	0.21369094
87	0x3d84bc9b	0.06481286
88	0x3c694de2	0.01423976
89	0x3e049364	0.1294685
90	0x3e38ee33	0.18059616
91	0xbdb49cc4	-0.08818963
92	0xbd756f36	-0.059920512
93	0xbe709fe0	-0.23498487
94	0xbe152023	-0.1456304
95	0x3c9e4553	0.019320166
96	0xbe300738	-0.17190254
97	0x3d4dcec7	0.050246026
98	0x3e37f7ed	0.1796567
99	0x3e3d9a16	0.1851581
100	0x3d71d78f	0.059043463
101	0x3dc9e160	0.0985744
102	0xbd771ca0	-0.060330033
103	0xbb5c609c	-0.003362692
104	0x3d58e5fa	0.052953698
105	0x3dcba206	0.09943013
106	0xbd953746	-0.07285933
107	0x3d9f9f16	0.07794015
108	0x3d2e66b6	0.04257842
109	0x3df3b271	0.11899269
110	0x3e2c4271	0.1682222
111	0x3dfa9689	0.122357436
112	0xbe32924e	-0.17438623
113	0xbcac156e	-0.021006312
114	0xbdb516a2	-0.088422075
115	0xbac2d475	-0.0014864343
116	0x3ead4a57	0.3384578
117	0xbca8d24d	-0.020608092
118	0xbe1c464c	-0.15261191
119	0xbdf0ae1f	-0.11751961
120	0xbdcacd5a	-0.09902449
121	0x3eaaddfa	0.3337248
122	0x3e0209d2	0.12699059
123	0x3e4d5bc2	0.20054534
124	0xbc60fc09	-0.013731965
125	0x3d22e61e	0.039770238
126	0x3d7881fd	0.06067084
127	0x3d03eb09	0.03220657
128	0xbc4c8bce	-0.012484504
129	0xbd51ea74	-0.051248983
130	0xbdd4bedd	-0.10387967
131	0xbe3828f6	-0.17984375
132	0x3dba1121	0.09085298
133	0x3c8c87e1	0.017154636
134	0xbddaa291	-0.10675538
135	0xbdc5a66a	-0.096508816
136	0x3bc8147a	0.0061059566
137	0x3cd6fa2e	0.026242342
138	0xbd952f53	-0.07284417
139	0x3d2ed67c	0.042685017
140	0xbd409467	-0.047016528
141	0xbd1c3779	-0.03813884
142	0xbd86aa31	-0.0657543
143	0xbe0f3dd3	-0.13988428
144	0x3eca3253	0.3949152
145	0xbda8a537	-0.08234637
146	0x3e6ef320	0.23334932
147	0xbd91d86a	-0.07121356
148	0x3cc373b5	0.023858884
149	0x3e10378c	0.1408369
150	0xbcd3bafd	-0.025845999
151	0xbe0cc038	-0.137452
152	0xbc22f79f	-0.009946733
153	0x3daaa321	0.083318956
154	0xbde1d263	-0.11026456
155	0x3daa2e96	0.08309667
156	0xbdc55385	-0.09635071
157	0xbca63a28	-0.020291403
158	0x3d9bdcdf	0.07610487
159	0x3e6d4639	0.23171319
160	0x3ccc4379	0.024934517
161	0x3d899fc8	0.06719929
162	0x3a3e0c42	0.00072497514
163	0xbce15f85	-0.027511368
164	0xbe50deed	-0.2039754
165	0x3e3f2b19	0.18668784
166	0x3e3a7539	0.1820878
167	0xbda2884b	-0.07936152
168	0x3de368b8	0.11103958
169	0xbcef4c9b	-0.029211333
170	0xbe2d0a3b	-0.16898434
171	0xbe10959b	-0.1411957
172	0x3e2f52d1	0.17121436
173	0xbe32985a	-0.1744093
174	0x3e86b9bf	0.26313588
175	0xbcf30a46	-0.029667985
176	0xbdd1b15c	-0.10238907
177	0xbe28f8bd	-0.16501136
178	0xbdfcc03f	-0.123413555
179	0x3de3b376	0.11118214
180	0x3eb56bb1	0.35433725
181	0xbe22e1bc	-0.15906423
182	0xbdd53691	-0.10410798
183	0xbca12dd3	-0.019675171
184	0xbe3fee7c	-0.18743318
185	0xbdc8bd87	-0.098017745
186	0x3e4a586e	0.19760296
187	0xbd62d2d6	-0.05537685
188	0x3e6e54d9	0.23274554
189	0x3ebe29ec	0.3714136
190	0x3e209275	0.15680869
191	0xba95c3b8	-0.0011426127
192	0x3e3082af	0.17237352
193	0x3c775f84	0.015098456
194	0xbd6ffc6c	-0.058590338
195	0x3c4b9812	0.012426393
196	0xbe06bce2	-0.1315799
197	0x3e0e2a1d	0.13883252
198	0x3cba29f0	0.022725075
199	0xbd3ab0ff	-0.045578953
200	0x3e0f8f30	0.14019465
201	0x3de1b49a	0.11020775
202	0xbdb16074	-0.08660975
203	0xbdc2ca23	-0.09511211
204	0xbc0955af	-0.008382245
205	0xbc444048	-0.0119782165
206	0x3d8e6f89	0.069548674
207	0x3e120f9b	0.14263766
208	0xbe8b099f	-0.27155778
209	0x3c550387	0.013001329
210	0xbc362f8e	-0.011119736
211	0xbca60c37	-0.020269496
212	0x3d62d61c	0.05537997
213	0x3dfa8107	0.12231641
214	0xbe08c47e	-0.13356206
215	0xbda499aa	-0.080371216
216	0xbdbd37b2	-0.09239139
217	0x3caf6ed0	0.021415144
218	0x3d019ddc	0.031644687
219	0xbcc70b59	-0.024297403
220	0x3dd5e873	0.10444727
221	0xbe761106	-0.24029931
222	0x3df17c48	0.11791283
223	0xbe1228a6	-0.14273319
224	0x3e467cd8	0.19383562
225	0x3e1f0ec7	0.15532981
226	0xbd7401b2	-0.05957193
227	0xbdc2a3c1	-0.0950389
228	0x3d6ef2fd	0.0583372
229	0x3baa1139	0.0051900414
230	0xbde3d145	-0.11123899
231	0xba01626b	-0.0004935625
232	0xbde78947	-0.113054805
233	0xbe827c98	-0.25485682
234	0x3e55c26c	0.20874947
235	0xbd8c57e6	-0.06852703
236	0xbd46e40d	-0.04855733
237	0x3e32bee4	0.17455631
238	0xbc389b7f	-0.011267542
239	0x3dc44141	0.09582759
240	0xbda20290	-0.07910645
241	0xbe950219	-0.29103163
242	0x3d498ed1	0.049208466
243	0x3ddbfb4a	0.10741289
244	0xbe0b58f3	-0.1360815
245	0xbd2188f7	-0.03943726
246	0x3d8d86ec	0.069105
247	0xbdc11a80	-0.094288826
248	0xbd54990c	-0.05190377
249	0xbe53c0fa	-0.20679083
250	0x3dffcced	0.12490258
251	0xbdea0f20	-0.11428666
252	0x3bae93a4	0.0053276587
253	0x3df55a4e	0.11980115
254	0x3d6223b8	0.055209845
255	0x3c72878c	0.014802825

model.4.bias f4 [64]
0	0xbb0eb976	-0.0021778024
1	0xba70dcda	-0.0009188183
2	0x3b3d27d9	0.0028862862
3	0xbb9e37de	-0.004828437
4	0xbb4e7823	-0.0031504713
5	0x3af05941	0.0018337147
6	0xbb8dd752	-0.0043286467
7	0x3b953d09	0.004554395
8	0xbb4472d0	-0.002997566
9	0xbb453f0f	-0.00300974
10	0x3c0c7417	0.0085726
11	0xbb908e94	-0.004411528
12	0xbc138c5d	-0.009005633
13	0xbb75ac82	-0.0037486856
14	0xbc2f6ce2	-0.010707112
15	0x3b195a56	0.0023399792
16	0x3a4f0ceb	0.0007898348
17	0x3b72e3a1	0.0037061947
18	0xbbc12a17	-0.00589491
19	0x3bee8d15	0.007280002
20	0xbc050879	-0.008119696
21	0x3b09bfc9	0.0021018854
22	0x3b897f4d	0.0041960836
23	0x3c633ae9	0.013869026
24	0xbb3615ad	-0.0027783916
25	0x39f3355f	0.00046388336
26	0xbc1c1e30	-0.009528682
27	0xbb9d0565	-0.004791903
28	0xbc33f311	-0.0109832445
29	0x39f57eb6	0.00046824449
30	0xbba7bf4a	-0.005119239
31	0xbb936b86	-0.004498902
32	0xbb96410d	-0.0045853914
33	0xb8e4756c	-0.00010893759
34	0x3a74311e	0.00093151804
35	0xbc144bfb	-0.009051318
36	0xbb85dca8	-0.004085142
37	0x3a8eed68	0.0010904493
38	0x3bbae32f	0.005703352
39	0x3c09874d	0.008394075
40	0x3aa2a637	0.0012409155
41	0x3c4cac5f	0.012492268
42	0x39ded02c	0.0004249824
43	0xbc2d440f	-0.010575308
44	0x3a8de132	0.001082456
45	0xbb9631aa	-0.004583557
46	0x3b250479	0.0025179668
47	0x3b086564	0.0020812387
48	0xbc3983bd	-0.011322913
49	0xba8499e7	-0.0010116667
50	0x3c2e4e30	0.010638759
51	0xbb99b323	-0.004690544
52	0xbb61a0f2	-0.0034428206
53	0xbb7b4b49	-0.0038344434
54	0x3c6f3139	0.014599138
55	0x3b24e050	0.0025158115
56	0x3c0f369b	0.008741046
57	0x3bb2081c	0.0054330956
58	0xbb58be9c	-0.0033072596
59	0x3b32c081	0.0027275386
60	0xb787e60c	-1.6200378e-05
61	0xbc2b607b	-0.010460014
62	0x3b8e2560	0.0043379515
63	0x3b857121	0.004072324

model.5.weight f4 [64]
0	0x3f7e1cfe	0.9926299
1	0x3f698e7f	0.91233057
2	0x3f60d21d	0.8782061
3	0x3f7fb5cc	0.99886775
4	0x3f67fefa	0.9062344
5	0x3f842b22	1.0325663
6	0x3f81f59d	1.015308
7	0x3f871895	1.0554377
8	0x3f821b3d	1.0164562
9	0x3f7d865a	0.9903313
10	0x3f78782a	0.97058356
11	0x3f866d88	1.0502176
12	0x3f7ecad0	0.9952822
13	0x3f859fdd	1.0439411
14	0x3f7518c1	0.95740896
15	0x3f84a195	1.0361811
16	0x3f84325c	1.0327868
17	0x3f8b0cbb	1.086326
18	0x3f9033e4	1.1265836
19	0x3f7d2c97	0.98896164
20	0x3f69922a	0.91238654
21	0x3f872563	1.0558285
22	0x3f7f2b2b	0.99675244
23	0x3f7abeb3	0.97947234
24	0x3f775bf4	0.96624684
25	0x3f703955	0.9383748
26	0x3f7c5e25	0.98581153
27	0x3f8e17e4	1.1101041
28	0x3f847dd1	1.0350896
29	0x3f80d57c	1.006515
30	0x3f7f7b9f	0.99798006
31	0x3f7750d8	0.9660773
32	0x3f808929	1.0041858
33	0x3f761697	0.9612822
34	0x3f849dc7	1.036065
35	0x3f7f57ed	0.9974354
36	0x3f8051dc	1.0024981
37	0x3f627088	0.8845296
38	0x3f67634f	0.9038591
39	0x3f85310a	1.040559
40	0x3f743a9f	0.9540195
41	0x3f7e94d0	0.9944582
42	0x3f77bd86	0.96773565
43	0x3f8c7456	1.0973003
44	0x3f767d67	0.962851
45	0x3f7dbcd1	0.99116236
46	0x3f81660e	1.010927
47	0x3f940085	1.1562659
48	0x3f941ccc	1.1571288
49	0x3f7b38f5	0.98133785
50	0x3f79440a	0.97369444
51	0x3f7e0aaa	0.9923502
52	0x3f64573e	0.8919562
53	0x3f82af54	1.0209756
54	0x3f862078	1.0478659
55	0x3f732f24	0.94993806
56	0x3f7c21d1	0.984891
57	0x3f5d6bbd	0.8649252
58	0x3f6fee30	0.9372282
59	0x3f7e684f	0.9937791
60	0x3f87c949	1.0608302
61	0x3f875115	1.0571619
62	0x3f98045e	1.1876333
63	0x3f830e03	1.0238651

model.5.bias f4 [64]
0	0xbc7e2729	-0.015512266
1	0xbe0abc49	-0.13548388
2	0xbd5caf05	-0.05387785
3	0x3d865c74	0.06560603
4	0xbdc5a698	-0.09650916
5	0x3d02751f	0.031849977
6	0xbdd1b7ff	-0.102401726
7	0xbdb35a67	-0.08757477
8	0xbc7a0548	-0.015260048
9	0xbcc89643	-0.024485713
10	0xbda7e6fa	-0.08198352
11	0xbc91c2ee	-0.017793145
12	0xbdfccdea	-0.123439625
13	0x3d74abb7	0.059734073
14	0xbe18c256	-0.14917883
15	0x3c54ab4c	0.0129802935
16	0xbd8cd8df	-0.068773024
17	0xbc7841b9	-0.015152388
18	0x3da62d67	0.081141286
19	0xbd9d3ed6	-0.07678001
20	0x3cb72aa6	0.022359204
21	0x3b5476dc	0.0032419479
22	0xbcd00a5e	-0.025395568
23	0xbd31d392	-0.04341466
24	0xbd48b6c5	-0.049002428
25	0xbe095398	-0.13410795
26	0xbc1db7be	-0.009626327
27	0x3d9a726b	0.07541355
28	0xbdbfc0e3	-0.09362962
29	0x3bb0b635	0.0053928145
30	0x3b02d58a	0.0019963705
31	0xbd9c6497	-0.076363735
32	0xbce41aeb	-0.027844867
33	0xbcb34a0e	-0.021885898
34	0xbe00e5ff	-0.12587737
35	0xbd850021	-0.06494165
36	0x397850ea	0.00023681266
37	0xbdd66803	-0.104690574
38	0xbdf9a990	-0.121905446
39	0x3d3bccc4	0.045849577
40	0xbda92c29	-0.08260376
41	0xbda57836	-0.08079569
42	0xbdb4c709	-0.088270254
43	0xbdab23ef	-0.08356463
44	0xbd6f5e80	-0.05843973
45	0xbdc1138c	-0.094275564
46	0x3d60cb9a	0.05488167
47	0x3e2c5729	0.16830124
48	0x3cdd9c49	0.027052062
49	0xbdb54046	-0.0885015
50	0xbd3523ab	-0.04422347
51	0xbc1686c6	-0.009187406
52	0xbd8a6f0e	-0.06759463
53	0xbe28d7fe	-0.16488644
54	0xbd3be249	-0.0458701
55	0xbdb5ea04	-0.088825256
56	0xbdab9aa3	-0.08379104
57	0xbdd69a3a	-0.10478635
58	0xbdd5782b	-0.10423311
59	0xbdfe5b4c	-0.12419757
60	0x3db4b3af	0.088233344
61	0x3d0f2d3f	0.03495526
62	0x3e1e7e7a	0.15477934
63	0xbdcbf3df	-0.09958624

model.5.running_mean f4 [64]
0	0x3f9101d4	1.1328683
1	0x3c5aa75a	0.013345564
2	0xbf6c4969	-0.92299515
3	0xbe01f565	-0.12691267
4	0x3dac8ed8	0.08425683
5	0xbf6bb028	-0.9206567
6	0x3f856a62	1.042309
7	0x3f8313de	1.0240438
8	0x3f9d22ac	1.2276206
9	0xbe2c3b4f	-0.168195
10	0x3f7a7515	0.97834903
11	0xbf20667e	-0.6265639
12	0x3fc81696	1.5631893
13	0xbe69c58b	-0.22829263
14	0xbec52952	-0.38508087
15	0xbfa67497	-1.300433
16	0x3fc1c884	1.5139318
17	0x3fc86e68	1.5658693
18	0xbff895eb	-1.9420751
19	0x3fa0af63	1.2553524
20	0x3eb2e1e1	0.34937957
21	0x3fa32532	1.2745726
22	0x3f0c0a7c	0.547035
23	0xbed68a8a	-0.41902572
24	0x3fe4cb12	1.7874472
25	0xbecf3dda	-0.40476876
26	0xbf241d37	-0.6410708
27	0xc004f049	-2.0771658
28	0xbdee251b	-0.11628171
29	0x3ee619e9	0.44941643
30	0xbf4f1022	-0.8088399
31	0x3fb29ce0	1.3954124
32	0x3f5b0171	0.85549074
33	0xbf9ce8db	-1.2258562
34	0x3fabdc3e	1.3426588
35	0x3f5ca064	0.86182237
36	0x3f6938d2	0.91102326
37	0xbdfc88d5	-0.12330786
38	0xbf17d72e	-0.59312713
39	0xbf02cadc	-0.5109079
40	0x3fcfc7b3	1.6232818
41	0x3ec3863e	0.38188356
42	0x3fc47c38	1.5350409
43	0x3e194119	0.14966239
44	0xbfd9cf61	-1.7016412
45	0xbf542e5d	-0.82883245
46	0x3f780654	0.96884656
47	0xbf52f6d4	-0.8240788
48	0x3f22c4dc	0.63581634
49	0xbe8dd78a	-0.27703506
50	0xbec6b44b	-0.38809428
51	0xbeb6e07a	-0.35718137
52	0x3ed645ea	0.41850215
53	0x3fd48455	1.6602885
54	0x3faed54f	1.3658847
55	0x3f3154d9	0.6927009
56	0xbf335332	-0.7004882
57	0x3f2dc3f4	0.67877126
58	0x3dc67854	0.096909195
59	0x3fe42815	1.7824732
60	0x3ea22c16	0.3167426
61	0x3f5c380d	0.86023027
62	0xbfa4f9c5	-1.2888724
63	0x3ebe125f	0.3712339

model.5.running_var f4 [64]
0	0x3f86cd08	1.053132
1	0x3fb32291	1.3994924
2	0x3f95e257	1.1709698
3	0x400b07c1	2.1723483
4	0x3fe16f1e	1.7612035
5	0x40045dc8	2.068224
6	0x3f9849f9	1.1897575
7	0x3fca97da	1.5827591
8	0x4005e3ae	2.0920215
9	0x3f9dce15	1.2328516
10	0x3ff0c25c	1.8809314
11	0x3ff440e4	1.9082303
12	0x402dbfdc	2.7148352
13	0x4007c3a8	2.121317
14	0x3ff430da	1.9077408
15	0x40132c7f	2.2995908
16	0x3ffb2101	1.9619447
17	0x3f9e02a4	1.2344556
18	0x3ffad765	1.9596983
19	0x402e3722	2.722115
20	0x3fa9ce6e	1.3266122
21	0x3fb9e6f4	1.4523606
22	0x4015df82	2.3417668
23	0x3ff5a874	1.9192033
24	0x3f89fb29	1.0779773
25	0x3fca79b4	1.5818391
26	0x3fb6a07a	1.4267724
27	0x402c366c	2.6908216
28	0x3fe876ec	1.8161292
29	0x3fb92232	1.446356
30	0x40019df3	2.0252655
31	0x3fc2eb61	1.5228082
32	0x401c40ae	2.4414477
33	0x3f96e305	1.1788031
34	0x4047dc97	3.1228387
35	0x403d2e44	2.9559488
36	0x3f9af8b0	1.2107143
37	0x403e5ab6	2.9742866
38	0x3f82c2a7	1.0215653
39	0x400d24fc	2.2053823
40	0x3f889ade	1.0672262
41	0x3f9597bf	1.1686934
42	0x3f7e3d31	0.9931212
43	0x402090f1	2.5088465
44	0x3ff846e6	1.9396636
45	0x404e76b3	3.2259948
46	0x40065b75	2.099332
47	0x40144271	2.3165553
48	0x3ffe87cd	1.9885193
49	0x3fc7a98e	1.5598619
50	0x3f9e01a6	1.2344253
51	0x3fc85e84	1.5653844
52	0x3fdde835	1.7336489
53	0x3fc3355f	1.5250663
54	0x3fac1aa5	1.3445631
55	0x401e7e7d	2.4764702
56	0x3fa10203	1.2578739
57	0x3fa959f9	1.3230582
58	0x3fd09092	1.6294119
59	0x40049d14	2.0720873
60	0x3fd7d850	1.6862888
61	0x3f9087fa	1.1291497
62	0x405e720c	3.4757109
63	0x3fdb041d	1.711063

model.8.weight f4 [32, 64]
0	0xbd9a9dfa	-0.07549663
1	0x3e2dd7c6	0.16976842
2	0xbd109c9f	-0.035305616
3	0x3b39ad16	0.0028331927
4	0xbd9fa028	-0.07794219
5	0x3ef23969	0.47309425
6	0xbe0ce2a7	-0.13758336
7	0xbdc05851	-0.09391845
8	0x3d73d786	0.05953171
9	0xbedf9f39	-0.43676165
10	0x3b168efc	0.002297341
11	0x3dc90076	0.09814541
12	0x3e0b29ce	0.13590166
13	0x3e1fe881	0.15616037
14	0xbd2161ad	-0.03939979
15	0xbbe74ec3	-0.0070589497
16	0xbe7e87d5	-0.24856503
17	0xbc508ca8	-0.012728848
18	0xbdb80507	-0.08985334
19	0xbd47100e	-0.048599295
20	0xbe709baa	-0.23496881
21	0xbbfede7d	-0.0077779875
22	0x3e7f3c0d	0.24925251
23	0x3e31728a	0.1732885
24	0xbc4ef7f6	-0.012632361
25	0x3ead4395	0.33840623
26	0x3e6922cc	0.2276718
27	0xbe2c2bb5	-0.16813548
28	0x3e980d3a	0.2969759
29	0xbed192b7	-0.40932247
30	0xbdecfb72	-0.11571397
31	0xbe98b385	-0.29824463
32	0xbe1cd68e	-0.15316221
33	0x3d11acb6	0.0355651
34	0xbe563227	-0.20917569
35	0x3c2b3ad4	0.010451037
36	0xbe8e794a	-0.2782691
37	0xbe0789f9	-0.13236226
38	0x3e7865a2	0.2425752
39	0xbe4be6d1	-0.19912268
40	0xbe6a2021	-0.22863819
41	0xbe49f81e	-0.19723555
42	0xbda46c59	-0.08028478
43	0xbcc83b44	-0.024442323
44	0x3d802289	0.06256587
45	0xbdfdac40	-0.1238637
46	0x3b1b0339	0.0023653044
47	0xbe3d0642	-0.18459418
48	0xbe3fe486	-0.18739519
49	0x3dcdd74e	0.10050832
50	0x3d78d198	0.06074676
51	0x3d8920cd	0.066957094
52	0x3dd20463	0.10254743
53	0xbd89072f	-0.06690823
54	0xbdfe4284	-0.124150306
55	0x3d4bf7e4	0.049796954
56	0xbe692582	-0.22768214
57	0x3d265174	0.040605024
58	0x3ea17f1c	0.3154229
59	0xbe1b594a	-0.1517078
60	0x3db489ff	0.08815383
61	0xbeb22e42	-0.34800917
62	0xbeb60e76	-0.35557908
63	0xbb84bbae	-0.0040506935
64	0xbe1997fb	-0.14999382
65	0x3d83ecec	0.06441674
66	0x3e9fdd43	0.31223497
67	0xbed0c665	-0.40776363
68	0xbe4b28ae	-0.19839737
69	0xbe495865	-0.19662626
70	0xbc8703e6	-0.016481351
71	0xbcccf8e0	-0.025021017
72	0x3e04878b	0.1294233
73	0x3e7e4797	0.24831997
74	0xbe252373	-0.16126804
75	0xbc86e4d9	-0.016466545
76	0x3aa2a880	0.0012409836
77	0xbe14d2ca	-0.14533535
78	0x3eccb6fe	0.39983362
79	0xbea04590	-0.31303072
80	0xbcaa8d82	-0.02081943
81	0xbdb2b67c	-0.087262124
82	0xbd50eee6	-0.05100908
83	0xbc9fa0d3	-0.019485867
84	0xbecd9ba5	-0.4015781
85	0xbec24c4b	-0.37948832
86	0xbebc9c8e	-0.36838192
87	0x3bec3f53	0.0072096973
88	0xbe803ff0	-0.2504878
89	0x3e472c30	0.1945045
90	0x3cf13b2a	0.029447157
91	0xbea8fee4	-0.33006966
92	0xbdcfd6b4	-0.10148373
93	0xbd6c7cdd	-0.057736266
94	0xbeb11a99	-0.34590605
95	0xbe6d9d9d	-0.23204656
96	0xbe5fabda	-0.218429
97	0x3d7cd838	0.06172964
98	0xbe9c24e0	-0.30496883
99	0x3d155b3b	0.036463957
100	0xbe7a5a06	-0.24448404
101	0xbc4a5f80	-0.012351871
102	0x3e9eaaa3	0.3098956
103	0xbe2a587e	-0.1663532
104	0xbda83e87	-0.08215051
105	0x3e182206	0.14856729
106	0xbea6bc57	-0.32565567
107	0x3dbd1516	0.092325374
108	0xbcbd0b73	-0.023076748
109	0x3e4184bd	0.18898292
110	0xbc386941	-0.011255563
111	0xbe25e3a4	-0.1620012
112	0xbdf76932	-0.12080611
113	0x3e19b617	0.15010868
114	0xbb7be8ab	-0.0038438241
115	0x3e30ac16	0.17253146
116	0xbd0c0cd2	-0.034191914
117	0xbe85433a	-0.26027852
118	0x3cfee424	0.031114645
119	0x3c4629fa	0.012094969
120	0xbe1e6b0b	-0.15470521
121	0x3cbb8337	0.022889717
122	0xbcd41926	-0.025890898
123	0x3e65b91c	0.22433895
124	0xbc5d5c3d	-0.013510761
125	0xbe87eaf8	-0.26546454
126	0xbe99139b	-0.2989777
127	0x3e932b6a	0.2874406
128	0x3d41c3ff	0.047306057
129	0xbe6040af	-0.21899675
130	0x3d9280d7	0.071534805
131	0xbd010a9c	-0.03150426
132	0x3e14b498	0.14522016
133	0xbe162696	-0.14663157
134	0x3e2fd58b	0.17171304
135	0x3e87d59c	0.2653016
136	0x3d724782	0.059150226
137	0xbd5ead95	-0.05436476
138	0xbe06855b	-0.13136809
139	0xbde73224	-0.112888604
140	0x3e13213c	0.14368147
141	0x3e7d52d0	0.24738622
142	0x3d7ab26a	0.061205305
143	0xbe827fba	-0.25488073
144	0x3ca80c24	0.020513602
145	0x3e29a73b	0.165677
146	0x3eac8b55	0.33700052
147	0xbe39f4f6	-0.18159851
148	0xbde4dbc3	-0.11174729
149	0x3e92e8a8	0.28693128
150	0x3e6b5a8d	0.22983761
151	0xbe1cc383	-0.15308957
152	0x3dfbb76d	0.12290845
153	0xbe8324e4	-0.25614083
154	0x3d9b18ae	0.07573067
155	0x3def61f2	0.116886035
156	0xbe857e64	-0.2607299
157	0x3e70e278	0.23523891
158	0x3e3a9d53	0.18224077
159	0xbe8b172f	-0.27166125
160	0xbd0fd99c	-0.035119638
161	0x3d83b97d	0.064318635
162	0x3d8013d6	0.062537834
163	0x3da940d3	0.08264317
164	0xbe96b0d0	-0.29431772
165	0x3eaa3ae7	0.33248064
166	0xbe392c5b	-0.18083327
167	0xbedd1e85	-0.43187347
168	0xbd101ceb	-0.03518383
169	0x3e46b612	0.19405392
170	0xbf0b708d	-0.54468614
171	0xbe055d2e	-0.13023826
172	0xbf35af44	-0.7097056
173	0xbdf30f16	-0.11868112
174	0x3d4c0a77	0.049814668
175	0x3e4fc053	0.2028821
176	0x3d9311e1	0.071811445
177	0xbdbf39f5	-0.09337226
178	0x3caca167	0.021073056
179	0xbd9456b0	-0.07243097
180	0x3e518811	0.20462061
181	0x3d476dd5	0.04868873
182	0xbd98ab90	-0.07454598
183	0x3c9dd75f	0.019267736
184	0xbda3f569	-0.08005793
185	0xbc7e218a	-0.015510926
186	0xbcf7b82a	-0.030239183
187	0xbe4dfb96	-0.20115504
188	0x3de2c386	0.110724494
189	0xbc975459	-0.018472837
190	0x3dd4fb52	0.10399498
191	0x3de5c368	0.112189114
192	0xbaf530be	-0.0018706543
193	0x3d10a182	0.035310276
194	0x3df6195f	0.12016558
195	0x3e84795e	0.25873846
196	0x3e91067b	0.28325257
197	0xbe8189a5	-0.25300327
198	0xbb90672b	-0.00440683
199	0xbe0439e7	-0.12912713
200	0xbe95116b	-0.2911485
201	0xbdf531c2	-0.11972381
202	0xbc02c09a	-0.00798049
203	0xbe043dc8	-0.12914193
204	0xbdbfa95d	-0.09358475
205	0xbe66e4a1	-0.22548153
206	0x3d7ea2ee	0.0621671
207	0x3da808e9	0.082048245
208	0xbe984ac0	-0.2974453
209	0xbe4751cc	-0.19464797
210	0x3e28724a	0.16449848
211	0x3e8739b4	0.26411211
212	0x3e4d38e5	0.20041235
213	0xbe18a59d	-0.14906926
214	0x3e35a915	0.17740281
215	0xbe3998ea	-0.18124738
216	0xbcd4aa7d	-0.025960201
217	0xbe4ed68e	-0.20199034
218	0xbda07675	-0.07835094
219	0x3c430c63	0.011904809
220	0xbe1d2d78	-0.15349376
221	0xbe314b5e	-0.17313907
222	0x3e2fd1cb	0.17169873
223	0xbe925e64	-0.2858764
224	0xbe452aca	-0.19254604
225	0x3e7acf35	0.24493106
226	0xbd87a842	-0.066238895
227	0x3e066061	0.13122703
228	0x3d80d53b	0.062906705
229	0xbe12e0c8	-0.1434356
230	0x3d813151	0.063082345
231	0xbdbb1486	-0.09134774
232	0x3dac2320	0.08405137
233	0x3d091a4c	0.033472344
234	0xbd7c955c	-0.061665878
235	0x3eaa12f1	0.33217576
236	0xbde387c7	-0.11109882
237	0xbe4a58fc	-0.19760507
238	0xbe527b1c	-0.20554775
239	0x3e4f1314	0.20222121
240	0x3e0832a2	0.13300565
241	0xbd2dd9bc	-0.042443976
242	0xbe2dc736	-0.16970524
243	0x3cb96222	0.022629801
244	0xbe9df521	-0.3085108
245	0xbdae9406	-0.08524327
246	0xbe60100d	-0.21881123
247	0x3d95c20e	0.073124036
248	0xbea6a4c4	-0.3254758
249	0x3d14fec2	0.03637577
250	0x3de55b1b	0.111990176
251	0xbe90327e	-0.28163522
252	0x3f0210ea	0.5080706
253	0x3e76d371	0.24104096
254	0x3d8f6b2f	0.070028655
255	0xbee3e2db	-0.44509014

model.8.bias f4 [32]
0	0x3ba45d99	0.0050160405
1	0x3b5687ca	0.0032734745
2	0xb85fb412	-5.3335047e-05
3	0x3b9c684f	0.0047731767
4	0x3bcbb7b3	0.006216967
5	0x3c2b6949	0.010462114
6	0xbba48615	-0.0050208666
7	0xbb2fc399	-0.0026819466
8	0xbbb159ab	-0.0054123006
9	0xbb26f254	-0.0025474029
10	0xbb560b7d	-0.0032660656
11	0x3c106521	0.0088131735
12	0xbc06a282	-0.008217456
13	0x3a86af95	0.0010275716
14	0xbb028cf4	-0.001992044
15	0xbaefc78b	-0.0018293721
16	0x3aa1699b	0.0012314798
17	0xbc02b22d	-0.007977051
18	0x3b642442	0.003481165
19	0xbb31b5d9	-0.0027116446
20	0x3aa11674	0.0012290017
21	0xbbd1e64a	-0.0064056264
22	0xbac8d71d	-0.0015322898
23	0x3babc2ad	0.005241713
24	0x3c181d6e	0.00928436
25	0x3c0ad03c	0.0084724985
26	0xbc1352af	-0.008991881
27	0x3bf2402b	0.0073929033
28	0xba2c6bce	-0.00065773434
29	0x3ae0d8e5	0.0017154483
30	0x3b8439a2	0.0040351907
31	0x3b901b6f	0.0043978016

model.9.weight f4 [32]
0	0x3f5c7a5c	0.86124206
1	0x3f6c4de7	0.9230637
2	0x3f6b0c89	0.91816
3	0x3f73ee3e	0.95285404
4	0x3f6bcba6	0.9210762
5	0x3f53241b	0.8247697
6	0x3f61bc93	0.88178366
7	0x3f6b4dc9	0.91915566
8	0x3f5dbf53	0.8662006
9	0x3f64cc4b	0.89374226
10	0x3f6ae14f	0.91750044
11	0x3f6f3eb5	0.9345506
12	0x3f612954	0.87953687
13	0x3f7f8c46	0.99823415
14	0x3f70722a	0.939242
15	0x3f61be34	0.8818085
16	0x3f655a31	0.89590746
17	0x3f651ba0	0.8949528
18	0x3f4073fb	0.7517697
19	0x3f7a7a53	0.978429
20	0x3f217284	0.6306536
21	0x3f40d108	0.75318956
22	0x3f679e8b	0.9047629
23	0x3f5f88ec	0.873183
24	0x3f430582	0.7618028
25	0x3f3ffdb2	0.74996483
26	0x3f6aad6f	0.9167089
27	0x3f6a1e7b	0.9145276
28	0x3f69b733	0.91295165
29	0x3f79f52b	0.9763972
30	0x3f4e2da0	0.8053837
31	0x3f49651c	0.78669906

model.9.bias f4 [32]
0	0xbe0be19f	-0.13660286
1	0xbdab45cf	-0.08362924
2	0x3d6c8360	0.057742476
3	0x3dcf48e6	0.10121326
4	0x3d000b57	0.031260815
5	0xbde0b1a9	-0.10971386
6	0xbdb4fc41	-0.08837176
7	0xbce28e7d	-0.027655834
8	0xbe0983b9	-0.13429154
9	0xbd12c10a	-0.035828628
10	0x3d0aeffa	0.033920266
11	0xbd88c5c8	-0.06678349
12	0xbdbde214	-0.092716366
13	0x3db0a7a6	0.086257264
14	0xbcfd0da8	-0.0308903
15	0xbd96a811	-0.07356275
16	0xbda48c39	-0.08034558
17	0xbd9cd099	-0.07656974
18	0xbe725adb	-0.23667471
19	0x3d90dadf	0.07072996
20	0xbe93c17f	-0.28858563
21	0xbe7a1cc7	-0.2442504
22	0xbd3582d2	-0.044314213
23	0xbdf196e8	-0.11796361
24	0xbe466f3c	-0.1937837
25	0xbe03222f	-0.12806009
26	0x3cef8b1b	0.029241135
27	0x3dbcdcb5	0.09221784
28	0xbd4782d7	-0.048708763
29	0xbcc6bd69	-0.02426024
30	0xbe2e12e9	-0.16999401
31	0xbe306b59	-0.1722845

model.9.running_mean f4 [32]
0	0xbf82bab1	-1.0213224
1	0xbfe3776e	-1.7770822
2	0xbd5caa14	-0.053873137
3	0xbf015feb	-0.50536984
4	0xbf458335	-0.7715333
5	0xbf326b81	-0.6969529
6	0x3f129ebc	0.5727346
7	0xbea48527	-0.32132837
8	0xbfe7ab2d	-1.8099114
9	0xbefb57c8	-0.4909041
10	0xbdd87fe2	-0.10571267
11	0xbfeab121	-1.8335305
12	0xbe87eddc	-0.2654866
13	0xbf987f28	-1.1913805
14	0xbf08a772	-0.533805
15	0xbf0da5ae	-0.5533093
16	0x3f82e4bf	1.0226058
17	0x3ea6ac94	0.32553542
18	0xbfbdbaa2	-1.4822581
19	0x3a987023	0.0011630099
20	0xbfb54dec	-1.4164405
21	0xbfe23d8a	-1.767503
22	0x3d04340b	0.032276195
23	0xbfcb921d	-1.5903965
24	0xbfc80d08	-1.5628977
25	0xbf0e15fc	-0.55502295
26	0xbf7f8a0e	-0.9982003
27	0xbefd2a26	-0.4944622
28	0xbeb192bb	-0.3468226
29	0xbfcc3b62	-1.5955622
30	0xbfabed6b	-1.3431829
31	0xbfa04ac5	-1.2522818

model.9.running_var f4 [32]
0	0x4033cac7	2.8092515
1	0x406ea20e	3.728641
2	0x4029e646	2.6546798
3	0x405a5f9c	3.4120855
4	0x401cf0c3	2.452195
5	0x401bf4de	2.4368205
6	0x402ad9b0	2.6695366
7	0x3f8abe9d	1.083942
8	0x405be1bb	3.4356525
9	0x40568571	3.3518946
10	0x402219a0	2.532814
11	0x4086f041	4.216828
12	0x3fa60669	1.2970706
13	0x403ed0a3	2.9814842
14	0x3fd991b7	1.6997594
15	0x4023eedd	2.561454
16	0x3fee727f	1.8628691
17	0x3fa93a5b	1.3220934
18	0x4054930a	3.3214746
19	0x3fc3b341	1.5289079
20	0x407ae7a3	3.920388
21	0x4063ccb2	3.5593686
22	0x3fc4ff55	1.5390421
23	0x4077d58e	3.8724093
24	0x406fce0c	3.746951
25	0x3fa29e50	1.2704563
26	0x4049e969	3.1548712
27	0x40337816	2.8042045
28	0x3fb54976	1.4163043
29	0x404c8e72	3.1961942
30	0x4029f78e	2.6557345
31	0x40597cd2	3.3982434

model.12.weight f4 [1, 32]
0	0x3d98358d	0.07432089
1	0x3da07d30	0.078363776
2	0xbc8f9d69	-0.017531114
3	0xbd41a401	-0.047275547
4	0xbd0d15be	-0.034444563
5	0xbcdb7e0e	-0.026793506
6	0xbc9f101a	-0.019416858
7	0xbcf0e6a4	-0.029406853
8	0x3d891eca	0.06695326
9	0x3d97f0de	0.07418989
10	0xbd0ac378	-0.03387782
11	0x3d8e0cd8	0.069360435
12	0x3d15491c	0.036446676
13	0xbd0141f7	-0.03155705
14	0xbcca152e	-0.024668302
15	0x3d8bda4d	0.06828747
16	0xbc1e42f8	-0.009659521
17	0xbc33d8fc	-0.010977026
18	0x3e05725a	0.13031903
19	0xbcfa0f48	-0.030524865
20	0xbe8149c8	-0.25251603
21	0x3e2f6881	0.17129709
22	0xbcec2d2e	-0.028830137
23	0x3db89645	0.09013037
24	0x3dfe4b59	0.12416715
25	0xbd3389ed	-0.04383271
26	0xbd1d543f	-0.03841042
27	0xbd1f0edf	-0.03883254
28	0xbcabd314	-0.020974673
29	0x3d9bcee9	0.07607824
30	0x3dcd6fa7	0.100310616
31	0x3e045655	0.12923558
