models/model_epoch_10.pth (torch, 164214 bytes, 45 tensors)

model.0.weight f4 [128, 6]
0	0xbf49ec2c	-0.78875995
1	0x3e7a6b66	0.24455032
2	0x3f2eb758	0.6824851
3	0xbeaecfa1	-0.34142783
4	0xbf64b50f	-0.89338773
5	0xbf3a7e00	-0.7284851
6	0x3f52149e	0.8206271
7	0xbee764bd	-0.45194045
8	0xbdf175a7	-0.117900185
9	0x3e6169fe	0.22013089
10	0xbe2651e7	-0.16242181
11	0x3d9488df	0.072526686
12	0xbbc4bdc7	-0.0060040685
13	0xbe3bed6a	-0.18352285
14	0x3e5bfaaa	0.2148234
15	0xbef265cc	-0.4734329
16	0xbf349170	-0.7053442
17	0x3ea140d3	0.3149477
18	0xbf24cd9c	-0.64376235
19	0x3e90aed8	0.28258395
20	0x3eddb3eb	0.4330133
21	0x3e373ee8	0.1789509
22	0xbf0850cb	-0.5324828
23	0x3ecd074e	0.40044636
24	0xbf9298a0	-1.1452827
25	0x3f72ad92	0.947961
26	0x3e865880	0.26239395
27	0xbf438e65	-0.7638915
28	0xbf370bff	-0.7150268
29	0x3f27031b	0.65239114
30	0xbf16b4c4	-0.58869576
31	0x3f76dd80	0.9643173
32	0xbf305a58	-0.68887854
33	0x3d973d1e	0.07384704
34	0xbe24c5d8	-0.16091096
35	0xbe54e25d	-0.20789476
36	0xbf4c3de6	-0.7978195
37	0x3ca78536	0.020449262
38	0xbe50c858	-0.20388925
39	0x3f327597	0.6971068
40	0x3deb0f8d	0.114775755
41	0x3f5b2707	0.85606426
42	0xbe9719f1	-0.2951198
43	0x3f955f74	1.1669755
44	0xbf4f21a8	-0.8091073
45	0x3f909597	1.1295651
46	0x3f53306a	0.8249575
47	0x3f05d8dc	0.52284026
48	0x3ee192bd	0.44057265
49	0x3f8521ee	1.040098
50	0x3f29f5c3	0.6639063
51	0x3f0cee1e	0.5505084
52	0x3ee0f7ba	0.43939
53	0x3f08b2db	0.5339791
54	0xbf0546ec	-0.52061343
55	0xbdcdfbab	-0.100577675
56	0xbeccb1a3	-0.39979276
57	0x3e85e550	0.26151514
58	0x3f0cdb58	0.5502219
59	0x3ea07b79	0.31344202
60	0x3f6772af	0.9040937
61	0x3f8015a7	1.0006608
62	0xbe0619d6	-0.13095793
63	0x3e9cd570	0.3063159
64	0x3d44cf4d	0.04804926
65	0xbe02f186	-0.12787446
66	0xbd83ff27	-0.06445151
67	0x3d54346a	0.0518078
68	0xbd01c88d	-0.0316854
69	0xbae69f79	-0.0017595134
70	0x3d4f6f85	0.050643463
71	0x3f173d7d	0.590782
72	0x3f963487	1.173478
73	0x3d85bb3b	0.06529852
74	0x3e52d434	0.20588762
75	0xbe3f0f73	-0.18658237
76	0x3e567c72	0.2094591
77	0x3f55a7d8	0.83459234
78	0xbeb7ad51	-0.35874417
79	0xbe3a9993	-0.18222646
80	0xbe0161da	-0.12634984
81	0xbed0cf70	-0.40783262
82	0x3f3d9b3a	0.7406498
83	0xbe548e56	-0.20757422
84	0xbe453961	-0.1926017
85	0x3f37d36e	0.7180699
86	0xbd786909	-0.060647044
87	0xbd038b24	-0.032115117
88	0xbf9d1272	-1.2271254
89	0xbef07ec7	-0.46971723
90	0xbe51b8af	-0.20480607
91	0x3e93cdf6	0.28868073
92	0x3f10024e	0.56253517
93	0x3e368cdf	0.17827176
94	0xbecbcb1d	-0.398034
95	0x3f2bf959	0.6717735
96	0x3c5d467d	0.013505575
97	0xbe6ebb8e	-0.23313734
98	0x3ea6eab8	0.3260095
99	0x3e4358b1	0.19076802
100	0x3f5cb1de	0.86208904
101	0xbeb2dc18	-0.34933543
102	0xbd7a609e	-0.061127298
103	0xbfa6811f	-1.3008155
104	0x3c288df5	0.010287751
105	0x3f33fcea	0.7030779
106	0xbece1c00	-0.40255737
107	0x3e83301c	0.25622642
108	0xbf07d528	-0.53059626
109	0x3e55b8be	0.20871255
110	0x3f7c26a1	0.98496443
111	0xbe67bac6	-0.22629842
112	0x3ed435d5	0.4144732
113	0x3f0d9f58	0.55321264
114	0x3f1118df	0.56678575
115	0x3ddcf763	0.10789373
116	0xbe065cc5	-0.13121326
117	0x3c3be73c	0.011468705
118	0xbf702639	-0.93808323
119	0xbf1d98f2	-0.615615
120	0xbfb224f8	-1.3917532
121	0xbe060e87	-0.13091479
122	0x3f78dbb1	0.9721022
123	0x3f45eddd	0.77316076
124	0x3e85c72c	0.2612852
125	0x3eb2816f	0.34864375
126	0x3f7192d8	0.9436469
127	0xbfa2194e	-1.2663972
128	0x3f442673	0.7662117
129	0x3dd287de	0.10279821
130	0x3e48f0b2	0.19623068
131	0xbfa716c0	-1.3053818
132	0xbcd277ea	-0.025691945
133	0xbf633f2d	-0.88768274
134	0x3ed05930	0.40693045
135	0xbe637996	-0.2221435
136	0xbe3330c8	-0.17499077
137	0xbf80f606	-1.007508
138	0x3f05f1d8	0.5232215
139	0xbea4ce41	-0.3218861
140	0x3f436244	0.76321816
141	0xbf12f349	-0.57402474
142	0x3f8af8b8	1.0857153
143	0x3f28cd1a	0.6593796
144	0xbe7f587c	-0.24936098
145	0x3da2b036	0.07943766
146	0x3f9b2484	1.2120519
147	0x3e044955	0.12918599
148	0x3eaefea4	0.3417865
149	0x3f06217d	0.5239485
150	0xbe66b316	-0.22529253
151	0x3e7b279b	0.24526827
152	0xbeab3690	-0.33440065
153	0x3d95c4f7	0.07312959
154	0x3f62c70e	0.88584983
155	0x3f024dcb	0.5089995
156	0x3eb8b525	0.36075702
157	0xbf0075b4	-0.501796
158	0xbf0b9e86	-0.5453876
159	0xbda9b452	-0.082863465
160	0x3dfbef88	0.12301546
161	0xbc8114ce	-0.01575699
162	0xbf6d0512	-0.9258586
163	0x3e26e64d	0.1629879
164	0x3ee67b10	0.45015764
165	0x3e0aa44f	0.13539241
166	0x3e5f1927	0.21786939
167	0x3da91c58	0.08257359
168	0x3e607269	0.21918644
169	0xbebe15ba	-0.3712595
170	0x3db616cf	0.08891069
171	0xbec637c2	-0.38714415
172	0xbe574f47	-0.21026336
173	0xbe8b2c29	-0.2718213
174	0x3e00ac21	0.12565662
175	0xbeb70b6b	-0.357509
176	0x3eaed8ae	0.34149688
177	0xbe058157	-0.1303762
178	0x3e6c5d84	0.23082548
179	0xbf5d8f6a	-0.8654696
180	0x3f1d4fe0	0.61450005
181	0x3ebb54dd	0.36588183
182	0xbf14c2e0	-0.58109856
183	0xbe25d18f	-0.16193222
184	0xbf72a95e	-0.94789684
185	0xbee99705	-0.4562303
186	0xbf10e284	-0.56595635
187	0x3d8225a3	0.06354835
188	0x3e2a7f5b	0.16650145
189	0xbcb7f83f	-0.02245724
190	0xbd067d57	-0.032834377
191	0xbf0061ae	-0.5014905
192	0xbe34e6d5	-0.1766618
193	0xbf262fe3	-0.6491682
194	0xbdac138f	-0.08402168
195	0xbe4d1b88	-0.20030034
196	0x3eb835a8	0.35978436
197	0x3d51969b	0.05116902
198	0x3f9f61b3	1.245169
199	0x3f944c61	1.1585809
200	0xbec7444b	-0.3891929
201	0xbe1fa3ce	-0.1558983
202	0xbf4e3854	-0.805547
203	0x3ecf2c05	0.40463272
204	0xbe6a1fc8	-0.22863686
205	0xbf65fa7c	-0.89835334
206	0x3da51b92	0.08061899
207	0xbe93ee17	-0.28892586
208	0xbe6c126b	-0.23053901
209	0x3cf61989	0.030041473
210	0x3f0293e6	0.51006925
211	0x3fbb1117	1.461459
212	0xba648cf0	-0.0008718511
213	0x3ef4adf9	0.4778898
214	0xbef75dcf	-0.48313758
215	0x3e1c16fd	0.15243144
216	0xbf289cf8	-0.65864515
217	0xbe9048a0	-0.28180408
218	0xbcc34ea9	-0.023841219
219	0x3f70496e	0.93862045
220	0xbe6142b7	-0.21998106
221	0xbf1e4b0b	-0.61833256
222	0x3cc3e74f	0.023914007
223	0xbe6bf39c	-0.23042148
224	0x3fa4f5ae	1.2887475
225	0x3d9aeb49	0.07564408
226	0xbd5f75a0	-0.054555535
227	0xbf0548b9	-0.5206409
228	0x3f3bd752	0.7337543
229	0xbf81378d	-1.0095078
230	0xbee1cbae	-0.44100708
231	0xbeb9384c	-0.36175764
232	0xbf3b3021	-0.73120314
233	0xbe8aac05	-0.27084365
234	0xbf82f46c	-1.0230842
235	0x3f0a6e1c	0.54074264
236	0x3e9bddf4	0.30442774
237	0x3efafc1c	0.4902047
238	0x3ec31523	0.38102064
239	0x3e9eba9b	0.31001744
240	0x3ce7b60d	0.02828505
241	0x3f5edc1c	0.8705461
242	0x3be9bb8c	0.007132953
243	0x3d86c395	0.06580273
244	0x3eaac6d8	0.3335483
245	0xbd72c09e	-0.059265725
246	0x3e9a48d4	0.30133688
247	0x3ef751ae	0.48304504
248	0x3ed46c27	0.41488764
249	0x3f504308	0.8135228
250	0xbf0aabe1	-0.54168516
251	0x3d2b5154	0.041825607
252	0x3c781c79	0.015143507
253	0xbdb1f868	-0.08689958
254	0xbf7b5178	-0.98171186
255	0x3eb87fcc	0.36035

model.0.bias f4 [128]
0	0x3b26e698	0.0025467034
1	0xbbde030b	-0.006775265
2	0x3ade80e8	0.0016975673
3	0x3b9594ad	0.0045648427
4	0xbb8af8a6	-0.004241067
5	0xbb23056e	-0.0024875063
6	0xba7d7069	-0.00096679345
7	0x3bac0965	0.0052501434
8	0xbb3345ff	-0.0027354953
9	0x3af19032	0.0018429814
10	0xbb59c20e	-0.0033227238
11	0x3ba162f2	0.0049251253
12	0x3c2c84ec	0.010529738
13	0x3c071d68	0.008246757
14	0x3b0a1352	0.0021068645
15	0x3b02b845	0.001994626
16	0x3b855a11	0.0040695746
17	0xb9e97643	-0.00044529335
18	0x3b824c31	0.003976368
19	0xb918b019	-0.00014561451
20	0xba0a0db5	-0.0005266325
21	0x3b0cb249	0.002146857
22	0xbb6ef1dd	-0.003646008
23	0x3bef44d9	0.0073019085
24	0x3a8f7b09	0.0010946702
25	0x3b8f14d3	0.004366496
26	0x3b291ff1	0.0025806392
27	0xbb6835d5	-0.0035432477
28	0x386ddb5d	5.67095e-05
29	0x3a0c4583	0.0005350934
30	0xbb6a9345	-0.0035793346
31	0xbbf2cdb2	-0.0074097747
32	0x3b0ee82b	0.0021805863
33	0xbb03407b	-0.0020027447
34	0x397484fa	0.00023319191
35	0xba988b6e	-0.0011638233
36	0xb9ad7898	-0.0003308698
37	0x3ade5ef5	0.0016965555
38	0xba62ba15	-0.0008648944
39	0x3b40926e	0.0029384154
40	0x3c015d2d	0.00789575
41	0x3b5ba73c	0.0033516428
42	0x3a5446c9	0.0008097706
43	0x37547421	1.2663223e-05
44	0xbaebd894	-0.0017993622
45	0x3b89551a	0.004191053
46	0xba1c3010	-0.00059580896
47	0xbc7fc979	-0.015612
48	0xbb29969f	-0.002587713
49	0x3a29b958	0.0006474457
50	0x3a107363	0.0005510358
51	0x3a292b92	0.0006453331
52	0xbb348de8	-0.0027550403
53	0xbc13ff99	-0.009033107
54	0xba75735f	-0.00093632
55	0xbaf41f3c	-0.0018625031
56	0xb954405c	-0.00020241871
57	0x3c00c99d	0.007860568
58	0x3ae7f9a6	0.0017698302
59	0x3abdf7af	0.0014493371
60	0x3b9ebbc4	0.0048441608
61	0xbba4a20a	-0.0050241994
62	0xbac67c61	-0.0015143269
63	0x3b4cd5cf	0.003125537
64	0xbbc01913	-0.005862364
65	0xbb9b20d0	-0.004734136
66	0xbc1b707c	-0.009487268
67	0x3a279df3	0.00063940807
68	0x3ab10c09	0.0013507615
69	0xbb5f95ef	-0.0034116467
70	0x3bac8be7	0.005265701
71	0x3b85feb0	0.004089199
72	0x3a644c89	0.00087089144
73	0x3a31e47c	0.0006786061
74	0xbb035613	-0.0020040318
75	0x3b9de460	0.004818484
76	0xbb0c21c4	-0.002138243
77	0xbbc6e978	-0.006070312
78	0x3c19dd8a	0.009391198
79	0xbb77c04a	-0.0037803822
80	0xbade199b	-0.0016944887
81	0x3be9c96b	0.0071346066
82	0x3b3f8cab	0.0029228132
83	0xbb6ce2d1	-0.0036145935
84	0x3aab5809	0.0013072501
85	0xbaeed343	-0.001822092
86	0xbb97ffe6	-0.00463866
87	0xbb081423	-0.0020763956
88	0x3ac9e49e	0.0015403216
89	0xba992f1d	-0.0011687014
90	0x3baac079	0.005210933
91	0xbac85593	-0.0015284292
92	0x3abbba7d	0.0014322546
93	0xbb8c1066	-0.004274416
94	0x3a888cec	0.0010417975
95	0xbbca08f1	-0.0061656167
96	0xba943fce	-0.0011310519
97	0x3b8865dc	0.004162533
98	0xbb781a6a	-0.003785754
99	0xbada5614	-0.0016657733
100	0x3ae883d8	0.0017739488
101	0x3a166d4b	0.0005738332
102	0xba66cbab	-0.00088041526
103	0xbb95ecdc	-0.004575355
104	0xba51b22f	-0.0007999269
105	0xb9df9af3	-0.0004264932
106	0xbb6eec60	-0.0036456808
107	0xba8d153a	-0.0010763772
108	0xbb008026	-0.0019607632
109	0x3ba42e93	0.005010435
110	0x3ae8f118	0.0017772047
111	0x3b47c5c9	0.003048288
112	0x3b776a77	0.0037752667
113	0x3c125c27	0.008933104
114	0xbb1baf66	-0.0023755669
115	0xbc7f074b	-0.015565704
116	0xbac6edb7	-0.0015177046
117	0x3a0af932	0.0005301415
118	0x38c9dd1e	9.625613e-05
119	0xbba45a7d	-0.00501567
120	0xba16b304	-0.00057487213
121	0x3a1b4482	0.0005922989
122	0xbb3889bb	-0.0028158266
123	0xbc00b65b	-0.007855977
124	0x3b223a94	0.0024754154
125	0xbb12c5e4	-0.0022395784
126	0x39aa2a09	0.00032456245
127	0xbafdd926	-0.0019367083

model.1.weight f4 [128]
0	0x3f7c3870	0.98523617
1	0x3f78828b	0.9707419
2	0x3f7fdcbe	0.999462
3	0x3f819f40	1.0126724
4	0x3f795c0c	0.9740608
5	0x3f8ec2fa	1.1153252
6	0x3f7d4a3e	0.9894141
7	0x3f7edd81	0.9955674
8	0x3f818391	1.0118276
9	0x3f87f53e	1.0621717
10	0x3f848cd4	1.0355477
11	0x3f800084	1.0000157
12	0x3f7bec09	0.98407036
13	0x3f83f1d0	1.030817
14	0x3f7a841a	0.9785782
15	0x3f819eb6	1.012656
16	0x3f7727f6	0.9654535
17	0x3f87e519	1.061679
18	0x3f75f63c	0.9607885
19	0x3f7442ba	0.95414317
20	0x3f813b17	1.0096158
21	0x3f79c09a	0.9755951
22	0x3f7b7ef7	0.9824061
23	0x3f78b87b	0.97156495
24	0x3f7fbca2	0.99897206
25	0x3f746bc8	0.9547696
26	0x3f8079af	1.0037135
27	0x3f8751de	1.0571859
28	0x3f836275	1.0264422
29	0x3f7d06d3	0.9883854
30	0x3f7d32c6	0.989056
31	0x3f78f127	0.9724297
32	0x3f89c2d3	1.0762581
33	0x3f757f97	0.9589781
34	0x3f87bced	1.060453
35	0x3f7e1f86	0.9926685
36	0x3f7caba6	0.98699415
37	0x3f80acab	1.0052694
38	0x3f7debcc	0.9918792
39	0x3f870698	1.0548887
40	0x3f7ceab6	0.9879564
41	0x3f81711f	1.0112647
42	0x3f82bcfe	1.0213926
43	0x3f87fef1	1.0624677
44	0x3f836846	1.0266197
45	0x3f900217	1.1250638
46	0x3f7a485e	0.97766674
47	0x3f7ff220	0.9997883
48	0x3f819801	1.0124513
49	0x3f773fb7	0.96581596
50	0x3f7734ee	0.9656514
51	0x3f72ef29	0.9489618
52	0x3f81304a	1.0092862
53	0x3f7bb001	0.98315436
54	0x3f82fefb	1.0234064
55	0x3f7295af	0.9475965
56	0x3f88a70f	1.0675982
57	0x3f7c91ab	0.9865977
58	0x3f79e3c0	0.97613144
59	0x3f7beba2	0.9840642
60	0x3f767be5	0.962828
61	0x3f732578	0.9497905
62	0x3f780fb2	0.9689895
63	0x3f7cd0e6	0.98756254
64	0x3f7878b8	0.970592
65	0x3f7cfe89	0.9882589
66	0x3f8028b9	1.0012428
67	0x3f7c1db6	0.98482835
68	0x3f82f7f9	1.0231925
69	0x3f84851c	1.0353122
70	0x3f8065f7	1.0031117
71	0x3f7e41a8	0.99318933
72	0x3f72a7de	0.94787395
73	0x3f83cdf4	1.0297227
74	0x3f7ddeb9	0.9916797
75	0x3f831372	1.0240309
76	0x3f82a77b	1.0207361
77	0x3f8ae5fc	1.0851436
78	0x3f802bcd	1.0013367
79	0x3f7d8ec1	0.9904595
80	0x3f7ed5b2	0.99544823
81	0x3f830fde	1.0239217
82	0x3f7d95ca	0.99056685
83	0x3f7955c2	0.9739648
84	0x3f75e3fb	0.96050996
85	0x3f79e35b	0.9761254
86	0x3f7e990a	0.9945227
87	0x3f878546	1.0587547
88	0x3f7f8048	0.99805117
89	0x3f79a966	0.97524107
90	0x3f7525db	0.9576089
91	0x3f79f9c0	0.97646713
92	0x3f8326e7	1.0246247
93	0x3f83af1e	1.0287817
94	0x3f754222	0.95804036
95	0x3f80bcbe	1.00576
96	0x3f7c9820	0.98669624
97	0x3f82fa7c	1.0232692
98	0x3f7e323d	0.9929541
99	0x3f78ee95	0.9723905
100	0x3f78ebd7	0.97234863
101	0x3f7e8dbc	0.9943502
102	0x3f7eabd4	0.9948094
103	0x3f7d2757	0.9888815
104	0x3f7b7fea	0.98242056
105	0x3f85ac7e	1.0443265
106	0x3f83b8b7	1.0290745
107	0x3f7e3aa9	0.9930826
108	0x3f7e4ac2	0.9933282
109	0x3f83dd65	1.0301939
110	0x3f838e19	1.027774
111	0x3f796f75	0.97435695
112	0x3f794f99	0.9738708
113	0x3f7c7a25	0.9862388
114	0x3f7b8977	0.9825663
115	0x3f875f07	1.0575875
116	0x3f7798b7	0.967174
117	0x3f8199a3	1.0125011
118	0x3f76da17	0.9642653
119	0x3f7c2f03	0.98509234
120	0x3f742614	0.953706
121	0x3f73eabd	0.9528006
122	0x3f819713	1.0124229
123	0x3f83d4ff	1.0299376
124	0x3f7e973f	0.99449533
125	0x3f78a7d7	0.97131103
126	0x3f7410a9	0.9533792
127	0x3f7e5b61	0.99358183

model.1.bias f4 [128]
0	0xbba88aa8	-0.0051434822
1	0xbc8bdc60	-0.017072856
2	0xbc3c3dd5	-0.011489351
3	0xbc0af11a	-0.008480335
4	0xbd5c9c94	-0.053860262
5	0x3c120cdf	0.0089142015
6	0xbd241c78	-0.040066212
7	0xbc65a3c3	-0.014016095
8	0x3cdaed11	0.02672437
9	0x3b5e7d91	0.0033949355
10	0x3cd15177	0.02555154
11	0xbc01fa3c	-0.007933196
12	0xbdc7d07c	-0.09756562
13	0xbc1dee74	-0.009639371
14	0xbce6817a	-0.028137911
15	0xbb35dd40	-0.0027750283
16	0x3be46841	0.006970436
17	0x3d92f63a	0.0717587
18	0xbd00eedf	-0.031477805
19	0xbcba0517	-0.022707505
20	0x3c7ed1f8	0.01555299
21	0xbcf9e3c4	-0.030504115
22	0x3c03df91	0.008048908
23	0xbd2cbdc1	-0.04217315
24	0x3c849cb2	0.016188
25	0xbd1cd397	-0.038287725
26	0x3c735fa8	0.014854349
27	0x3b8b1cc5	0.004245373
28	0xbd2ee4e6	-0.042698763
29	0xbc9eef8a	-0.01940133
30	0xbc4ea08c	-0.01261152
31	0xbc473d77	-0.01216065
32	0x3c1ef172	0.00970112
33	0xbd5c2aad	-0.053751636
34	0x3d9aafd6	0.07553069
35	0xbc8332a5	-0.01601536
36	0xbc59b938	-0.0132887885
37	0xb8e3cda5	-0.00010862508
38	0x3d811b7f	0.063040726
39	0x3d1a6e2a	0.037702717
40	0xbbb5c90e	-0.005547649
41	0xbc37b178	-0.011211745
42	0xbd07ae14	-0.033125
43	0xbbc225d3	-0.005924919
44	0x3cf18e11	0.029486688
45	0xbae9be92	-0.0017833284
46	0xbbc8a788	-0.006123487
47	0xbc52dcbe	-0.012870012
48	0xbd7a35e6	-0.061086558
49	0xbd127e10	-0.035764754
50	0xbd0bcb2a	-0.0341293
51	0xbd0a6900	-0.033791542
52	0x3c9a9d00	0.018873692
53	0xbaf0f517	-0.0018383589
54	0xbc99bfad	-0.018768156
55	0xbc71b12e	-0.014751716
56	0x3dc6e051	0.09710754
57	0xbc26f6e9	-0.010190704
58	0xbd8bc6f2	-0.06825055
59	0xbcaf4261	-0.021393957
60	0xbd26b39e	-0.04069864
61	0xbd42204e	-0.04739409
62	0xbce37490	-0.027765542
63	0xbc1615aa	-0.009160439
64	0xbc58b587	-0.013226873
65	0xbc5d7495	-0.013516565
66	0xbcbda3b8	-0.023149356
67	0xbbdc9277	-0.006731327
68	0x3c3b1144	0.011417691
69	0x3cd66099	0.026169108
70	0xbc09c307	-0.008408315
71	0xbcf6dd1d	-0.030134732
72	0xbd39290c	-0.04520516
73	0x3cfc4b08	0.030797496
74	0xbcc7295c	-0.024311714
75	0xbcc973e4	-0.024591394
76	0x3b24fcca	0.0025175088
77	0x3d6a5ec7	0.057219293
78	0x3c216eb4	0.009853054
79	0xbbfb0028	-0.0076599307
80	0xbcb80a99	-0.02246599
81	0xbc1a478f	-0.009416475
82	0xbc70a270	-0.014687166
83	0xbd10c2be	-0.03534197
84	0xbd67265c	-0.056433067
85	0xbd206d6c	-0.039166853
86	0xbce4407e	-0.027862784
87	0x3d3d37aa	0.046195664
88	0xbd3a1dc0	-0.045438528
89	0xbd894e75	-0.067044176
90	0xbd46ff24	-0.048583165
91	0xbc75b122	-0.014995845
92	0xbbe5a1ba	-0.0070078047
93	0x3d0f60e4	0.03500451
94	0xbd4c48e8	-0.049874216
95	0xbd7fcc41	-0.06245065
96	0xbd0263e6	-0.03183355
97	0xbd775d0c	-0.06039147
98	0xbd84ac87	-0.064782195
99	0xbca14c56	-0.01968972
100	0xbcb838a1	-0.02248794
101	0xbd41c42c	-0.047306225
102	0xbd51d49f	-0.051228162
103	0xbcf0361b	-0.029322674
104	0xbc852607	-0.016253484
105	0xbd4bda17	-0.049768534
106	0x3ab767f7	0.0013992776
107	0xbc5e0482	-0.013550879
108	0xbcaa4104	-0.020782955
109	0x3be2f941	0.006926686
110	0x3d01627e	0.03158807
111	0xbcbfe821	-0.023426117
112	0xbcf1fcdd	-0.02953952
113	0xbd150cae	-0.036389045
114	0x3c9b0846	0.018924844
115	0x3ccbf46f	0.024896828
116	0xbacd0cf8	-0.0015644124
117	0xbabdc0ac	-0.0014476976
118	0xbd785fca	-0.060638227
119	0xbbaee087	-0.0053368243
120	0xbd9aa588	-0.07551104
121	0xbcf23c1a	-0.029569674
122	0xbc56ad19	-0.013102793
123	0xbdc7e60d	-0.097606756
124	0xbb9ef65e	-0.0048511466
125	0xbcc2d201	-0.023781778
126	0xbd3e96a5	-0.046530385
127	0xbd22efcc	-0.03977947

model.1.running_mean f4 [128]
0	0x3c171917	0.0092222905
1	0x3b90cc1f	0.0044188644
2	0x3d1f02be	0.038820975
3	0x3d8a9281	0.06766225
4	0x3d482edd	0.048872817
5	0x3c9f65d1	0.01945773
6	0x3db8bfb5	0.0902094
7	0x3d1c8284	0.038210407
8	0xbccfb6bd	-0.025355691
9	0x3c9d7078	0.019218668
10	0xbd115547	-0.035481717
11	0x3d02cc83	0.03193332
12	0xbc060b74	-0.008181442
13	0xbd52081b	-0.05127726
14	0x3d53ca73	0.051706742
15	0x3d5f0415	0.054447252
16	0xbd84379f	-0.064559214
17	0x3db84033	0.0899662
18	0xbc9fbc61	-0.019499006
19	0x3c8885c8	0.016665354
20	0x3d460529	0.048344765
21	0xbdc1ae77	-0.09457105
22	0xbd410b58	-0.04712996
23	0xbdab59d2	-0.08366741
24	0xbc74de6f	-0.01494561
25	0xbc5b51dd	-0.013386217
26	0x3b03c918	0.0020108875
27	0x3b684bea	0.003544564
28	0xbc9b7952	-0.018978748
29	0xbd8c3bc1	-0.06847335
30	0x3ca4d433	0.020120716
31	0xbca8976b	-0.020580014
32	0xbc25ab1f	-0.010111599
33	0x3caa1427	0.020761563
34	0x3cb0e3a3	0.02159292
35	0x3cb2d452	0.021829758
36	0x3d42026c	0.04736559
37	0xbd3ee92a	-0.04660908
38	0x3cc37ee0	0.02386421
39	0x3cd9b19a	0.026573945
40	0xbce29c35	-0.027662376
41	0x3d4a4105	0.049378414
42	0x3d4b6255	0.049654324
43	0xbd6b8c6b	-0.05750696
44	0xbd37938e	-0.044818453
45	0x3da0f583	0.07859328
46	0x3c70bb6d	0.014693123
47	0x3d666d75	0.05625673
48	0x3d173d4d	0.036923695
49	0xbd94b2fb	-0.072607
50	0x3debf6d5	0.11521689
51	0xbc0fc461	-0.008774848
52	0xbd36c0fc	-0.044617638
53	0xbba064e6	-0.0048948405
54	0xbd095dc1	-0.033536676
55	0xbd5a5be7	-0.0533103
56	0xbc063cbd	-0.008193192
57	0x3c8746c3	0.016513234
58	0x39b43f26	0.00034379325
59	0xbc35a50e	-0.011086715
60	0x3de8927f	0.11356067
61	0xbd096ad1	-0.033549134
62	0x3cd52e01	0.026022913
63	0x3bc845aa	0.00611182
64	0xbce7e91e	-0.028309401
65	0x3d65a899	0.05606899
66	0x3b838946	0.004014167
67	0x3cdb18f2	0.026745293
68	0x3bc2347d	0.0059266672
69	0xbd6541e4	-0.05597104
70	0x3d41ab7b	0.047282677
71	0xbdd9a597	-0.10627287
72	0xbca1557e	-0.019694086
73	0x3cb11db1	0.021620603
74	0x3cbc6be9	0.023000674
75	0xbcf063d2	-0.029344473
76	0xbd3aafd8	-0.045577854
77	0x3d73d169	0.05952588
78	0xbcb12db4	-0.021628238
79	0xbc05f66b	-0.008176426
80	0x3e19913c	0.14996809
81	0x3ca2b06f	0.01985952
82	0x3d012eb4	0.03153868
83	0x3e14cd1a	0.14531365
84	0xbdd5662d	-0.10419879
85	0xbb25871b	-0.002525753
86	0xbc14d9bb	-0.009085114
87	0x3cc50052	0.024048004
88	0xbd67f492	-0.056629725
89	0x3bcf1f9a	0.006320906
90	0x3d126d69	0.035748873
91	0xbcb10e6f	-0.021613328
92	0x3b4e65e8	0.0031493846
93	0xbc9672ff	-0.018365381
94	0x3ca6caec	0.020360433
95	0x3b133068	0.0022459272
96	0xbd68accc	-0.056805417
97	0xba9530c3	-0.001138233
98	0x3bb92d41	0.0056511466
99	0xbd1a9c82	-0.037746914
100	0xbcddeeca	-0.027091403
101	0xbc982885	-0.018574009
102	0x3d6d14fb	0.057881337
103	0x3d82de7d	0.063900925
104	0xbd0c005b	-0.034180027
105	0x3d1bdc6a	0.038052
106	0xbd81d3eb	-0.06339248
107	0xbcbbcfd4	-0.022926249
108	0xbd74c872	-0.059761472
109	0xbce38e66	-0.027777862
110	0x3c52b4e6	0.012860512
111	0xbd95bbea	-0.073112324
112	0xb8a9a841	-8.089888e-05
113	0x3cafd1d9	0.021462368
114	0x3cfd128b	0.030892631
115	0xbcf1b3bd	-0.029504651
116	0xbce8d628	-0.02842243
117	0x3d5de418	0.054172605
118	0xbde062d3	-0.10956349
119	0xbe0b6584	-0.13612944
120	0xbd67cef8	-0.056593865
121	0x3cf3598e	0.029705789
122	0x3d20629b	0.039156538
123	0xbd4033dd	-0.04692446
124	0xbe010d12	-0.12602642
125	0xbda5451a	-0.08069821
126	0xbab5f122	-0.0013881067
127	0xbce8d02e	-0.02841958

model.1.running_var f4 [128]
0	0x3ff79a11	1.9343892
1	0x3e372007	0.17883311
2	0x3f62644d	0.88434297
3	0x3ec3d830	0.38250875
4	0x3fba7d25	1.4569441
5	0x3ea6d9a9	0.32587937
6	0x403f4695	2.988683
7	0x403b7dc9	2.9295523
8	0x40734825	3.8012784
9	0x4006140a	2.094973
10	0x40544032	3.3164182
11	0x3ec91b8b	0.39278826
12	0x3fd2ac25	1.6458784
13	0x3f98b5f4	1.1930528
14	0x402cd53c	2.7005148
15	0x3f31ae15	0.69406253
16	0x3f585814	0.84509397
17	0x401c8125	2.4453824
18	0x3f1ec1b9	0.6201435
19	0x4017cb00	2.3717651
20	0x3fd2c039	1.6464912
21	0x40161ed2	2.3456311
22	0x3f746f57	0.9548239
23	0x3ffae5d3	1.9601387
24	0x3f7c5d42	0.985798
25	0x3fd30f1d	1.6488987
26	0x3ef38a7d	0.47566596
27	0x3e938ef8	0.28820014
28	0x3ea576ca	0.3231719
29	0x3f4c4b3a	0.79802287
30	0x3ffee570	1.9913769
31	0x3e6a8ef3	0.22906093
32	0x3f938297	1.1524228
33	0x409727ae	4.7235937
34	0x3f9639f9	1.1736442
35	0x408a30f5	4.318476
36	0x3fc44dee	1.5336282
37	0x3ff54696	1.9162166
38	0x3f898a04	1.0745244
39	0x3f4ab3da	0.7918068
40	0x3f57bace	0.84269416
41	0x401fdcdf	2.497856
42	0x3fa4edcd	1.2885071
43	0x3fcf421f	1.6192054
44	0x406ec968	3.7310429
45	0x3fdba4b3	1.7159637
46	0x3fef2217	1.8682278
47	0x3f194178	0.5986552
48	0x402da4ab	2.7131755
49	0x3f900d62	1.1254084
50	0x4082f3a4	4.0922413
51	0x3f179c76	0.59223115
52	0x40194c61	2.3952868
53	0x3f38dd52	0.7221271
54	0x3f9d9841	1.2312089
55	0x3f3176f7	0.6932215
56	0x3f8482f9	1.035247
57	0x3fa28839	1.2697822
58	0x40811d70	4.0348434
59	0x3fc106fd	1.5080258
60	0x402e4250	2.7227974
61	0x3f584ee1	0.8449536
62	0x40015fd4	2.021474
63	0x400ea85b	2.2290256
64	0x3fd9a2e6	1.7002838
65	0x3f91281e	1.1340368
66	0x3ed90a75	0.4239079
67	0x3fac55f7	1.3463734
68	0x40e61934	7.1905766
69	0x406828ea	3.6274972
70	0x3f4c23df	0.79742235
71	0x40872d2f	4.2242656
72	0x3fd118d6	1.6335704
73	0x3f6260b4	0.8842881
74	0x3f0d16de	0.5511302
75	0x3f82c961	1.0217706
76	0x3f3b5b96	0.73186624
77	0x3fb0ac72	1.3802626
78	0x3e8c1bde	0.2736501
79	0x3f5a652e	0.8531064
80	0x407f93b6	3.9933906
81	0x3f221a96	0.63321817
82	0x4036e6b4	2.857831
83	0x40840ce2	4.1265726
84	0x403dbe10	2.9647255
85	0x3e8228e7	0.2542183
86	0x3f1d7964	0.6151335
87	0x4095826c	4.6721706
88	0x40f9677c	7.7938824
89	0x3f4a0c3e	0.7892493
90	0x3f44177b	0.7659833
91	0x3f18ccd4	0.5968754
92	0x3edd98f6	0.43280762
93	0x3f0f6847	0.5601849
94	0x3e974cd7	0.29550812
95	0x3ea38643	0.3193837
96	0x3fc53a81	1.5408479
97	0x3f86415e	1.0488698
98	0x4091bebc	4.554533
99	0x4067b435	3.620374
100	0x3ec8f458	0.3924892
101	0x40456e84	3.0848703
102	0x3f443964	0.7665007
103	0x3ffb2e2b	1.9623464
104	0x40c09636	6.0183363
105	0x404e8412	3.226811
106	0x3fdd18a0	1.727314
107	0x3ed7f159	0.4217632
108	0x402c157a	2.6888108
109	0x3f0a3b8a	0.539971
110	0x3fc83cd2	1.5643561
111	0x405095c8	3.259142
112	0x3f75c5b7	0.96004814
113	0x3ed4c6a2	0.41557795
114	0x40588673	3.3832061
115	0x3e4b39a2	0.19846204
116	0x3f0c3198	0.54763174
117	0x4082e3b5	4.0902963
118	0x3fd6c721	1.6779519
119	0x3fdc4b44	1.7210469
120	0x403095bd	2.7591393
121	0x3fc96014	1.5732446
122	0x3f8de726	1.1086166
123	0x3f3f75d2	0.74789155
124	0x400da3cb	2.2131221
125	0x3ffd7005	1.9799811
126	0x3fa2e411	1.272585
127	0x3fdb4e7a	1.7133324

model.4.weight f4 [64, 128]
0	0x3df32d58	0.11873883
1	0xbcce27c2	-0.025165442
2	0x3d52bfd1	0.05145246
3	0x3da5cb80	0.08095455
4	0xbe3b1b2d	-0.18272085
5	0xbe3d4995	-0.184851
6	0x3e2fe463	0.17176966
7	0x3a590fa0	0.00082802214
8	0xbb522533	-0.003206563
9	0x3d23c408	0.03998187
10	0x3dd50851	0.10401977
11	0x3e630f6d	0.22173853
12	0xbda16ad2	-0.078817025
13	0x3e341b3f	0.17588519
14	0xbe041563	-0.12898783
15	0xbb9164aa	-0.004437049
16	0x3e244b29	0.16044296
17	0x3d53d4ce	0.05171662
18	0xbc9b4c37	-0.01895724
19	0xbe926aee	-0.28597206
20	0x3e22db27	0.15903912
21	0x3e89f796	0.26946706
22	0x3d3bb23a	0.045824267
23	0x3dd2f3dd	0.103004195
24	0x3d5d470d	0.054022837
25	0xbcd7fba0	-0.026365101
26	0xbda7c1e1	-0.08191276
27	0xbcfbf125	-0.030754635
28	0xbc970c08	-0.018438354
29	0x3ecce558	0.40018725
30	0x3d19c665	0.03754272
31	0xbbc78159	-0.0060884175
32	0xbd931aeb	-0.071828686
33	0xbdc8ff71	-0.098143466
34	0xbe17cc56	-0.14824042
35	0xbe292010	-0.16516137
36	0xbdad03fb	-0.08448025
37	0x3d78d090	0.060745776
38	0x3e898b9f	0.26864335
39	0x3e4f83b6	0.20265087
40	0x3dc8280f	0.097732656
41	0xbe699b2b	-0.22813098
42	0x3e303e3b	0.17211239
43	0x3d894e3a	0.06704374
44	0xbcd3f64d	-0.025874281
45	0xbdde5a45	-0.10857061
46	0xbcf6b9eb	-0.03011795
47	0xbd9faa23	-0.07796123
48	0x3dd23014	0.102630764
49	0xbbd69045	-0.00654796
50	0xbcc43db5	-0.023955205
51	0x3de9828d	0.11401854
52	0x3db3ffa0	0.08788991
53	0xbdd8fcf6	-0.105951235
54	0x3d751ef4	0.059843972
55	0xbdcabde9	-0.09899504
56	0x3d4dbce0	0.050228953
57	0x3e16d529	0.14729752
58	0xb995d3ed	-0.00028577392
59	0x3d89e0d0	0.06732333
60	0xbe26af14	-0.16277725
61	0xbd0f1c26	-0.034938954
62	0x3e8ef88b	0.27923998
63	0xbc7b3d46	-0.015334433
64	0xbcc3bfe6	-0.023895215
65	0x3e043784	0.12911803
66	0xbddade32	-0.10686912
67	0x3dd1cdf0	0.102443576
68	0x3e283062	0.16424707
69	0x3c9eb5a6	0.019373726
70	0xbd72eeef	-0.059309896
71	0x3cf8549d	0.030313784
72	0xbc8fcadc	-0.017552786
73	0xbdb02cbb	-0.08602282
74	0xbdb3858c	-0.087657064
75	0x3da390eb	0.07986625
76	0x3b46a644	0.0030311504
77	0x3d90cf42	0.07070781
78	0x3e78f3b6	0.24311718
79	0xbd84b49d	-0.06479762
80	0xbda179ce	-0.078845605
81	0xbd99a0d8	-0.07501382
82	0x3c2b275c	0.010446396
83	0x3e4a76f0	0.19771934
84	0x3da82a60	0.082112074
85	0xbe55c3d1	-0.2087548
86	0x3e5d594f	0.216161
87	0x3ddcb3ee	0.10776506
88	0x3bc3d5af	0.005976401
89	0x3e0f783e	0.14010713
90	0x3e3e8a0c	0.18607348
91	0xbdc04611	-0.09388364
92	0xbd4e64fc	-0.050389275
93	0xbe7fa271	-0.2496431
94	0xbddb1432	-0.10697211
95	0x3d60dc64	0.05489768
96	0xbe0c9c78	-0.13731563
97	0x3d269f9e	0.040679567
98	0x3e30e38b	0.17274301
99	0x3e37683d	0.17910857
100	0x3ce0bcc3	0.027433759
101	0x3ddef713	0.108869694
102	0xbbc27538	-0.0059343837
103	0x3cfa67c0	0.03056705
104	0x3d5f0bce	0.054454617
105	0x3dd33010	0.103119016
106	0xbd7b8b37	-0.061412062
107	0x3d4762e4	0.048678294
108	0x3d517f90	0.051147044
109	0x3df6d987	0.12053209
110	0x3e40039c	0.18751377
111	0x3e0c843c	0.13722318
112	0xbe1e851c	-0.15480465
113	0xbd80cd7f	-0.06289195
114	0xbd662115	-0.056183893
115	0x3d18717f	0.037217613
116	0x3e8f4a97	0.27986595
117	0x3cc04b8f	0.02347353
118	0xbe071ad0	-0.13193822
119	0xbe40e3dd	-0.18836923
120	0xbdaeb840	-0.08531237
121	0x3e97b1b9	0.2962778
122	0x3e197df2	0.1498945
123	0x3e431701	0.19051744
124	0x3b4af724	0.0030970061
125	0x3cc50234	0.024048902
126	0x3d7ea9b1	0.06217355
127	0x3ba6a747	0.005085859
128	0xbd1fccac	-0.03901355
129	0xbc4f7df9	-0.012664312
130	0xbdb67279	-0.08908553
131	0xbe3ae74b	-0.18252294
132	0x3d21019a	0.039308168
133	0xbc56cf74	-0.013110984
134	0xbdc8077e	-0.09767054
135	0xbdd6b1be	-0.104831204
136	0x3d1a150e	0.037617736
137	0x3d33b296	0.043871485
138	0xbd333383	-0.043750297
139	0x3d791b21	0.060816888
140	0x3c93c8e9	0.018040137
141	0xbd9e1b16	-0.0772001
142	0xbd8dcac7	-0.06923442
143	0xbdd19820	-0.10234094
144	0x3ec5095e	0.3848371
145	0xbdc6d476	-0.097084925
146	0x3e65af73	0.2243021
147	0xbdc93893	-0.09825244
148	0x3c434af8	0.011919729
149	0x3e1d474e	0.15359232
150	0xbd80e611	-0.06293882
151	0xbe153668	-0.14571536
152	0x3d0ff918	0.035149664
153	0x3dd49040	0.10379076
154	0xbd3ce2e4	-0.046114817
155	0xbb960776	-0.004578526
156	0xbdcab080	-0.09896946
157	0xbd1497c8	-0.036277562
158	0x3d917dc9	0.0710407
159	0x3e24eccd	0.16105957
160	0x3cc8f7e2	0.024532262
161	0x3dc0727b	0.093968354
162	0xba950ede	-0.0011372229
163	0xbcd983ae	-0.026552048
164	0xbe74ede5	-0.23918875
165	0x3e573b69	0.21018757
166	0x3e42159e	0.18953559
167	0xbda46edc	-0.08028957
168	0x3e048572	0.1294153
169	0xbceb3623	-0.028712338
170	0xbe32f6f3	-0.17477016
171	0xbe43a346	-0.19105253
172	0x3e2d29b8	0.16910446
173	0xbe172603	-0.14760594
174	0x3e910c79	0.28329828
175	0xbcd002ea	-0.025392015
176	0xbdb0102c	-0.085968345
177	0xbe3425e3	-0.17592578
178	0xbe0a5980	-0.13510704
179	0x3dd8519a	0.10562439
180	0x3ecd3f38	0.40087295
181	0xbe1b69d9	-0.15177096
182	0xbda46460	-0.080269575
183	0xbda37a28	-0.07982284
184	0xbe2492e3	-0.16071658
185	0xbdf550b7	-0.11978286
186	0x3e5bff22	0.21484044
187	0xbc64211d	-0.01392391
188	0x3e6b4e6d	0.22979136
189	0x3ea3ec22	0.32016093
190	0x3e10bb22	0.14133886
191	0x3d3f158d	0.04665141
192	0x3e3c779c	0.18405002
193	0x3c57c859	0.013170325
194	0xbd4e2ce2	-0.050335772
195	0x3bd17d0f	0.006393082
196	0xbdc06498	-0.09394187
197	0x3e3aa6a4	0.18227631
198	0x3c9b2143	0.018936759
199	0xbd416a31	-0.047220413
200	0x3e0a13f1	0.1348417
201	0x3e0b7175	0.13617499
202	0xbe0b9d42	-0.13634208
203	0xbd57a1a1	-0.052644376
204	0xbccd4973	-0.025059437
205	0x3ca9148b	0.020639678
206	0x3d9b486b	0.07582172
207	0x3e1b39f0	0.1515882
208	0xbe8094bb	-0.25113472
209	0xbd4dd663	-0.050253283
210	0xbcff174d	-0.03113904
211	0xbd0274a3	-0.031849515
212	0x3cd1494d	0.025547648
213	0x3db0321d	0.08603308
214	0xbe079023	-0.13238578
215	0xbd8e4b91	-0.06948007
216	0xbd83ede6	-0.0644186
217	0x3c3fb6f8	0.011701338
218	0x3d37f92d	0.044915367
219	0x3bb7867c	0.0056007486
220	0x3dadd7d5	0.08488432
221	0xbe7bec5a	-0.2460188
222	0x3c0f5021	0.008747132
223	0xbe1912f5	-0.14948638
224	0x3e1bc1d1	0.15210654
225	0x3df92fb3	0.12167301
226	0xbcedc3cc	-0.029024027
227	0xbdbe4e4f	-0.0929228
228	0x3da863f5	0.0822219
229	0x3d19b06b	0.03752176
230	0xbdfef578	-0.12449163
231	0x3cc6150e	0.024179962
232	0xbddfa02c	-0.10919222
233	0xbe83a6a4	-0.25713074
234	0x3e4afa2d	0.19821997
235	0xbd2d4dcf	-0.042310532
236	0xbd8cf9a2	-0.06883551
237	0x3e1df743	0.15426354
238	0xbc0ac3c6	-0.008469528
239	0x3da49c3a	0.0803761
240	0xbd4d7499	-0.050160024
241	0xbe7fb5f6	-0.24971756
242	0x3d853b9e	0.06505512
243	0x3d0ba6cc	0.034094617
244	0xbe11bdac	-0.1423251
245	0xbcb57ebd	-0.02215516
246	0x3d5f0911	0.054452006
247	0xbdaf83c6	-0.08570056
248	0xbd00e246	-0.03146579
249	0xbe42c571	-0.1902063
250	0x3dfdd809	0.12394721
251	0xbde45f48	-0.11150986
252	0x3b642055	0.003480931
253	0x3dd0d70d	0.10197268
254	0x3de058cd	0.109544374
255	0x3d09a871	0.033607904

model.4.bias f4 [64]
0	0xbafea3bc	-0.0019427459
1	0x3b2589e4	0.0025259191
2	0x3a276889	0.00063861214
3	0xbb87ecef	-0.0041481177
4	0xba223459	-0.000618761
5	0x3b235222	0.002492078
6	0xbb3cf3c3	-0.0028831817
7	0x3bad7628	0.0052936263
8	0xbb118eb1	-0.0022210295
9	0xba40bc4f	-0.0007352279
10	0x3c1c986e	0.009557826
11	0xbbbf2612	-0.0058333958
12	0xbb98e910	-0.004666455
13	0xbb01e1d1	-0.0019818435
14	0xbbb6e23f	-0.00558117
15	0x3a000050	0.0004882859
16	0x3a8d3327	0.0010772691
17	0x3b03c4cf	0.002010632
18	0xbb1295a4	-0.0022367025
19	0x3bc865a4	0.006115632
20	0xbc1807c9	-0.0092792
21	0x3b7b270e	0.003832284
22	0x3c0e7937	0.008695892
23	0x3c7b8148	0.015350647
24	0x3b15afbc	0.0022840342
25	0xbb1e9e9f	-0.0024203432
26	0xbc1e63d4	-0.009667356
27	0xb96d1b3c	-0.00022612227
28	0xbbc5fe04	-0.006042244
29	0xbb3d4a38	-0.002888335
30	0xbb71f5fb	-0.0036920297
31	0xbb487f15	-0.0030593325
32	0xbb2f2346	-0.0026723905
33	0x39e18238	0.00043012365
34	0x3b80c3e1	0.0039296006
35	0xbb153fc2	-0.0022773598
36	0xbb9b0159	-0.0047303853
37	0x3a353c6b	0.0006913605
38	0x3b9fce2a	0.0048768716
39	0x3c0e1f11	0.008674399
40	0xbaec779b	-0.0018041016
41	0x3c4a38e5	0.012342666
42	0x3b79b061	0.0038099515
43	0xbc45d4dc	-0.012074675
44	0x3ae83df3	0.0017718658
45	0x3a63c3ed	0.0008688558
46	0x3af34c96	0.0018562253
47	0xbabf6fa5	-0.0014605416
48	0xbb92a783	-0.0044755354
49	0xba4703a7	-0.0007591792
50	0x3c34ee23	0.011043104
51	0xba8c5ea5	-0.0010709359
52	0xbba4e37f	-0.0050320025
53	0xbba40adf	-0.0050061787
54	0x3b952966	0.004552054
55	0x3ae81eab	0.0017709335
56	0x3bcffd8e	0.0063473647
57	0x3b573260	0.0032836422
58	0xb90627f8	-0.00012794125
59	0x3b58fbb4	0.003310901
60	0xbb0d3ab9	-0.0021549894
61	0xbc1bda30	-0.009512469
62	0x3b1f3173	0.0024290949
63	0x3a5071e5	0.0007951542

model.5.weight f4 [64]
0	0x3f79b5b9	0.9754291
1	0x3f73a691	0.95176035
2	0x3f74b2b0	0.95585155
3	0x3f7b085e	0.9805964
4	0x3f7536cc	0.9578674
5	0x3f7f1f7f	0.99657434
6	0x3f82c2de	1.0215719
7	0x3f818608	1.0119028
8	0x3f85f8d0	1.0466557
9	0x3f86618b	1.0498518
10	0x3f7e380b	0.99304265
11	0x3f85137f	1.0396575
12	0x3f81f1a6	1.015187
13	0x3f81e147	1.0146874
14	0x3f71b0e8	0.9441056
15	0x3f81b176	1.0132282
16	0x3f7890f8	0.97096205
17	0x3f898714	1.0744348
18	0x3f897ecf	1.0741824
19	0x3f7f60b5	0.9975694
20	0x3f75af1e	0.9597033
21	0x3f82472b	1.0177969
22	0x3f7915b6	0.97298753
23	0x3f758e59	0.9592033
24	0x3f81ce69	1.0141116
25	0x3f72d888	0.9486165
26	0x3f712c8f	0.94208616
27	0x3f86ff5f	1.0546683
28	0x3f882375	1.0635821
29	0x3f7a2fae	0.97729003
30	0x3f7cb296	0.9871
31	0x3f808db6	1.0043247
32	0x3f7d09fd	0.98843366
33	0x3f7f6719	0.9976669
34	0x3f87ee46	1.061959
35	0x3f7c611a	0.98585665
36	0x3f73e9bb	0.9527852
37	0x3f736129	0.9507013
38	0x3f7624ba	0.9614979
39	0x3f7d9254	0.99051404
40	0x3f84967b	1.0358423
41	0x3f7d382e	0.9891385
42	0x3f7efc29	0.99603516
43	0x3f8bc5f1	1.0919782
44	0x3f7d618e	0.9897698
45	0x3f7c5cbc	0.98579
46	0x3f80de30	1.0067806
47	0x3f89cf4b	1.0766386
48	0x3f84ce9c	1.0375552
49	0x3f7d6914	0.9898846
50	0x3f7dc052	0.9912158
51	0x3f7d53f3	0.9895622
52	0x3f7181f2	0.94338906
53	0x3f7ec665	0.99521476
54	0x3f8931ca	1.071832
55	0x3f7c72ca	0.98612654
56	0x3f7f60fd	0.9975737
57	0x3f729985	0.947655
58	0x3f76c87e	0.96399677
59	0x3f84a955	1.0364176
60	0x3f83ba66	1.0291259
61	0x3f895ee7	1.0732087
62	0x3f8b7144	1.0893941
63	0x3f8281ba	1.019584

model.5.bias f4 [64]
0	0xbd0461f9	-0.032319997
1	0xbd73459b	-0.059392553
2	0xbca41771	-0.020030709
3	0x3c9f7d43	0.01946891
4	0xbd3243cb	-0.043521684
5	0x3a51de9a	0.00080058875
6	0xbbaa32cb	-0.0051940433
7	0xbc2601b7	-0.010132245
8	0x3c4777ae	0.01217453
9	0x3bf32fab	0.007421454
10	0xbd0e3873	-0.034721803
11	0x3918f8cc	0.00014588534
12	0xbc5780bf	-0.013153254
13	0x3cba106d	0.02271291
14	0xbd29afcc	-0.04142742
15	0x3bd3e182	0.0064660916
16	0xbd642709	-0.05570129
17	0x3c226027	0.00991062
18	0x3d125ce5	0.035733122
19	0xbcb71ff0	-0.022354096
20	0xbbd31c29	-0.006442566
21	0xbbca0a84	-0.0061658043
22	0xbcf5730a	-0.029962081
23	0xbd44360b	-0.047903102
24	0x3c7c2aeb	0.015391092
25	0xbcc80f08	-0.02442123
26	0xbd6cac87	-0.057781722
27	0x3d72b947	0.059258725
28	0x3c9d05bd	0.019167775
29	0xbd19cb50	-0.03754741
30	0xbcf261e4	-0.029587694
31	0xbc16f34d	-0.009213281
32	0xbcb14e4b	-0.021643778
33	0x3d0221d0	0.031770527
34	0xbb8f1fba	-0.004367796
35	0xbc120790	-0.008912936
36	0xbd6d5598	-0.057942957
37	0xbd29d70c	-0.04146485
38	0xbd2b54dd	-0.04182898
39	0xbcfab0d4	-0.030601896
40	0xbcbf3e90	-0.023345262
41	0xbd17bce6	-0.037045382
42	0xbcaeddd6	-0.021346014
43	0xbbabf768	-0.005247999
44	0xbc068ef6	-0.0082127955
45	0xbcf55894	-0.029949464
46	0x3c379e02	0.011207106
47	0x3d467112	0.048447676
48	0x3c8ad70c	0.016948245
49	0xbc73a63d	-0.014871177
50	0x3ca7f987	0.020504726
51	0x3c881a2d	0.016614044
52	0xbcc17056	-0.023613136
53	0xbcf9fc88	-0.030515924
54	0x3d260130	0.040528476
55	0xbd105654	-0.03523858
56	0xbb962109	-0.004581575
57	0xbcf8529a	-0.030312825
58	0xbd2ee15a	-0.04269538
59	0xbc8cfab6	-0.017209392
60	0x3d2907d2	0.041267224
61	0x3c88e699	0.01671152
62	0x3df9b29d	0.12192271
63	0xbc9e1292	-0.019295964

model.5.running_mean f4 [64]
0	0x3fb3e952	1.4055579
1	0x3cd7b32d	0.026330555
2	0xbf4beecc	-0.7966125
3	0x3bcb3b63	0.006202148
4	0xbd58ad3c	-0.052899584
5	0xbef36f0a	-0.47545654
6	0x3e77b7f1	0.24191262
7	0xbd531e37	-0.051542487
8	0x3f93d10d	1.1548172
9	0x3b077efa	0.002067505
10	0x3ee23293	0.4417921
11	0xbf34d98a	-0.7064444
12	0x3f99a333	1.200293
13	0x3cb565d7	0.022143288
14	0xbf0db6dc	-0.55357146
15	0xbf1d480f	-0.6143808
16	0x3f12360a	0.5711371
17	0x3f934564	1.1505551
18	0xbf04953e	-0.51790226
19	0x3f62e4a5	0.88630134
20	0x3ed315b5	0.412275
21	0x3f6eb255	0.93240863
22	0xbdfc5ce3	-0.12322404
23	0xbf6b9e3b	-0.92038316
24	0x3fb89a17	1.4422024
25	0xbf8013a9	-1.0006
26	0xbe70a0bd	-0.23498817
27	0xbeb8a67d	-0.3606452
28	0xbf278b25	-0.6544669
29	0x3f10477f	0.56359094
30	0x3eab4fc1	0.33459285
31	0x3f94eec1	1.1635362
32	0x3f93c860	1.1545525
33	0xbf70cd1c	-0.9406297
34	0x3f98ea83	1.1946567
35	0x3f153669	0.5828615
36	0x3f4c8b56	0.7990011
37	0xbdc90dfa	-0.09817119
38	0xbed29c6e	-0.4113497
39	0xbf378220	-0.7168293
40	0x3f812210	1.008852
41	0x3e807d89	0.25095776
42	0x3f7182ac	0.94340014
43	0xbc18ec11	-0.009333626
44	0xbf95dd18	-1.1708097
45	0xbecf6c74	-0.4051243
46	0x3f7ce1fc	0.98782325
47	0x3ee8b57d	0.45450965
48	0x3e37471c	0.1789822
49	0xbeb3e04d	-0.35132065
50	0xbf6a7819	-0.91589504
51	0xbec2768f	-0.37981078
52	0x3e4f6d13	0.20256452
53	0x3f8d7574	1.1051469
54	0x3f4526b5	0.7701219
55	0x3f04caa4	0.51871705
56	0xbf94e641	-1.1632768
57	0x3e85c310	0.26125383
58	0xbe850c7b	-0.25986084
59	0x3faf9cc4	1.3719716
60	0x3f178f7a	0.592033
61	0x3f2fa9d0	0.6861849
62	0xbf8ca66a	-1.0988286
63	0x3f423f5d	0.75877935

model.5.running_var f4 [64]
0	0x3fc8f53f	1.5699843
1	0x3fef8e84	1.8715367
2	0x3f6327e1	0.88732725
3	0x3f888942	1.0666888
4	0x3fc0bf18	1.5058317
5	0x3fbc81f4	1.4727159
6	0x3fb7c6e1	1.4357568
7	0x3f6ff3f2	0.93731606
8	0x40261261	2.5948718
9	0x3f8f7190	1.1206532
10	0x4000b1d2	2.0108533
11	0x3fb6116c	1.4224067
12	0x3fcd8b47	1.6058129
13	0x3faf5206	1.3696907
14	0x3fb42161	1.4072686
15	0x3fa9c6cc	1.3263793
16	0x40032e77	2.049711
17	0x3fd98e64	1.6996579
18	0x3fb0a0c5	1.3799063
19	0x40452c0e	3.080814
20	0x3f9bfcc4	1.2186513
21	0x3fb9d07f	1.4516753
22	0x3fae8bf3	1.3636459
23	0x3fb9d3fe	1.451782
24	0x3f688195	0.90822726
25	0x3fda27c6	1.7043388
26	0x3f971bef	1.18054
27	0x3fd6bb6c	1.6775947
28	0x3fa32fe8	1.2748995
29	0x3f57acf3	0.84248275
30	0x4003feb4	2.0624208
31	0x3fb3d2d5	1.4048716
32	0x3fdfafd5	1.7475535
33	0x3f863dda	1.0487626
34	0x402069eb	2.5064647
35	0x3fd62701	1.6730653
36	0x3faab476	1.3336322
37	0x4002917c	2.0401297
38	0x3fb8ebb3	1.444693
39	0x3f8ea710	1.1144733
40	0x3fb5c2da	1.4200089
41	0x3f9133e3	1.134396
42	0x3f3e0b0b	0.742356
43	0x402cd177	2.7002847
44	0x3fbfe230	1.4990902
45	0x3ff8ed58	1.9447432
46	0x3fdcabc3	1.7239918
47	0x3ff36445	1.9014975
48	0x400c2bf9	2.1901839
49	0x3fd8d2aa	1.693929
50	0x3f6ffcb8	0.93744993
51	0x3f5d6acb	0.8649108
52	0x40013ad2	2.019215
53	0x3f36718b	0.71267
54	0x3fa80be9	1.3128635
55	0x3fa6347b	1.2984766
56	0x3f72af08	0.94798326
57	0x3fa52612	1.2902243
58	0x3f85f8e5	1.0466582
59	0x4008f917	2.1402032
60	0x3f83f1a4	1.0308118
61	0x3f9e41f8	1.2363882
62	0x3fd487f8	1.6603994
63	0x3fa74785	1.3068701

model.8.weight f4 [32, 64]
0	0xbd419412	-0.04726035
1	0x3e40865a	0.18801251
2	0xbd0b095c	-0.033944473
3	0x3d7f6d05	0.06235983
4	0xbd582f33	-0.052779388
5	0x3ed0b27b	0.4076117
6	0xbda65224	-0.08121136
7	0xbd18f42d	-0.03734224
8	0x3dc6a326	0.09699087
9	0xbeea5dea	-0.45774776
10	0xbd1520a5	-0.036408085
11	0x3d71e1d9	0.059053276
12	0x3e5671b2	0.20941809
13	0x3e6f4e89	0.23369803
14	0xbe0bba70	-0.13645339
15	0x3db59d26	0.08867864
16	0xbe56e3e5	-0.20985372
17	0x3ceaaeb6	0.028647762
18	0x3c2dd6d9	0.010610306
19	0xbd434d6b	-0.047681253
20	0xbe5491fc	-0.20758814
21	0x3d52219f	0.051301595
22	0x3ea7706e	0.32702965
23	0x3da78145	0.08178953
24	0x3b2edbc4	0.0026681283
25	0x3ea02071	0.3127475
26	0x3eb3703f	0.35046574
27	0xbd35a753	-0.044349026
28	0x3e999c08	0.30001855
29	0xbed6f9c0	-0.4198742
30	0xbd8355d0	-0.06412852
31	0xbe9c23e1	-0.30496123
32	0xbdf8c394	-0.121466786
33	0x3db7e8d5	0.08979956
34	0xbe3c74aa	-0.18403879
35	0x3d981d66	0.07427482
36	0xbe60184c	-0.21884269
37	0xbda605fe	-0.08106612
38	0x3e3da4ea	0.18519941
39	0xbe7ef03a	-0.24896327
40	0xbe5757f6	-0.21029648
41	0xbe3b4ed7	-0.18291794
42	0xbdc04ff4	-0.0939025
43	0x3d0e1158	0.03468451
44	0x3cb8db3f	0.022565482
45	0xbe345cdd	-0.1761355
46	0x3d21a5cb	0.039464753
47	0xbda59304	-0.08084682
48	0xbdcf077a	-0.10108848
49	0x3d11cb50	0.035594285
50	0x3cb48fb6	0.022041183
51	0x3c9f4a93	0.01944474
52	0x3dc1bd56	0.09459941
53	0x3bb05dc9	0.005382274
54	0xbd5068ae	-0.05088108
55	0x3d86d0a9	0.065827675
56	0xbe90d5c2	-0.28288084
57	0x3d470ab1	0.04859418
58	0x3e90d5e6	0.28288192
59	0xbe166326	-0.1468626
60	0x3e1daeeb	0.15398757
61	0xbeb029db	-0.34406933
62	0xbeaeb5bd	-0.3412303
63	0xbd0d9345	-0.034564275
64	0xbdf39160	-0.118929625
65	0x3d417392	0.047229357
66	0x3ea39099	0.31946257
67	0xbe947126	-0.28992575
68	0xbe142711	-0.14468028
69	0xbea7593a	-0.32685262
70	0xbc5117ba	-0.0127620045
71	0xbd0b9027	-0.03407302
72	0x3dd20da4	0.10256508
73	0x3e81cdd9	0.25352362
74	0xbe22d442	-0.15901282
75	0x3cabb8f9	0.020962225
76	0x3d423200	0.047410965
77	0xbd383af8	-0.044978112
78	0x3ea21f4e	0.3166451
79	0xbe84e207	-0.25953695
80	0x3d31ef10	0.04344088
81	0xbe2badd6	-0.16765532
82	0x3d8fcb13	0.07021155
83	0xbd2ba85a	-0.0419086
84	0xbed19ca2	-0.40939814
85	0xbe9334be	-0.28751177
86	0xbed24cbe	-0.41074175
87	0xbd252af3	-0.040324163
88	0xbe8acc2b	-0.27108893
89	0x3e3d50cf	0.18487857
90	0x3e37f3bc	0.17964071
91	0xbe8d5a5f	-0.2760801
92	0xbdc1bfcc	-0.094604105
93	0x3ccce222	0.025010172
94	0xbe8a2e09	-0.26988247
95	0xbe88b5ef	-0.26701304
96	0xbe2fa05d	-0.17151017
97	0x3e0b1ded	0.13585635
98	0xbea5ce15	-0.3238379
99	0x3d92a539	0.0716042
100	0xbe1c4351	-0.15260054
101	0x3cab3133	0.020897483
102	0x3e964b23	0.293542
103	0xbe3d6ffb	-0.18499748
104	0xbe28ba15	-0.16477235
105	0x3e705ab5	0.23472102
106	0xbed6b16b	-0.41932234
107	0x3dcc2eb3	0.09969845
108	0xbcef0aca	-0.02917995
109	0x3e1edea1	0.15514614
110	0x3d17aac1	0.037028078
111	0xbd2f1af6	-0.04275032
112	0xb960e123	-0.00021446175
113	0x3da605f8	0.08106607
114	0xbcc93deb	-0.024565658
115	0x3e310ea7	0.17290746
116	0xbd12a9de	-0.03580653
117	0xbe912c0e	-0.28353924
118	0x3c3f0e4a	0.011661122
119	0x3c89d09d	0.016823107
120	0xbe49b059	-0.19696178
121	0x3d18831f	0.03723442
122	0xbd8d46f7	-0.06898301
123	0x3e915156	0.28382367
124	0x3e00023c	0.12500852
125	0xbe659db8	-0.22423446
126	0xbe4474f6	-0.19185242
127	0x3e4bde31	0.19908978
128	0x3cc2082f	0.023685543
129	0xbe48a269	-0.19593205
130	0x3da4d8aa	0.08049138
131	0xbd859b08	-0.065237105
132	0x3e4458b8	0.19174469
133	0x3b9a2128	0.0047036596
134	0x3dd0edad	0.10201583
135	0x3e5ce68a	0.21572319
136	0x3e6b9c95	0.2300895
137	0x3d90734e	0.070532426
138	0xbdb0065d	-0.08594964
139	0x3e2c7b9c	0.16844028
140	0x3e0f1b9f	0.1397538
141	0x3dedbb53	0.11607995
142	0x3d8ce406	0.068794295
143	0xbe8ff78f	-0.2811856
144	0x3c2eabe8	0.010661103
145	0x3e3e40b0	0.18579364
146	0x3e98ae35	0.2982041
147	0xbe15634d	-0.14588661
148	0xbe96147e	-0.2931251
149	0x3e9f3320	0.31093693
150	0x3e0fe884	0.14053541
151	0x3b368ba6	0.0027854233
152	0x3e163c1d	0.14671369
153	0xbe445cc2	-0.1917601
154	0x3dae3ea7	0.08508044
155	0x3dd9ec6d	0.10640798
156	0xbd931d9f	-0.07183384
157	0x3e7a2eb8	0.24431884
158	0x3e2b351a	0.16719475
159	0xbe82994d	-0.25507584
160	0xbd8d6287	-0.06903558
161	0x3bcaef4b	0.0061930767
162	0x3e1a2de8	0.15056574
163	0xbd8feaab	-0.07027181
164	0xbe7605dd	-0.24025674
165	0x3ea84dca	0.32871848
166	0xbe368d99	-0.17827453
167	0xbe88dd1c	-0.26731193
168	0x3d43ef21	0.047835473
169	0x3e4caba6	0.19987354
170	0xbee2107c	-0.44153202
171	0xbd2f243c	-0.042759165
172	0xbf04b7f3	-0.51843184
173	0xbde1aa10	-0.11018765
174	0x3d9ed5d7	0.077556305
175	0x3df54a26	0.11977033
176	0x3c365f2f	0.011131092
177	0xbd48bc9f	-0.049008008
178	0x3e09c6ee	0.13454792
179	0x3db2e753	0.08735528
180	0x3eaa2848	0.33233857
181	0x3d57ec04	0.052715316
182	0xbe42dbbc	-0.19029135
183	0xbdb22196	-0.08697812
184	0x3d63985d	0.055565227
185	0x3bd0a3e8	0.0063671954
186	0x3d6a9b48	0.057276994
187	0xbda60215	-0.08105866
188	0x3c50e105	0.012748961
189	0xbdceb144	-0.100924045
190	0x3d8a3773	0.06748857
191	0x3eaa81b4	0.3330208
192	0xbccdc3df	-0.025117813
193	0x3da1c057	0.07898014
194	0x3e149640	0.14510441
195	0x3ea5b46e	0.3236422
196	0x3eb5a1c3	0.35474977
197	0xbe251638	-0.16121757
198	0x3ba9125c	0.0051596593
199	0xbe073b3e	-0.13206193
200	0xbe576765	-0.21035536
201	0xbcf42c73	-0.029806351
202	0x3dad5c83	0.08464911
203	0x3b78e320	0.0037977174
204	0xbd7a13a5	-0.06105389
205	0xbe9a9a83	-0.30196008
206	0x3dfe7d5e	0.12426256
207	0x3e08967c	0.13338655
208	0xbe8bc096	-0.2729537
209	0xbe21f7d9	-0.15817203
210	0x3e6020c0	0.21887493
211	0x3ea9e31f	0.33181092
212	0x3e45d913	0.19321088
213	0xbdea8155	-0.114504494
214	0x3dd52d23	0.10409
215	0xbdad4227	-0.08459883
216	0x3d32caf8	0.043650597
217	0xbe1cef5e	-0.15325686
218	0xbca0f374	-0.019647337
219	0x3de13071	0.109955676
220	0xbd1e69d0	-0.03867513
221	0xbe203ade	-0.15647456
222	0x3e486d00	0.1957283
223	0xbe97fc5b	-0.2968472
224	0xbe46faf8	-0.19431674
225	0x3e8d7600	0.2762909
226	0x3d1ce40d	0.038303424
227	0x3db4e01a	0.088318065
228	0x3d58b0d0	0.052902997
229	0xbdf70c86	-0.120629355
230	0x3dd19cba	0.10234971
231	0xbd76d8b7	-0.06026527
232	0x3e00658f	0.12538742
233	0x3d3ae841	0.04563165
234	0x3b6e4721	0.0036358314
235	0x3eba446d	0.3638033
236	0xbd864e27	-0.06557875
237	0xbe10d754	-0.14144641
238	0xbe509ed9	-0.20373096
239	0x3e444138	0.19165504
240	0x3e05418e	0.13013288
241	0x3d996fcd	0.074920274
242	0xbdafca4b	-0.08583506
243	0x3dced034	0.10098305
244	0xbe8546e7	-0.26030657
245	0xbd77bb4e	-0.060481362
246	0xbe5aa759	-0.213529
247	0x3dbc78b5	0.092027105
248	0xbe93edd1	-0.28892377
249	0x3dbf49b6	0.09340231
250	0x3e50eed2	0.20403603
251	0xbe63b51c	-0.22237056
252	0x3ef9f1f0	0.48817396
253	0x3e7d8a66	0.24759826
254	0x3de8af61	0.11361576
255	0xbec12eac	-0.3773092

model.8.bias f4 [32]
0	0xbb4bd820	-0.0031104162
1	0x3b625569	0.0034535772
2	0x38635374	5.419874e-05
3	0x3b6647fc	0.003513812
4	0x3b64c2f8	0.003490625
5	0x3c3042bc	0.010758098
6	0xbbd87fd9	-0.0066070375
7	0xbb5201c9	-0.003204452
8	0x3ba1c469	0.004936744
9	0xbb790991	-0.0038000087
10	0xbaf15c89	-0.0018414418
11	0x3a8ffef3	0.0010986015
12	0xbc107db4	-0.008819032
13	0x3ad26fa3	0.0016054999
14	0xbb195c1a	-0.0023400844
15	0xbbcf0215	-0.006317387
16	0x3ab51893	0.0013816528
17	0xbb967ae6	-0.0045922874
18	0xbbd6738e	-0.006544537
19	0xbae3c8ed	-0.0017378606
20	0x3b432b05	0.002978028
21	0xbc02bb2c	-0.007979196
22	0xb9369cd8	-0.00017415301
23	0x3b3ae97c	0.0028520515
24	0x3c479eb7	0.012183837
25	0x3b8391f8	0.0040152036
26	0xbbfb46a5	-0.0076683336
27	0x3bd40a33	0.0064709424
28	0xba2cfcf2	-0.0006598971
29	0xb94197e3	-0.00018462497
30	0xbb007c7c	-0.0019605448
31	0xbb96f551	-0.0046068807

model.9.weight f4 [32]
0	0x3f61cd3a	0.88203776
1	0x3f6b997d	0.9203108
2	0x3f751b00	0.95744324
3	0x3f795df0	0.9740896
4	0x3f73c993	0.9522945
5	0x3f6156aa	0.88022864
6	0x3f69eb0d	0.91374284
7	0x3f6d231d	0.92631704
8	0x3f65b102	0.8972322
9	0x3f64a144	0.8930857
10	0x3f6dcd4c	0.92891383
11	0x3f706019	0.93896633
12	0x3f641e79	0.89109
13	0x3f82c2bf	1.0215682
14	0x3f79dd00	0.97602844
15	0x3f6193aa	0.8811594
16	0x3f70825a	0.939489
17	0x3f6ebe28	0.93258905
18	0x3f55481a	0.83313143
19	0x3f80110d	1.0005203
20	0x3f49265b	0.7857415
21	0x3f56e00b	0.8393561
22	0x3f6d16ad	0.92612725
23	0x3f64d01d	0.89380056
24	0x3f55e11f	0.8354663
25	0x3f4fd335	0.8118165
26	0x3f73c7bc	0.95226645
27	0x3f6fd623	0.9368612
28	0x3f709641	0.9397927
29	0x3f76017a	0.96096003
30	0x3f556fc7	0.83373684
31	0x3f574201	0.8408509

model.9.bias f4 [32]
0	0xbdc2da8e	-0.09514342
1	0xbda8ce33	-0.082424544
2	0xbd3d10c1	-0.046158556
3	0x3d4fe9e3	0.05076016
4	0xbaa50df0	-0.0012592655
5	0xbd81c7ad	-0.06336913
6	0xbd37c6c8	-0.044867307
7	0xbd73863e	-0.059454195
8	0xbdcec30d	-0.10095797
9	0xbdb0fafb	-0.08641621
10	0xba75151e	-0.0009349155
11	0xbd821f5c	-0.063536376
12	0xbdbb2e56	-0.09139697
13	0x3d3c7b6c	0.04601614
14	0x3c2cc77d	0.010545609
15	0xbdc3d760	-0.09562564
16	0xbd864d43	-0.06557705
17	0xbd1f8f2a	-0.03895489
18	0xbe0fe7de	-0.14053294
19	0x3d7b8d72	0.06141419
20	0xbe324061	-0.17407371
21	0xbe20fba7	-0.15720998
22	0xbcd83204	-0.026391037
23	0xbdc768be	-0.09736775
24	0xbe0ff852	-0.1405957
25	0xbdcd6a31	-0.1003002
26	0x3b59be1e	0.003322489
27	0x3c53a4b5	0.012917687
28	0xbd589c71	-0.05288357
29	0xbd1aa0bc	-0.037750944
30	0xbe079880	-0.13241768
31	0xbe01979e	-0.12655494

model.9.running_mean f4 [32]
0	0xbebfd103	-0.3746415
1	0xbf96968e	-1.1764696
2	0x3eec169f	0.4611101
3	0x3ea4af35	0.32164922
4	0xbeb1d810	-0.34735155
5	0xbf831afc	-1.024261
6	0x3f496e4e	0.78683937
7	0xbe20c5dc	-0.15700477
8	0xbf8bba14	-1.0916162
9	0x3d9e94f7	0.077432565
10	0x3eb1dbcc	0.34738004
11	0xbfaa1623	-1.3288006
12	0x3d131926	0.035912655
13	0xbf81fb36	-1.0154788
14	0xbf205e5e	-0.6264399
15	0x3e74b36d	0.2389657
16	0x3f88853f	1.0665663
17	0x3e0ab6a3	0.13546233
18	0xbf5126e0	-0.81699944
19	0x3c97ce1b	0.018530896
20	0xbf9f6ed4	-1.2455697
21	0xbf8321b7	-1.0244664
22	0x3e2be274	0.16785604
23	0xbf8ab091	-1.0835134
24	0xbf5e12cd	-0.8674744
25	0xbf0c716e	-0.5486058
26	0xbf47ae87	-0.7800068
27	0xbe2148b6	-0.15750393
28	0xbe805110	-0.25061846
29	0xbf525832	-0.82165825
30	0xbf2ca895	-0.67444736
31	0xbf094bfa	-0.53631556

model.9.running_var f4 [32]
0	0x40254779	2.5824873
1	0x403aae66	2.9168944
2	0x3fc58da0	1.5433846
3	0x401027f8	2.2524395
4	0x3feffdd7	1.8749341
5	0x403d8bfd	2.9616692
6	0x3fb3ede3	1.4056972
7	0x3eea96fc	0.45818317
8	0x4035883b	2.8364398
9	0x3f7ff8b9	0.99988896
10	0x3fbb0d54	1.4613442
11	0x3ff8669f	1.9406317
12	0x3f88a503	1.0675358
13	0x3fb6a1fd	1.4268185
14	0x3fa3cdba	1.2797158
15	0x3fdcf0a8	1.7260942
16	0x400d5584	2.2083445
17	0x3f8dd098	1.1079283
18	0x409c0ae3	4.876329
19	0x3f64bca7	0.8935036
20	0x40a2ef3e	5.0917044
21	0x402eba01	2.7301028
22	0x3f8b3ed8	1.0878553
23	0x4022f6c1	2.5463107
24	0x408d39e7	4.413318
25	0x3fd2b71f	1.6462134
26	0x401b5c85	2.427522
27	0x3fdf8fe0	1.7465782
28	0x3fa202bb	1.2657083
29	0x3fa95de1	1.3231775
30	0x3fabaf64	1.34129
31	0x400e6648	2.2249928

model.12.weight f4 [1, 32]
0	0x3db87755	0.09007136
1	0x3d838e7d	0.06423662
2	0xbb98f825	-0.004668253
3	0xbd5c3590	-0.05376202
4	0xbd7afb9c	-0.06127511
5	0xbdf19275	-0.117955126
6	0xbd3fee8e	-0.046858363
7	0xba9abea1	-0.001180608
8	0x3dba7012	0.09103407
9	0x3d88c7c6	0.06678729
10	0xbcd6a225	-0.026200363
11	0x3d81cc01	0.06337739
12	0x3d37b88b	0.04485373
13	0xbc7e3a26	-0.015516793
14	0xbd616c5c	-0.05503498
15	0x3d7121bd	0.058870066
16	0x3c2650c1	0.010151089
17	0xbd516239	-0.051119063
18	0x3e506e2f	0.20354532
19	0xbd11bc89	-0.03558019
20	0xbecdc533	-0.40189514
21	0x3e8379f7	0.2567899
22	0xbd43b638	-0.0477812
23	0x3dd44930	0.10365522
24	0x3e5e9d1d	0.21739621
25	0xbe2132dd	-0.15742059
26	0xbd95b434	-0.07309762
27	0xbd48f765	-0.04906406
28	0x3c182980	0.009287238
29	0x3d4e6941	0.050393347
30	0x3e09592b	0.13412921
31	0x3e49efbb	0.19720356
