models/model_epoch_20.pth (torch, 165750 bytes, 45 tensors)

model.0.weight f4 [128, 6]
0	0xbf4ac99e	-0.79213893
1	0x3e4bec6b	0.19914405
2	0x3f320c12	0.6954967
3	0xbeb52392	-0.353787
4	0xbf60efca	-0.8786589
5	0xbf3bfd74	-0.73433614
6	0x3f4d9f2d	0.8032101
7	0xbef42c44	-0.47690022
8	0xbe027a96	-0.12742075
9	0x3e35d51a	0.17757073
10	0xbe326f91	-0.17425372
11	0x3e07f3cd	0.13276596
12	0x3cb98799	0.022647666
13	0xbe5e7e27	-0.21727811
14	0x3e74cfa2	0.2390733
15	0xbed5c3e9	-0.4175103
16	0xbf3a436f	-0.72759145
17	0x3e9608a8	0.2930348
18	0xbf1e7e5f	-0.61911577
19	0x3e8490e9	0.25891808
20	0x3ee73d34	0.45163882
21	0x3e3fce69	0.18731083
22	0xbf13a3ec	-0.57672
23	0x3ec67867	0.38763735
24	0xbf945a11	-1.1589986
25	0x3f74a472	0.95563424
26	0x3e7720f8	0.2413367
27	0xbf3f30d5	-0.74683887
28	0xbf3490c3	-0.7053339
29	0x3f256a4b	0.64615315
30	0xbf0958d8	-0.5365119
31	0x3f86ba7c	1.052566
32	0xbf234b49	-0.6378675
33	0x3da8a60c	0.08234796
34	0xbd84e3da	-0.06488772
35	0xbdc32782	-0.0952902
36	0xbf4d980f	-0.8031015
37	0xbb8e31ab	-0.004339417
38	0xbe5079e2	-0.20358995
39	0x3f2e1d20	0.6801319
40	0x3e0bba38	0.13645256
41	0x3f5e4dbb	0.8683736
42	0xbe92b47c	-0.28653324
43	0x3f97e128	1.1865587
44	0xbf4ebc21	-0.8075581
45	0x3f907cf0	1.1288128
46	0x3f4e9b18	0.80705404
47	0x3f04ae49	0.5182844
48	0x3ee5d5e1	0.4488974
49	0x3f8b5130	1.0884151
50	0x3f35b841	0.70984274
51	0x3f09e828	0.5386987
52	0x3ed1ab71	0.40951112
53	0x3ef77ef9	0.4833906
54	0xbf0b22e5	-0.5435012
55	0xbdfff360	-0.12497592
56	0xbed3e2fe	-0.4138412
57	0x3e6d9726	0.2320219
58	0x3f0a5a23	0.5404379
59	0x3ea4a4af	0.32156894
60	0x3f5d2d21	0.86396986
61	0x3f840d2f	1.0316523
62	0xbe236dda	-0.15959874
63	0x3e9f78b0	0.31146765
64	0x3d57bf86	0.052672885
65	0xbdf90ed5	-0.12161032
66	0xbd1cf926	-0.038323544
67	0x3d4a6503	0.04941274
68	0xbbd4617f	-0.006481349
69	0x3cf32c93	0.02968434
70	0x3d442355	0.047885258
71	0x3f1b8ea1	0.6076451
72	0x3f95b929	1.1697131
73	0x3b80f567	0.0039355042
74	0x3de977cb	0.11399802
75	0xbe36b334	-0.17841798
76	0x3e630060	0.22168112
77	0x3f59d569	0.85091263
78	0xbebe140f	-0.37124678
79	0xbe4b8ad1	-0.19877173
80	0xbe0baaff	-0.13639449
81	0xbecff671	-0.40617707
82	0x3f3c0189	0.7343984
83	0xbe44a886	-0.19204912
84	0xbe4fee5f	-0.20305775
85	0x3f38702b	0.72046155
86	0xbd89e508	-0.06733137
87	0xbd89dbc4	-0.0673137
88	0xbf9d9d38	-1.2313604
89	0xbee7348c	-0.45157278
90	0xbe4528a4	-0.19253784
91	0x3e7fc1ac	0.24976224
92	0x3f0c73a0	0.5486393
93	0x3e512e13	0.20427732
94	0xbebd2636	-0.36943215
95	0x3f351523	0.7073538
96	0xbc8a30d4	-0.016868986
97	0xbe82e034	-0.25561678
98	0x3e9fdd15	0.3122336
99	0x3e2ee8ed	0.17081042
100	0x3f5fb03a	0.87378275
101	0xbeae8c1a	-0.34091264
102	0x3d41b5d2	0.047292538
103	0xbfa5ef22	-1.2963603
104	0x3e3e7bb7	0.18601881
105	0x3f3466ab	0.7046916
106	0xbed96180	-0.424572
107	0x3e2ba4d4	0.16762096
108	0xbf0a86e3	-0.5411207
109	0x3e4e3965	0.20139082
110	0x3f7a738a	0.9783255
111	0xbe4eb175	-0.20184882
112	0x3eccabc1	0.39974788
113	0x3f13dc6d	0.5775822
114	0x3f15a64f	0.5845689
115	0x3e0c430d	0.13697453
116	0xbe0866b1	-0.13320424
117	0xbc944aac	-0.018102013
118	0xbf6e75e3	-0.9314863
119	0xbf1997d4	-0.59997296
120	0xbfb48f91	-1.4106313
121	0xbe3b16e3	-0.1827045
122	0x3f70e783	0.9410326
123	0x3f4474a2	0.7674047
124	0x3e752c5d	0.23942704
125	0x3ebd89c1	0.3701916
126	0x3f73d68c	0.9524925
127	0xbf9f8d33	-1.2464966
128	0x3f4645bb	0.7745015
129	0x3db9fa97	0.09080999
130	0x3e3e5713	0.18587904
131	0xbfa984fb	-1.3243707
132	0xbd953e54	-0.07287279
133	0xbf6f6760	-0.9351711
134	0x3ec25913	0.37958583
135	0xbe36df26	-0.17858562
136	0xbe5b0230	-0.21387553
137	0xbf73e062	-0.95264256
138	0x3f0fae66	0.56125486
139	0xbe9fc0ec	-0.31201875
140	0x3f3f50a8	0.74732447
141	0xbf0a69c1	-0.5406762
142	0x3f89b744	1.0759053
143	0x3f2f1e6a	0.68405783
144	0xbe47410d	-0.19458409
145	0x3ddadc76	0.10686581
146	0x3f9cbfd4	1.2246041
147	0x3df77837	0.12083476
148	0x3ea4a2e2	0.3215552
149	0x3f089650	0.5335436
150	0xbe783adf	-0.24241208
151	0x3e6747bf	0.22585963
152	0xbeab4a42	-0.33455092
153	0x3d831890	0.06401169
154	0x3f61c09f	0.8818454
155	0x3f04aa26	0.51822126
156	0x3ed4a03b	0.41528496
157	0xbf0bc6fd	-0.5460051
158	0xbeea13e6	-0.45718306
159	0xbd9d5548	-0.07682282
160	0x3e01d09e	0.12677237
161	0xbc6e3548	-0.01453907
162	0xbf6952e1	-0.9114209
163	0x3e4d55ff	0.20052336
164	0x3ef25f5d	0.4733838
165	0x3dd44711	0.10365117
166	0x3e658a45	0.22416027
167	0x3d7e5f92	0.06210286
168	0x3e557bf0	0.2084806
169	0xbedbfc20	-0.42965794
170	0x3db5a9dc	0.08870289
171	0xbecd331c	-0.40078056
172	0xbe19c03b	-0.15014736
173	0xbe632ec3	-0.22185807
174	0x3dd59ec4	0.10430673
175	0xbeb97a55	-0.36226144
176	0x3ea9b23e	0.331438
177	0xbe19a69a	-0.1500496
178	0x3e70f1a5	0.2352968
179	0xbf5e1e67	-0.8676514
180	0x3f216edd	0.6305979
181	0x3ebfb305	0.3744127
182	0xbf133afa	-0.57511866
183	0xbe37b40d	-0.17939778
184	0xbf70861c	-0.93954635
185	0xbee11f81	-0.43969348
186	0xbf110fc0	-0.5666466
187	0x3d83c96a	0.06434901
188	0x3e4dbdfb	0.20092003
189	0xbc0e432e	-0.008683009
190	0xbc4f70fd	-0.012661216
191	0xbef83401	-0.48477176
192	0xbe0a8535	-0.13527377
193	0xbf338b22	-0.70134175
194	0xbbcfd144	-0.006342085
195	0xbe2f6f12	-0.17132214
196	0x3eb0c6e6	0.34526747
197	0x3d07baa1	0.033136968
198	0x3fa35c56	1.2762554
199	0x3f953c4a	1.1659024
200	0xbecebe85	-0.4037973
201	0xbe074027	-0.13208066
202	0xbf458759	-0.7715965
203	0x3ecea0ac	0.40356958
204	0xbe07a157	-0.1324514
205	0xbf6ac220	-0.9170246
206	0x3e3cde1d	0.18444104
207	0xbe78946f	-0.24275373
208	0xbe7fca0d	-0.2497942
209	0xbd8e7f4c	-0.06957874
210	0x3f0590c6	0.5217403
211	0x3fc43630	1.5329037
212	0xbc5244b5	-0.012833764
213	0x3ee1abf7	0.4407651
214	0xbee0caf1	-0.43904832
215	0x3dfe2cb7	0.124108724
216	0xbf27d72c	-0.655627
217	0xbe94104b	-0.2891868
218	0xbc0be2c1	-0.008537949
219	0x3f6f5d8c	0.93502116
220	0xbe44554a	-0.1917316
221	0xbf21fc75	-0.63275844
222	0x3d8d3bd4	0.06896177
223	0xbe5c718d	-0.21527691
224	0x3fa4ae0b	1.2865614
225	0x3da71ddd	0.08159993
226	0xbd33dd1f	-0.04391205
227	0xbf06d7ea	-0.5267321
228	0x3f5417b4	0.8284867
229	0xbf8117ac	-1.0085349
230	0xbe8f5db8	-0.2800119
231	0xbe9452a8	-0.28969312
232	0xbf3d7d67	-0.74019474
233	0xbe92f2ee	-0.28700966
234	0xbf84cf6c	-1.03758
235	0x3f09808f	0.5371179
236	0x3e9bf867	0.30462953
237	0x3effbe00	0.49949646
238	0x3eb781dd	0.35841265
239	0x3e90e1b0	0.28297186
240	0xbb1e2f05	-0.0024136913
241	0x3f67af64	0.90502
242	0x3b898e89	0.0041978997
243	0x3dafda26	0.085865304
244	0x3e93fa57	0.28901932
245	0xbdaaf072	-0.083466426
246	0x3eb3aac4	0.3509122
247	0x3f066022	0.5249044
248	0x3edaaff5	0.4271237
249	0x3f50a977	0.8150858
250	0xbef6ac29	-0.48178223
251	0x3d403dc6	0.04693391
252	0xbc19469e	-0.009355215
253	0xbe03ec10	-0.1288302
254	0xbf79f7bc	-0.9764364
255	0x3ebb0e1b	0.365342

model.0.bias f4 [128]
0	0x3ac7dc44	0.0015248139
1	0xbb901303	-0.0043967976
2	0x3b4b4603	0.0031017072
3	0x3b92f200	0.004484415
4	0xbbb8f00c	-0.00564385
5	0x3af32434	0.0018550218
6	0xba7ed3ee	-0.0009720911
7	0x3b9b9237	0.004747655
8	0xbb00de99	-0.0019663929
9	0x3a0e9306	0.00054387783
10	0xbb6d6814	-0.0036225365
11	0x3bbec912	0.0058223093
12	0x3be5fb77	0.0070185023
13	0x3c224988	0.0099052265
14	0x3aa37431	0.0012470541
15	0x3aac6694	0.0013153129
16	0x3bae8fd8	0.005327206
17	0x3ae413ef	0.001740096
18	0x3ba9b898	0.005179476
19	0xba740ddc	-0.00093099265
20	0x3a8ecb59	0.0010894343
21	0x3b8d18e5	0.004305946
22	0xbbec6468	-0.007214118
23	0x3c32ecce	0.010920716
24	0x3b3a61c1	0.0028439614
25	0x3b25ba6c	0.0025288118
26	0x3b9b1f29	0.004733939
27	0xbc0a97e6	-0.008459067
28	0xbb3990e5	-0.0028315124
29	0x3bada2bf	0.005298942
30	0xbaa18dac	-0.0012325547
31	0xbbd93341	-0.0066284244
32	0x3af91281	0.0019002707
33	0xbb5ea0a4	-0.003397026
34	0x3b63936c	0.0034725321
35	0xba6dffd5	-0.00090789545
36	0x3a2205f0	0.00061806943
37	0x3b3e7672	0.0029062298
38	0x399c8103	0.0002985076
39	0x3bbc9c8a	0.0057559656
40	0x3bf88c45	0.007585081
41	0x39fb6463	0.00047949245
42	0x3b3e4a84	0.0029036114
43	0x3b0951dc	0.0020953333
44	0xbb31b7b7	-0.002711756
45	0x3bac3947	0.0052558514
46	0xb988dadc	-0.00026103004
47	0xbc9b5e67	-0.018965913
48	0xbb233714	-0.0024904655
49	0xb9c0d78b	-0.00036781686
50	0xba0025be	-0.00048884365
51	0xb9dcb7ac	-0.00042098516
52	0xbb31c0e5	-0.002712303
53	0xbc19a239	-0.009377056
54	0x3b64723b	0.0034858126
55	0xbbc08659	-0.0058753905
56	0xbb2bff31	-0.0026244635
57	0x3c0f2aad	0.008738202
58	0xba593219	-0.0008285358
59	0x3b06329e	0.0020476948
60	0x3b904844	0.004403146
61	0xbbab0698	-0.005219292
62	0xbb0972ce	-0.002097297
63	0x3a06841c	0.000513138
64	0xbbcc9fe5	-0.006244647
65	0xbad62875	-0.0016338961
66	0xbc1f4606	-0.009721285
67	0x395c7393	0.0002102389
68	0x3b122f76	0.002230612
69	0xb9ab9b5d	-0.00032731416
70	0x3bb592f6	0.0055412007
71	0x3b661f45	0.0035113853
72	0x3ab42d8c	0.0013746484
73	0xbb63300f	-0.0034666096
74	0xbbc2bd8e	-0.005943007
75	0x3bc69f05	0.006061437
76	0x3b717f08	0.0036849398
77	0xba9ea439	-0.0012103386
78	0x3b425a93	0.0029656037
79	0xbbd55874	-0.0065107886
80	0xbb232375	-0.002489296
81	0x3c0b370c	0.008497011
82	0x3b1fd3c7	0.0024387704
83	0xbb818b2e	-0.003953359
84	0x3a20b9de	0.0006131212
85	0x3b857816	0.0040731532
86	0xbb11a011	-0.002222065
87	0xbb59b70d	-0.003322068
88	0x3ae1a6bc	0.0017215828
89	0x3b492578	0.00306925
90	0x3bdf602f	0.006816886
91	0xba15d789	-0.0005716016
92	0x3b44fb04	0.0030056844
93	0xbc13eb25	-0.009028231
94	0x3c799778	0.015233867
95	0xbbe85ac9	-0.0070909006
96	0xba568597	-0.00081833586
97	0x3b47cf7c	0.003048866
98	0xbb6355f8	-0.0034688693
99	0xbb1abb14	-0.0023610042
100	0xbb2b6212	-0.0026150984
101	0xbab671c7	-0.0013919406
102	0xba9e338d	-0.0012069807
103	0xbb9ed88a	-0.004847591
104	0xba9b45ec	-0.00118464
105	0xba47285d	-0.0007597262
106	0xbb8fe85e	-0.004391714
107	0xbb6fc8a7	-0.0036588104
108	0xbb7b4d47	-0.0038345621
109	0x3c207bbd	0.0097951265
110	0x3b2867bd	0.0025696598
111	0x3b84809b	0.0040436513
112	0x3bd6116c	0.0065328386
113	0x3c0f192e	0.008734031
114	0xba9e0946	-0.0012057207
115	0xbcf95933	-0.030438041
116	0x3b123d97	0.0022314542
117	0x39c11eea	0.0003683486
118	0x38a727e7	7.970613e-05
119	0xbbd69510	-0.0065485314
120	0xbae6c674	-0.0017606751
121	0x3a758215	0.0009365392
122	0xb9c2c499	-0.0003714904
123	0xbb433d25	-0.0029791084
124	0x3b896904	0.004193427
125	0xbb26cfcc	-0.0025453446
126	0x3b15ae39	0.002283944
127	0xb8a9575e	-8.0748214e-05

model.1.weight f4 [128]
0	0x3f775302	0.96611035
1	0x3f7bfe07	0.9843449
2	0x3f7f4d13	0.9972698
3	0x3f7a903c	0.97876334
4	0x3f72f4b6	0.9490465
5	0x3f9a61ce	1.2061098
6	0x3f8225e3	1.0167812
7	0x3f7df67a	0.9920422
8	0x3f8110d7	1.0083264
9	0x3f8908c5	1.0705801
10	0x3f873851	1.0564061
11	0x3f7db6f1	0.9910727
12	0x3f83eab6	1.0306003
13	0x3f83d407	1.0299081
14	0x3f6f4328	0.9346185
15	0x3f802c82	1.0013583
16	0x3f7227cc	0.94591975
17	0x3f8bf9b7	1.0935582
18	0x3f6f5f78	0.9350505
19	0x3f708182	0.93947613
20	0x3f805533	1.0026001
21	0x3f7480aa	0.95508826
22	0x3f7be476	0.9839548
23	0x3f75d6ff	0.96031183
24	0x3f7d253f	0.9888496
25	0x3f6f9440	0.93585587
26	0x3f7b15e4	0.9808028
27	0x3f864bdc	1.04919
28	0x3f853596	1.0406978
29	0x3f75b81a	0.9598404
30	0x3f74aa75	0.95572597
31	0x3f7964e7	0.9741959
32	0x3f8b08ca	1.0862057
33	0x3f75a280	0.9595108
34	0x3f87d7ce	1.0612733
35	0x3f85cd88	1.0453348
36	0x3f726efb	0.9470059
37	0x3f790d92	0.9728633
38	0x3f86a2c8	1.0518427
39	0x3f84fff8	1.0390615
40	0x3f81fe9d	1.0155827
41	0x3f8287a9	1.019765
42	0x3f808a95	1.0042292
43	0x3f84b900	1.0368958
44	0x3f84da2f	1.0379084
45	0x3f964617	1.174014
46	0x3f7162d0	0.942914
47	0x3f789b65	0.97112113
48	0x3f828d23	1.0199322
49	0x3f761f48	0.9614148
50	0x3f719ec2	0.9438287
51	0x3f742ee8	0.95384073
52	0x3f807049	1.0034267
53	0x3f7ff153	0.99977607
54	0x3f811ada	1.008632
55	0x3f75dbee	0.9603871
56	0x3f8801b1	1.0625516
57	0x3f71f342	0.94511807
58	0x3f72a95d	0.9478968
59	0x3f8302d3	1.0235237
60	0x3f73f8be	0.95301425
61	0x3f6ab83f	0.9168739
62	0x3f789035	0.9709504
63	0x3f797de2	0.97457707
64	0x3f7a24ba	0.9771229
65	0x3f7b9020	0.9826679
66	0x3f7e71b0	0.99392223
67	0x3f7984b7	0.9746813
68	0x3f837270	1.0269299
69	0x3f847ffc	1.0351558
70	0x3f7e842a	0.99420416
71	0x3f7ce377	0.98784584
72	0x3f6d2e5d	0.9264887
73	0x3f8712a1	1.055256
74	0x3f7de6d6	0.9918035
75	0x3f8284d9	1.0196792
76	0x3f822b31	1.0169431
77	0x3f8c3321	1.0953103
78	0x3f81e653	1.0148414
79	0x3f7db897	0.99109787
80	0x3f7d4d81	0.98946387
81	0x3f824312	1.0176718
82	0x3f74a936	0.95570695
83	0x3f6f1d74	0.93404317
84	0x3f7265f9	0.9468685
85	0x3f76de02	0.9643251
86	0x3f7f3be7	0.9970078
87	0x3f895b1a	1.0730927
88	0x3f807c74	1.003798
89	0x3f7ce2b9	0.9878345
90	0x3f6e4661	0.9307614
91	0x3f83d3bf	1.0298995
92	0x3f809121	1.004429
93	0x3f7f4ca2	0.9972631
94	0x3f80f19e	1.0073736
95	0x3f82b81d	1.0212437
96	0x3f772922	0.9654714
97	0x3f83141f	1.0240515
98	0x3f77dbe1	0.96819884
99	0x3f7a4274	0.9775765
100	0x3f763abc	0.9618337
101	0x3f83bafe	1.029144
102	0x3f81f050	1.0151463
103	0x3f7d7cc4	0.990185
104	0x3f7c4f0e	0.9855813
105	0x3f85c23b	1.04499
106	0x3f845e52	1.0341284
107	0x3f7f5f0d	0.9975441
108	0x3f862477	1.0479878
109	0x3f83311e	1.0249364
110	0x3f84e2b9	1.038169
111	0x3f707030	0.93921185
112	0x3f7dcade	0.99137676
113	0x3f7ca43f	0.9868812
114	0x3f7add85	0.9799426
115	0x3f8a16e5	1.0788237
116	0x3f7a8e0b	0.9787299
117	0x3f823d37	1.0174931
118	0x3f74918c	0.95534587
119	0x3f7669a7	0.9625496
120	0x3f7ab806	0.9793705
121	0x3f68f167	0.9099335
122	0x3f7e3fac	0.99315906
123	0x3f84b3e8	1.0367403
124	0x3f7b78a3	0.9823095
125	0x3f7c84b1	0.9863997
126	0x3f75934a	0.9592787
127	0x3f7d8db3	0.9904434

model.1.bias f4 [128]
0	0xbc58c2ba	-0.01323002
1	0xbd21e9a1	-0.039529447
2	0xbd2e5d9b	-0.042569738
3	0xbd3eea01	-0.046609882
4	0xbd96dd60	-0.07366443
5	0xbd963e27	-0.07336073
6	0xbd3f77a4	-0.046744958
7	0xbd1296cb	-0.03578834
8	0x3c3b8508	0.011445291
9	0xbcca14c9	-0.024668114
10	0xbb0b7fe8	-0.0021285955
11	0xbcd47267	-0.025933458
12	0xbe025629	-0.1272818
13	0xbd393daf	-0.04522484
14	0xbd86700c	-0.0656434
15	0xbd2a0994	-0.04151304
16	0xbc98bec3	-0.01864565
17	0x3dc25780	0.094893456
18	0xbd6c472e	-0.05768507
19	0xbd083342	-0.03325201
20	0x3c7d2b5d	0.015452233
21	0xbd38766c	-0.04503481
22	0x3cc1ee3b	0.023673167
23	0xbd366b96	-0.044536196
24	0x3c0798c1	0.008276165
25	0xbd5e25f6	-0.05423542
26	0x3d356404	0.044284835
27	0x3bda88cb	0.006669139
28	0xbda75c80	-0.0817194
29	0xbd5f5833	-0.054527473
30	0xbd353886	-0.044243358
31	0x3c617474	0.013760675
32	0xbbeaa648	-0.0071609356
33	0xbdd6248a	-0.10456188
34	0x3e13169b	0.14364092
35	0x3aaf0d97	0.001335549
36	0xbd11f8e3	-0.035637747
37	0xbd152cfb	-0.03641985
38	0x3da8ece8	0.08248311
39	0x3b3130de	0.0027037184
40	0xbca5c8aa	-0.020237286
41	0xbd3b2472	-0.045689054
42	0xbd4784fa	-0.0487108
43	0xbd528a83	-0.051401626
44	0x3c90ce5a	0.017676521
45	0xbcc4aa13	-0.024006879
46	0xbd27dc1b	-0.040981393
47	0xbd34ba39	-0.04412291
48	0xbdcd5f1a	-0.10027905
49	0xbd1ca291	-0.038240973
50	0xbd9f16d2	-0.077680245
51	0xbcefa330	-0.029252619
52	0x3c80f2c6	0.015740763
53	0xbbe7c469	-0.0070729745
54	0xbd317b2b	-0.043330353
55	0xbca9758c	-0.020685934
56	0x3dc7b74f	0.0975176
57	0xbd2f87fb	-0.04285429
58	0xbe0ed7cc	-0.13949507
59	0x3c049808	0.008092888
60	0xbd9c17f7	-0.076217584
61	0xbdd624f1	-0.10456265
62	0xbcfd8ba4	-0.030950375
63	0xbd41a38f	-0.047275122
64	0xbd1f94e3	-0.03896035
65	0xbd083b53	-0.0332597
66	0xbcb55cbb	-0.022138944
67	0xbc5c429d	-0.013443616
68	0xbcd256cb	-0.025676152
69	0xbc0cf640	-0.008603632
70	0xbc685f7a	-0.01418292
71	0xbcd7e7ca	-0.026355643
72	0xbda3a42c	-0.07990298
73	0x3d3bd7da	0.04586015
74	0xbdc8c50a	-0.09803207
75	0xbd706d14	-0.058697775
76	0xbcd04c32	-0.025426958
77	0x3c74854c	0.014924359
78	0x3cdd27b2	0.026996467
79	0xbcf3cc3a	-0.029760469
80	0xbd60d228	-0.05488792
81	0x3bae0a54	0.00531129
82	0xbc55c9d8	-0.013048612
83	0xbda90943	-0.0825372
84	0xbd93987a	-0.07206817
85	0xbd92384b	-0.07139643
86	0xbd73369b	-0.059378248
87	0x3daa2405	0.083076514
88	0xbdd105cd	-0.102061845
89	0xbdef59f4	-0.11687079
90	0xbd8c5c49	-0.068535395
91	0xbced5e21	-0.028975548
92	0xbc94f765	-0.018184373
93	0x3d05ceb7	0.03266784
94	0xbd924dfc	-0.071437806
95	0xbdf1cb05	-0.11806301
96	0xbd686287	-0.056734588
97	0xbdbde662	-0.09272458
98	0xbdd01b0d	-0.101614095
99	0xbc4c52aa	-0.0124708805
100	0xbd2cdc4e	-0.042202286
101	0xbd3985bb	-0.04529355
102	0xbdb53fe5	-0.088500775
103	0xbd91200c	-0.070861906
104	0xbcd8d30b	-0.02646782
105	0xbd851be3	-0.064994596
106	0xbb9fbd21	-0.004874841
107	0xbd943982	-0.07237531
108	0xbc86872b	-0.016421875
109	0xbc6a1789	-0.014287838
110	0x3d097092	0.03355462
111	0xbd742730	-0.059607685
112	0xbceae414	-0.02867321
113	0xbd813204	-0.06308368
114	0x3d0ef1cd	0.034898568
115	0xbcf32bdd	-0.029684002
116	0xbab5873d	-0.0013849508
117	0xbc8fc860	-0.017551601
118	0xbdbdb562	-0.09263112
119	0xbc246681	-0.010034204
120	0xbdd4067e	-0.10352801
121	0xbd9f2d59	-0.07772321
122	0xbd1c2868	-0.038124472
123	0xbe209741	-0.15682699
124	0xbd02f271	-0.03196949
125	0x3c1db392	0.009625332
126	0xbdd00b05	-0.10158352
127	0xbd922395	-0.07135693

model.1.running_mean f4 [128]
0	0x3ccf9be1	0.025342884
1	0x3c258b99	0.010104083
2	0xbc1a65b2	-0.00942366
3	0x3c3779d5	0.011198481
4	0xbd427832	-0.04747791
5	0x3ba7cbd5	0.005120734
6	0xbd046d4e	-0.032330804
7	0x3cc8a31c	0.02449184
8	0x3d7f1349	0.06227425
9	0xbd2a5955	-0.0415891
10	0x3d8400ee	0.0644549
11	0xbc539e8a	-0.012916217
12	0x3c0c110c	0.008548986
13	0xbd14b687	-0.036306884
14	0x3d440c19	0.0478631
15	0x3c2fbf60	0.01072678
16	0x3bf59c8a	0.0074954676
17	0x3b9350cd	0.004495716
18	0xbc64d9cc	-0.013967942
19	0x3d5a8ab6	0.05335494
20	0xbbce8963	-0.006302999
21	0x3d7c73ad	0.061633755
22	0x39e6c2af	0.0004401407
23	0xbcce0bc8	-0.025152102
24	0x3c7561a8	0.014976896
25	0xbd1af8b8	-0.037834853
26	0xbc7a5c3e	-0.015280781
27	0xbca87057	-0.02056138
28	0xbc5181b1	-0.0127872685
29	0x3cbe86ed	0.023257697
30	0x3d19936c	0.037494108
31	0xbb14c0d8	-0.0022697952
32	0xbd181464	-0.03712882
33	0x3d61ee36	0.055158816
34	0xbcd00ddb	-0.025397232
35	0x3da76201	0.0817299
36	0x3d0faaa6	0.035074852
37	0x3d5eb4b9	0.05437157
38	0x3a115feb	0.0005545604
39	0x3b26665e	0.0025390605
40	0x3d0bfe25	0.034177918
41	0x3da4b32d	0.080419876
42	0xbc835f6e	-0.016036715
43	0xbc134efa	-0.008990997
44	0xbdd3c2e0	-0.10339904
45	0x3d0cf7de	0.034416072
46	0xbd05ed70	-0.03269714
47	0xb9b7987d	-0.00035018093
48	0xbc83e77f	-0.016101597
49	0xbd2d6008	-0.04232791
50	0x3c53ad6c	0.012919765
51	0xbd1b76d5	-0.037955124
52	0x3d3f4167	0.046693232
53	0xbca25f96	-0.01982097
54	0xbc23c5d6	-0.009995898
55	0xbc178f40	-0.009250462
56	0xbd3e7654	-0.046499565
57	0xbb187b20	-0.0023266748
58	0x3d60005c	0.054687843
59	0x3be082a0	0.006851509
60	0xbbbe2491	-0.005802699
61	0x3cff67d2	0.031177435
62	0xbd8ff461	-0.070290335
63	0x3d7e1e1f	0.062040444
64	0x3d4a1a14	0.049341276
65	0xbb844702	-0.004036785
66	0xbd229bb8	-0.039699286
67	0xbd2d8e17	-0.042371836
68	0x3cb013df	0.02149385
69	0xbdc75e0d	-0.09734736
70	0x3cb953f8	0.022623047
71	0x3d82b656	0.06382434
72	0x3d015280	0.03157282
73	0x3b5c3ec7	0.0033606754
74	0xbb00512b	-0.001957963
75	0x3cb3eef7	0.021964533
76	0xbcc0427a	-0.023469198
77	0xbbebcdf8	-0.0071961842
78	0x3caf27e1	0.02138132
79	0xbbad9f9f	-0.0052985693
80	0xbc87df41	-0.016585948
81	0x3d167a9f	0.036738034
82	0x3d3acf53	0.045607876
83	0xbd906542	-0.070505634
84	0x3c60b61e	0.013715295
85	0xbb8f9ec4	-0.00438294
86	0xbc36fecd	-0.011169148
87	0xbd8d95e1	-0.06913353
88	0x3dd71b7d	0.1050329
89	0xbca91147	-0.020638121
90	0x3ccab747	0.024745597
91	0x39263141	0.00015849342
92	0xbc72988a	-0.014806876
93	0xbcf34753	-0.029697096
94	0x3cbf6385	0.023362884
95	0xbce79815	-0.02827076
96	0x3d44123f	0.047868963
97	0x3bbbf738	0.005736258
98	0x3d92a505	0.07160381
99	0xbdbe512b	-0.09292825
100	0x3b5800df	0.0032959504
101	0x3d6ca5ce	0.05777531
102	0xbbff7d9c	-0.007796956
103	0xbd3fe57b	-0.04684971
104	0xbdf4ac53	-0.11946931
105	0xbce550fc	-0.027992718
106	0xbc14608a	-0.00905622
107	0xbb5e0482	-0.0033877199
108	0x3d66495f	0.056222316
109	0xbb181da6	-0.0023211031
110	0xbc728995	-0.01480331
111	0x3db0ddbf	0.08636045
112	0x3d0dfb43	0.03466345
113	0x3b6b5206	0.0035907044
114	0xbd531c36	-0.051540576
115	0xbd0cd039	-0.034378264
116	0xbccc93a1	-0.024972739
117	0xbd85e49f	-0.06537747
118	0x3c8a78ca	0.0169033
119	0xbcbf13f4	-0.023324944
120	0x3d4dbdeb	0.050229948
121	0xbc71b6d4	-0.014753062
122	0xbcfbd678	-0.030741915
123	0xbd17b021	-0.037033204
124	0x3c93d257	0.018044634
125	0xbd1a8318	-0.037722677
126	0x3d334a2f	0.04377192
127	0x3cedf77b	0.029048672

model.1.running_var f4 [128]
0	0x3fd64074	1.673842
1	0x3e1955e0	0.14974165
2	0x3f6488ca	0.89271224
3	0x3ee22e99	0.44176176
4	0x3fb9bff0	1.45117
5	0x3e6f7c08	0.23387158
6	0x403d51a5	2.9581082
7	0x40357ff8	2.8359356
8	0x4089cdd4	4.3063755
9	0x400f300f	2.2373083
10	0x404a97f4	3.1655245
11	0x3eaf55b6	0.3424508
12	0x3fc9ded9	1.5771133
13	0x3fa63af4	1.2986741
14	0x40192214	2.392705
15	0x3f3f8a38	0.7482028
16	0x3f590869	0.8477846
17	0x3fdd02c4	1.7266469
18	0x3f1a1833	0.60193175
19	0x400cc788	2.1996784
20	0x3fd454c4	1.6588368
21	0x401993d8	2.3996487
22	0x3f62095e	0.88295543
23	0x3ff7f3f3	1.9371322
24	0x3f9256e5	1.1432768
25	0x3fcb46b0	1.5880947
26	0x3ebd19ff	0.36933896
27	0x3e54edc5	0.20793827
28	0x3e871dd0	0.26389933
29	0x3f3f288b	0.7467124
30	0x3fe207a5	1.7658583
31	0x3e59ba43	0.2126246
32	0x3f7abece	0.97947395
33	0x40a18c56	5.048381
34	0x3f4488ad	0.7677105
35	0x4093ace0	4.614853
36	0x3fdf0c8e	1.7425706
37	0x40054d15	2.0828297
38	0x3f59c94c	0.8507278
39	0x3f3affb5	0.7304643
40	0x3f55283f	0.83264536
41	0x402baa2b	2.6822612
42	0x3fc5ab38	1.5442877
43	0x40064e47	2.0985277
44	0x404d94cf	3.2122076
45	0x3fbe5f4c	1.4872832
46	0x3ff81649	1.9381801
47	0x3f2561c2	0.6460229
48	0x401ce80e	2.4516635
49	0x3f97c855	1.1858011
50	0x40819442	4.049348
51	0x3f0e7654	0.55649304
52	0x3fec8449	1.847787
53	0x3f1d1bbb	0.6137044
54	0x3fb6be33	1.4276794
55	0x3f234ff7	0.6379389
56	0x3f366d91	0.71260935
57	0x3f7daacc	0.9908874
58	0x40740831	3.813
59	0x3fd4db25	1.6629378
60	0x4027b891	2.62064
61	0x3f67e4e7	0.9058365
62	0x3ffc8542	1.9728167
63	0x4009e3db	2.1545322
64	0x3fd8ede7	1.6947602
65	0x3f8ace55	1.0844218
66	0x3ec789d9	0.38972357
67	0x3f87182f	1.0554255
68	0x41021511	8.130143
69	0x404960db	3.1465366
70	0x3f6d37bd	0.92663175
71	0x408d8ccb	4.4234366
72	0x3fcba184	1.5908666
73	0x3f3a1e8c	0.7270286
74	0x3e9b8c9f	0.30380723
75	0x3f8d8a84	1.1057897
76	0x3f1fea76	0.62467134
77	0x3fa309e3	1.2737392
78	0x3e822982	0.25422293
79	0x3f47dbb4	0.78069615
80	0x40723a2b	3.7848003
81	0x3f28a84f	0.6588182
82	0x40459466	3.0871825
83	0x40821303	4.064821
84	0x402c7c94	2.6951036
85	0x3e4c8d57	0.19975792
86	0x3f0fea73	0.56217116
87	0x40884876	4.2588453
88	0x4101cee7	8.113013
89	0x3f2d2c67	0.6764588
90	0x3f32b4a1	0.6980687
91	0x3f1a5a56	0.6029409
92	0x3ed9e89b	0.42560276
93	0x3f30ab1a	0.6901108
94	0x3decad9f	0.11556553
95	0x3e985cb8	0.2975824
96	0x3fc52c7a	1.5404198
97	0x3f669fb9	0.9008747
98	0x4092289b	4.5674567
99	0x4064ed65	3.5769894
100	0x3ec03aa9	0.37544754
101	0x40622850	3.5337105
102	0x3f2b2e9e	0.6686801
103	0x3ffa3af9	1.9549247
104	0x40bda501	5.926392
105	0x4070a97c	3.7603445
106	0x3ffb86ec	1.965055
107	0x3e62421d	0.22095533
108	0x401c619b	2.4434574
109	0x3f0ff68b	0.5623557
110	0x3fcfc0f9	1.6230766
111	0x404c0698	3.1879025
112	0x3f5ab7c7	0.8543667
113	0x3eccaa47	0.3997366
114	0x405879f3	3.3824432
115	0x3d94e75a	0.07270689
116	0x3f0a89ff	0.54116815
117	0x4082dbd1	4.089333
118	0x3fe3d947	1.7800683
119	0x3fe011ff	1.7505492
120	0x40327dab	2.7889202
121	0x3fe126aa	1.7589924
122	0x3f94949b	1.1607851
123	0x3f42d415	0.7610486
124	0x40066912	2.100163
125	0x3feb737d	1.8394619
126	0x3f90e17b	1.1318811
127	0x3ff5f839	1.9216377

model.4.weight f4 [64, 128]
0	0x3df79702	0.12089349
1	0xbcc3d436	-0.023904901
2	0x3d67ea9e	0.056620233
3	0x3da3b417	0.07993334
4	0xbe3a5edb	-0.18200247
5	0xbe363bb1	-0.17796208
6	0x3e24623e	0.16053101
7	0xbb1c0747	-0.0023808049
8	0x3b077c51	0.0020673464
9	0x3d0208eb	0.031746786
10	0x3df575d1	0.11985362
11	0x3e5c812d	0.21533652
12	0xbd9b5fb6	-0.07586615
13	0x3e33657f	0.17519186
14	0xbdfec0bc	-0.12439105
15	0xbbfae8d6	-0.0076571507
16	0x3e2a1850	0.16610837
17	0x3d653ae8	0.05596438
18	0xbc3e0b81	-0.011599422
19	0xbe9072cb	-0.2821258
20	0x3e1bb676	0.15206322
21	0x3e84f0b3	0.2596489
22	0x3d479ffa	0.04873655
23	0x3dc79473	0.09745111
24	0x3d559a85	0.052149314
25	0xbce786be	-0.028262492
26	0xbda8b944	-0.082384616
27	0xbcd87f3e	-0.026427861
28	0xbb4c806f	-0.0031204482
29	0x3ecc5b5a	0.39913446
30	0x3d516200	0.05111885
31	0xbcb13fc5	-0.021636853
32	0xbd979705	-0.074018516
33	0xbdcfaea6	-0.101407334
34	0xbe187eb8	-0.1489209
35	0xbe200ac5	-0.15629108
36	0xbda772c2	-0.08176185
37	0x3d81e035	0.06341592
38	0x3e91294a	0.28351814
39	0x3e4db95e	0.20090243
40	0x3dc58afa	0.09645648
41	0xbe651535	-0.22371371
42	0x3e2faa5f	0.17154835
43	0x3d80e78c	0.06294164
44	0xbcba2e87	-0.022727264
45	0xbdd3c802	-0.10340883
46	0xbca5afee	-0.020225491
47	0xbd9f7072	-0.07785119
48	0x3de0d573	0.10978212
49	0x3bd0e154	0.0063745175
50	0xbcdd76af	-0.027034132
51	0x3dd3875f	0.10328554
52	0x3dbadc18	0.09124011
53	0xbdded191	-0.10879815
54	0x3d774ca7	0.060375836
55	0xbdb9e00d	-0.090759374
56	0x3d53c0b7	0.05169746
57	0x3e1ab338	0.15107429
58	0xbb93bc98	-0.004508566
59	0x3da946dc	0.082654685
60	0xbe24c07c	-0.16089052
61	0xbd108de7	-0.03529158
62	0x3e8c7270	0.2743106
63	0xbb7c80ad	-0.0038528845
64	0xbc2337fb	-0.009962077
65	0x3dfc3241	0.12314273
66	0xbde6bbfc	-0.11266324
67	0x3dd9cdb2	0.106349364
68	0x3e45d014	0.19317657
69	0x3c83c199	0.016083525
70	0xbd8601db	-0.06543323
71	0x3c9bfabd	0.01904046
72	0xbc89627d	-0.016770596
73	0xbdc1bb3d	-0.09459541
74	0xbdabaff4	-0.0838317
75	0x3da0e55d	0.078562476
76	0xb9917ded	-0.00027750377
77	0x3d97ab1f	0.07405686
78	0x3e80ee2f	0.2518172
79	0xbd36faec	-0.04467289
80	0xbda512e3	-0.08060243
81	0xbd92f0fa	-0.07174869
82	0x3c39972a	0.011327544
83	0x3e3e5750	0.18587995
84	0x3d9d80bb	0.07690569
85	0xbe512cd0	-0.20427251
86	0x3e5b69b2	0.21427038
87	0x3dc7f3f5	0.09763328
88	0x3b207463	0.0024483434
89	0x3e0f4618	0.13991582
90	0x3e39d193	0.18146352
91	0xbdbc7b13	-0.09203162
92	0xbd487538	-0.048939914
93	0xbe80384d	-0.25042954
94	0xbe007147	-0.12543212
95	0x3d5c94ae	0.05385273
96	0xbe129146	-0.1431323
97	0x3d534b82	0.05158568
98	0x3e307332	0.17231444
99	0x3e3cfd2a	0.1845595
100	0x3d10070c	0.03516297
101	0x3de5996f	0.11210906
102	0xbb7a3a5d	-0.003818176
103	0x3cb7f928	0.022457674
104	0x3d76b77f	0.06023359
105	0x3dd3cd6b	0.10341915
106	0xbd6a8671	-0.05725712
107	0x3d539b3d	0.05166172
108	0x3d2e0e37	0.042494025
109	0x3e002eb1	0.12517811
110	0x3e48e51e	0.19618651
111	0x3e070986	0.13187227
112	0xbe2498f0	-0.16073966
113	0xbd41116e	-0.047135763
114	0xbd4d0c5e	-0.050060622
115	0x3d29d246	0.041460298
116	0x3e955d17	0.29172584
117	0x3ca7ac34	0.020467855
118	0xbe063929	-0.13107742
119	0xbe3b0afb	-0.18265907
120	0xbdacde12	-0.08440794
121	0x3e9f4bf7	0.31112644
122	0x3e0e3b89	0.13889898
123	0x3e506102	0.20349506
124	0x3c423afe	0.011854885
125	0x3d0b70c8	0.034043103
126	0x3d63ae5d	0.055586208
127	0x3c822b91	0.015889915
128	0xbd2294e5	-0.03969278
129	0xbcabfd6f	-0.02099487
130	0xbdd6e2eb	-0.104925
131	0xbe4423fd	-0.19154353
132	0x3cf663ee	0.030076947
133	0x3c7599d1	0.014990286
134	0xbdd0fb62	-0.102041975
135	0xbdc79d27	-0.09746771
136	0x3cfc03f9	0.030763613
137	0x3d41f1cd	0.04734974
138	0xbd4d3a7c	-0.050104603
139	0x3d5b8277	0.053591218
140	0xbc4165f3	-0.011804092
141	0xbd8cf76b	-0.06883129
142	0xbd4e9d51	-0.050442997
143	0xbde33c95	-0.110955395
144	0x3ec7b092	0.390019
145	0xbdd649ba	-0.10463281
146	0x3e63f2e3	0.22260623
147	0xbdc06e8f	-0.093960874
148	0x3c926390	0.01786974
149	0x3e07962a	0.13240877
150	0xbd71752a	-0.058949627
151	0xbe1707e8	-0.1474911
152	0x3c3dd73b	0.0115869595
153	0x3ddeca57	0.10878437
154	0xbd40658b	-0.04697184
155	0x3c360308	0.011109121
156	0xbddc48c9	-0.1075607
157	0xbd37a427	-0.044834282
158	0x3d997d2f	0.0749458
159	0x3e3e7deb	0.18602721
160	0x3cabe29a	0.020982075
161	0x3dc31d14	0.095270306
162	0xbbd06c6d	-0.0063605816
163	0xbd03e984	-0.03220512
164	0xbe6b80d4	-0.22998363
165	0x3e46bb98	0.19407499
166	0x3e412c01	0.18864442
167	0xbda2b7f2	-0.07945241
168	0x3dd9e46e	0.10639273
169	0xbd065b0a	-0.032801665
170	0xbe3381cb	-0.17529981
171	0xbe39c56f	-0.18141721
172	0x3e3361f1	0.1751783
173	0xbe25f825	-0.16207941
174	0x3e8ce62d	0.2751936
175	0xbd0758d0	-0.033043683
176	0xbdc433ba	-0.095801786
177	0xbe378e57	-0.17925392
178	0xbe072af4	-0.13199979
179	0x3dd386ee	0.1032847
180	0x3ece447c	0.40286624
181	0xbe1fc7d9	-0.1560358
182	0xbdb7d5d6	-0.08976333
183	0xbd845025	-0.06460599
184	0xbe359c18	-0.17735326
185	0xbdf1e749	-0.11811692
186	0x3e5836f1	0.21114708
187	0xbcadfb48	-0.021237984
188	0x3e629246	0.22126111
189	0x3ea635a9	0.32462814
190	0x3e0c8144	0.13721186
191	0x3d14731c	0.03624259
192	0x3e31cb49	0.17362703
193	0xbbda96b7	-0.0066707986
194	0xbd7a7738	-0.061148852
195	0x3bb01b58	0.0053743534
196	0xbdc60e48	-0.09670693
197	0x3e2e1af0	0.17002463
198	0x3cbdd549	0.023172991
199	0xbd534ce7	-0.05158701
200	0x3e014366	0.12623367
201	0x3e0ee9c9	0.1395637
202	0xbdf8ab3a	-0.12142034
203	0xbd7b6185	-0.0613723
204	0xbc95ce2a	-0.018286783
205	0x3b8e2337	0.004337694
206	0x3d9f4b55	0.0777804
207	0x3e0e233b	0.13880627
208	0xbe8b1425	-0.27163807
209	0xbd0d19be	-0.034448378
210	0xbccc13c8	-0.024911776
211	0xbd21c2de	-0.03949248
212	0x3cc8bb39	0.024503337
213	0x3dc29d4b	0.095026575
214	0xbe0401b7	-0.12891279
215	0xbda2745a	-0.079323485
216	0xbdaa6108	-0.083192885
217	0x3bf733b9	0.0075440076
218	0x3d23083f	0.039802786
219	0x3b525742	0.0032095467
220	0x3dc6cbb3	0.09706821
221	0xbe81b489	-0.2533305
222	0x3cda5e62	0.026656333
223	0xbe1b363e	-0.1515741
224	0x3e252a49	0.16129412
225	0x3df5563a	0.11979337
226	0xbd1d991b	-0.03847609
227	0xbdba1c10	-0.09087384
228	0x3d9e51d8	0.07730454
229	0x3d02b002	0.031906135
230	0xbe00e4b9	-0.12587251
231	0x3c8df1c7	0.017327202
232	0xbde50143	-0.11181881
233	0xbe7ec4a0	-0.24879694
234	0x3e54e5a1	0.20790721
235	0xbd0bcc6e	-0.034130506
236	0xbd9cb1f7	-0.076511316
237	0x3e25212b	0.16125934
238	0xbc73f8ae	-0.014890833
239	0x3d948859	0.07252569
240	0xbd70079b	-0.058601003
241	0xbe897be2	-0.26852328
242	0x3d84394b	0.0645624
243	0x3d39bdc3	0.045346987
244	0xbe0fd88c	-0.1404745
245	0xbd0193b6	-0.03163501
246	0x3d49ebbc	0.04929708
247	0xbd9d673a	-0.076857045
248	0xbd296779	-0.041358445
249	0xbe3f11b3	-0.18659095
250	0x3dff81ff	0.12475967
251	0xbde5ca23	-0.11220195
252	0xbc6bf740	-0.014402211
253	0x3de92f48	0.11385971
254	0x3dcfd873	0.10148706
255	0x3cd6c5e7	0.026217414

model.4.bias f4 [64]
0	0xba9a2c26	-0.0011762425
1	0x3afa61b7	0.0019102608
2	0xb8bd130e	-9.0157715e-05
3	0xbbba2bc2	-0.005681486
4	0xbad3d4df	-0.0016161463
5	0x3b850759	0.004059714
6	0xb8c2b732	-9.284764e-05
7	0x3bc5ecf3	0.0060402094
8	0xbb49b287	-0.0030776577
9	0xbaa807c9	-0.0012819703
10	0x3bdc4cd2	0.006723025
11	0xbbe86c32	-0.007092976
12	0xbc0f89f0	-0.008760914
13	0xba7272e2	-0.0009248686
14	0xbbe9e8c2	-0.0071383426
15	0x3b0fba1c	0.0021930998
16	0x3aef733e	0.0018268598
17	0x3b1ebb99	0.0024220704
18	0xbb5aa695	-0.003336345
19	0x3c0075e4	0.007840607
20	0xbc0114b0	-0.007878467
21	0x3b1d31be	0.0023985947
22	0x3ba4e5b0	0.0050322637
23	0x3c4e3b60	0.012587398
24	0xb992148e	-0.00027862604
25	0xbb947a6b	-0.004531195
26	0xbc44be90	-0.012008324
27	0xbb2d5d79	-0.002645342
28	0xbbbaf56e	-0.005705527
29	0xba9d9dff	-0.0012025236
30	0xbba66881	-0.005078376
31	0xbb2403a4	-0.0025026584
32	0xbafcc04a	-0.0019283381
33	0xbac80668	-0.0015260698
34	0x3ade7dd6	0.0016974758
35	0xbba1f630	-0.004942678
36	0xbb725d8d	-0.003698203
37	0x38af2e70	8.3533e-05
38	0x3bc633dd	0.006048663
39	0x3c2b6160	0.010460228
40	0x3ab0c916	0.0013487663
41	0x3c3f2606	0.01166678
42	0x3abd0e45	0.0014423808
43	0xbc497770	-0.0122965425
44	0x3abc99e7	0.0014389128
45	0xbb7f6ba8	-0.003897408
46	0x3b0553f1	0.0020344222
47	0xbb6408a0	-0.003479518
48	0xbc171669	-0.009221652
49	0xbadb5495	-0.0016733581
50	0x3c531a81	0.012884737
51	0xbb7f6534	-0.0038970234
52	0xbb3ed4e9	-0.0029118604
53	0xbb3c61e1	-0.0028744864
54	0x3c027541	0.007962526
55	0x3b7e447e	0.0038798149
56	0x3ba91395	0.005159805
57	0x3bb04887	0.0053797397
58	0xbb1f53b5	-0.0024311368
59	0x3b91cacc	0.004449224
60	0x3abe2065	0.0014505504
61	0xbc2988f3	-0.010347593
62	0x3b39510f	0.0028277074
63	0x3b25c732	0.0025295732

model.5.weight f4 [64]
0	0x3f7967a3	0.9742376
1	0x3f68f074	0.909919
2	0x3f692b45	0.9108165
3	0x3f78bf9d	0.9716738
4	0x3f6cafad	0.9245556
5	0x3f7e6ef2	0.9938804
6	0x3f82cad4	1.0218148
7	0x3f85627a	1.0420678
8	0x3f864fba	1.0493081
9	0x3f855c86	1.0418861
10	0x3f7a6ad1	0.9781924
11	0x3f888eff	1.0668639
12	0x3f843b22	1.0330546
13	0x3f80a092	1.0049002
14	0x3f6dfa8d	0.92960435
15	0x3f82f598	1.0231199
16	0x3f81e03e	1.0146558
17	0x3f8923ee	1.071409
18	0x3f8b3408	1.0875254
19	0x3f808a91	1.0042287
20	0x3f76a171	0.9634009
21	0x3f81f6d2	1.0153449
22	0x3f7776db	0.96665734
23	0x3f745148	0.95436525
24	0x3f7f7351	0.99785334
25	0x3f761118	0.96119833
26	0x3f7a0d4a	0.9767653
27	0x3f8a6da9	1.0814716
28	0x3f8a12ac	1.0786948
29	0x3f7d6e15	0.98996097
30	0x3f7b06ef	0.98057455
31	0x3f80d631	1.0065366
32	0x3f7c5dc9	0.98580605
33	0x3f7a275a	0.97716296
34	0x3f863204	1.0484014
35	0x3f7ea62f	0.99472326
36	0x3f755f3d	0.9584845
37	0x3f6a69cd	0.9156769
38	0x3f6d30e4	0.92652726
39	0x3f810cb8	1.0082006
40	0x3f80b821	1.0056192
41	0x3f7fa98d	0.9986809
42	0x3f7ed560	0.99544334
43	0x3f8c6c96	1.0970638
44	0x3f7c60c2	0.9858514
45	0x3f802ce1	1.0013696
46	0x3f8216c1	1.0163194
47	0x3f8f006a	1.1172001
48	0x3f8880fc	1.0664363
49	0x3f773d0a	0.96577513
50	0x3f712f66	0.9421295
51	0x3f7e6556	0.99373376
52	0x3f6b9fdd	0.92040807
53	0x3f805179	1.0024863
54	0x3f897d2b	1.0741323
55	0x3f77cdf3	0.9679863
56	0x3f80c18f	1.0059069
57	0x3f6a3401	0.914856
58	0x3f75c0e7	0.9599747
59	0x3f84f24d	1.0386444
60	0x3f84d65c	1.0377917
61	0x3f899f4d	1.075174
62	0x3f91c517	1.1388272
63	0x3f8344d3	1.0255378

model.5.bias f4 [64]
0	0xbd0f3d14	-0.034970358
1	0xbdc42338	-0.0957703
2	0xbd66b000	-0.05632019
3	0x3d1afacc	0.037836835
4	0xbd9b56f6	-0.07584946
5	0x3b442d0c	0.0029934077
6	0xbcf3a8f6	-0.029743653
7	0xbc819876	-0.01581977
8	0x3c39c99d	0.011339572
9	0xbc831ae0	-0.016004026
10	0xbd4a51ac	-0.049394295
11	0xbc8fc520	-0.017550051
12	0xbcf15884	-0.029461153
13	0x3c98fe70	0.018676013
14	0xbd37a733	-0.044837188
15	0xb9ede210	-0.00045372592
16	0xbd3e7aa9	-0.046503697
17	0xbb31aa95	-0.0027109731
18	0x3d28b383	0.04118682
19	0xbcc87821	-0.024471344
20	0x3cc5cd0f	0.024145631
21	0xbcf1281c	-0.029438071
22	0xbd5a6700	-0.053320885
23	0xbd55536a	-0.052081503
24	0xbba26e1f	-0.004956975
25	0xbd238346	-0.039920114
26	0xbd215d68	-0.03939572
27	0x3dc43a97	0.095814876
28	0x3b1e183d	0.0024123334
29	0xbc8f9885	-0.017528782
30	0xbcf2cedc	-0.029639654
31	0xbc4238ba	-0.011854345
32	0xbd2acb82	-0.041697986
33	0x3cbd894b	0.023136755
34	0xbd60ae42	-0.054853685
35	0xbcfa959b	-0.030588916
36	0xbd0b020c	-0.0339375
37	0xbdb72dd6	-0.089442894
38	0xbd861f2b	-0.065489136
39	0xbc234152	-0.009964304
40	0xbd63457d	-0.05548619
41	0xbd3514bb	-0.044209223
42	0xbccdbc45	-0.025114188
43	0xbd294dec	-0.041334078
44	0xbc53799a	-0.01290741
45	0xbd090e85	-0.033461113
46	0x3cda454e	0.026644375
47	0x3da37e8f	0.079831235
48	0x3d2a665e	0.04160153
49	0xbd3351fc	-0.04377936
50	0xbcbc1f75	-0.022964219
51	0x3cb2ea78	0.021840319
52	0xbd3aa00c	-0.04556279
53	0xbd9fb394	-0.07797924
54	0x3cb5351b	0.02212005
55	0xbd87cde5	-0.06631068
56	0xbca46a5c	-0.020070247
57	0xbd7bad4d	-0.06144457
58	0xbd50781a	-0.050895788
59	0xbd268cee	-0.040661745
60	0x3d932c4d	0.07186184
61	0x3cd9108a	0.026497144
62	0x3e12a8c9	0.14322199
63	0xbd2bc618	-0.041936964

model.5.running_mean f4 [64]
0	0x3fae0fb6	1.3598545
1	0xbdef019c	-0.11670229
2	0xbf304ae3	-0.6886427
3	0xbd6d514f	-0.05793887
4	0x3da72f43	0.08163311
5	0xbf5f496c	-0.8722141
6	0x3f33d2e9	0.702437
7	0x3f3745b8	0.7159076
8	0x3f9763cb	1.1827329
9	0xbd4b182f	-0.04958361
10	0x3ef1c261	0.47218612
11	0xbee670e2	-0.45007998
12	0x3fd27dff	1.6444701
13	0x3dc6b651	0.09702743
14	0xbf507e1b	-0.8144242
15	0xbf81226b	-1.0088629
16	0x3f9ae42e	1.2100885
17	0x3fa285a1	1.269703
18	0xbf5b218d	-0.8559807
19	0x3f812b5f	1.0091361
20	0x3e200705	0.15627678
21	0x3f7e172d	0.99254113
22	0x3e66d731	0.22543027
23	0xbf21320e	-0.62967
24	0x3fd95d38	1.6981573
25	0xbf9c708c	-1.2221847
26	0xbe848da5	-0.25889316
27	0xbfc5d178	-1.545455
28	0xbf28dced	-0.65962106
29	0x3f25125e	0.6448115
30	0x3df4ff20	0.11962724
31	0x3fa54cae	1.2914026
32	0x3f9fac64	1.2474484
33	0xbf8f10ee	-1.1177042
34	0x3fa2e7e3	1.2727016
35	0x3f72cd7d	0.948448
36	0x3f4d4124	0.8017752
37	0xbd79cc91	-0.060986105
38	0xbf198825	-0.59973365
39	0xbf272379	-0.652885
40	0x3fa9e1ca	1.327203
41	0x3e962a4c	0.29329145
42	0x3f8f9dc5	1.1220022
43	0x3ba2f03e	0.0049724868
44	0xbfbb499d	-1.463184
45	0xbf259ab9	-0.64689213
46	0x3f68612c	0.9077327
47	0xbd7ec73a	-0.062201716
48	0x3e9fb8e5	0.3119575
49	0xbf13c4b0	-0.57721996
50	0xbf85356f	-1.0406932
51	0xbee22d6d	-0.44175282
52	0x3eac2383	0.33620843
53	0x3fbbc616	1.4669826
54	0x3fa3c678	1.2794943
55	0x3f2e8b1d	0.6818102
56	0xbf8885a4	-1.0665784
57	0x3ee1122f	0.43959185
58	0xbe883442	-0.2660237
59	0x3fbab572	1.4586623
60	0x3f12124c	0.5705917
61	0x3f3bce47	0.7336163
62	0xbfd5aa0a	-1.6692517
63	0x3f46899b	0.7755372

model.5.running_var f4 [64]
0	0x3fa9f2f8	1.3277273
1	0x3fd83995	1.6892573
2	0x3f86a63d	1.0519482
3	0x3fead524	1.8346295
4	0x3ff54613	1.916201
5	0x400ad079	2.1689742
6	0x3f9fe22f	1.2490901
7	0x3f856d1f	1.0423926
8	0x4035ad28	2.8386936
9	0x3f9be7a8	1.2180071
10	0x4009ace5	2.1511776
11	0x3fe494d4	1.7857919
12	0x3fcfa309	1.6221629
13	0x3fd8473a	1.6896737
14	0x3ff9e6ef	1.95236
15	0x3fc3a77b	1.5285486
16	0x400013ff	2.0012205
17	0x3fb7c7ac	1.435781
18	0x3fff5f23	1.9950908
19	0x40388512	2.883122
20	0x3fad056f	1.3517283
21	0x3fc6e4ef	1.5538615
22	0x3fb19c39	1.38758
23	0x3fc4a2b9	1.5362159
24	0x3f80b538	1.0055304
25	0x3fd52e8e	1.6654832
26	0x3f8ef107	1.1167306
27	0x3fd60663	1.6720699
28	0x3fd8715b	1.6909593
29	0x3fa2c49d	1.2716252
30	0x400c7492	2.194615
31	0x3f9e42fb	1.2364191
32	0x4004d0a5	2.0752347
33	0x3f97cb7b	1.1858972
34	0x4050643f	3.2561185
35	0x3fddc036	1.7324283
36	0x3f9f17de	1.2429159
37	0x3ff6b0a8	1.9272661
38	0x3fc478c4	1.5349355
39	0x3fbeed11	1.4916097
40	0x3f970226	1.1797531
41	0x3fa28214	1.2695947
42	0x3f5fc196	0.87404764
43	0x403ba7c1	2.932114
44	0x3fd4754d	1.6598297
45	0x400a1bad	2.1579392
46	0x3fc40aff	1.5315856
47	0x3ff5831b	1.9180635
48	0x3fe01153	1.7505287
49	0x4001e9f9	2.0299056
50	0x3f9b29a2	1.212208
51	0x3f9b352e	1.2125604
52	0x3fc72107	1.5556954
53	0x3f823d5d	1.0174977
54	0x3fbfdf6f	1.4990062
55	0x3fc3e17a	1.5303185
56	0x3f81272e	1.0090082
57	0x3fd43530	1.6578732
58	0x3fa21958	1.2663984
59	0x402bcfc5	2.6845562
60	0x3f86c39b	1.0528444
61	0x3f7c4068	0.98535776
62	0x3ff40813	1.9064964
63	0x3fdb3b99	1.7127563

model.8.weight f4 [32, 64]
0	0xbd40392b	-0.04692952
1	0x3e33bc8c	0.17552394
2	0xbd09117c	-0.03346394
3	0x3d4daf57	0.050216045
4	0xbd682d41	-0.056683782
5	0x3edef4c3	0.43546113
6	0xbdc3c3d8	-0.095588386
7	0xbd5884b7	-0.05286094
8	0x3db1fc16	0.0869066
9	0xbee90d96	-0.45518178
10	0xbd0df274	-0.03465505
11	0x3d9a3667	0.07529908
12	0x3e3ec2bc	0.18628973
13	0x3e63fc7d	0.22264285
14	0xbde24e04	-0.110500365
15	0x3d599732	0.053122707
16	0xbe6293e1	-0.22126724
17	0x3ce06160	0.027390182
18	0xbbd39e4b	-0.006458079
19	0xbd43ce05	-0.047803897
20	0xbe582583	-0.2110806
21	0x3d1c7670	0.03819889
22	0x3e9cc8a4	0.30621827
23	0x3dda961f	0.106731646
24	0x3bef08a3	0.0072947307
25	0x3ea8decc	0.3298248
26	0x3ea2e681	0.31816486
27	0xbd95dd66	-0.07317619
28	0x3ea0d9bf	0.31416127
29	0xbed91b2a	-0.42403537
30	0xbd968387	-0.073493056
31	0xbea12ef7	-0.31481144
32	0xbe0dea21	-0.13858844
33	0x3d996992	0.07490839
34	0xbe41d385	-0.18928345
35	0x3d84f36b	0.06491741
36	0xbe6ce62f	-0.23134683
37	0xbdb4153a	-0.08793111
38	0x3e2d045a	0.16896191
39	0xbe6ecff0	-0.2332151
40	0xbe561fa0	-0.20910501
41	0xbe42519d	-0.18976445
42	0xbdb729f4	-0.08943549
43	0x3cdd78be	0.027035113
44	0x3d185640	0.03719163
45	0xbe1f3a07	-0.1554948
46	0x3cd6ffee	0.026245084
47	0xbdd86692	-0.10566439
48	0xbe00f558	-0.12593591
49	0x3d784026	0.06060805
50	0x3c86f2c8	0.016473189
51	0x3d2abbf4	0.041683152
52	0x3dccfa52	0.10008682
53	0xbc44fc1f	-0.012023001
54	0xbd93872c	-0.07203516
55	0x3d98dbc1	0.0746379
56	0xbe85e647	-0.2615225
57	0x3d01523b	0.03157256
58	0x3e9c218b	0.3049434
59	0xbe1cf92b	-0.15329425
60	0x3e005157	0.12531029
61	0xbeb9a57c	-0.36259067
62	0xbeb10f88	-0.34582162
63	0xbcad90f1	-0.021187278
64	0xbdf4aa4e	-0.119465455
65	0x3bcb8110	0.006210454
66	0x3e9fe9f5	0.31233183
67	0xbeab595a	-0.33466607
68	0xbe0ce34a	-0.13758579
69	0xbe90c59b	-0.2827576
70	0xb98ad0ab	-0.0002647688
71	0xbd114e27	-0.035474923
72	0x3dd4fae8	0.10399419
73	0x3e8904d2	0.2676149
74	0xbe234004	-0.15942389
75	0x3d174b6c	0.036937162
76	0x3c7d2c91	0.01545252
77	0xbd882380	-0.06647396
78	0x3eb40e97	0.3516738
79	0xbe9ab723	-0.30217847
80	0x3cda1833	0.026622867
81	0xbe1f7298	-0.15571058
82	0x3d1a2aeb	0.037638586
83	0xbcf65ec0	-0.030074477
84	0xbecdbead	-0.40184537
85	0xbe9c2dda	-0.30503732
86	0xbecebcdc	-0.40378463
87	0xbd026ec7	-0.031843927
88	0xbe70dd23	-0.23521857
89	0x3e486a22	0.19571736
90	0x3e01515c	0.12628692
91	0xbea0fa8c	-0.31441152
92	0xbdae6cf6	-0.085168764
93	0xbc4095c9	-0.011754462
94	0xbe952520	-0.29129887
95	0xbe889795	-0.26678148
96	0xbe476fc1	-0.19476224
97	0x3dd39140	0.103304386
98	0xbe9a8f17	-0.30187294
99	0x3d882e55	0.06649462
100	0xbe237d17	-0.15965687
101	0xbaab08b8	-0.0013048863
102	0x3e95d096	0.292607
103	0xbe3a3714	-0.18185073
104	0xbe17f8aa	-0.14840952
105	0x3e60a545	0.21938045
106	0xbed59943	-0.41718492
107	0x3df5dfb1	0.120055564
108	0xbc91b038	-0.017784223
109	0x3e1e804b	0.15478627
110	0x3b01de95	0.0019816507
111	0xbda1a358	-0.078924835
112	0xbca205bd	-0.019778127
113	0x3dc7f713	0.097639225
114	0xbd2a678a	-0.04160265
115	0x3e308487	0.17238055
116	0xbd8ba785	-0.06819061
117	0xbe87174e	-0.26384968
118	0x3cabc101	0.020966055
119	0x3ceb8c30	0.02875337
120	0xbe2691f6	-0.16266617
121	0x3cddc436	0.0270711
122	0xbd3bcea9	-0.045851383
123	0x3e96a77e	0.2942466
124	0x3da31652	0.07963242
125	0xbe76fc22	-0.24119619
126	0xbe783229	-0.24237885
127	0x3e5f2bf0	0.21794105
128	0x3c63535b	0.013874854
129	0xbe61fe6a	-0.22069708
130	0x3db09699	0.08622474
131	0xbd79bcfd	-0.06097125
132	0x3e45ea75	0.1932772
133	0xbbd9116a	-0.0066243904
134	0x3deff48f	0.11716568
135	0x3e773611	0.24141718
136	0x3e4a7160	0.19769812
137	0x3d589b78	0.05288264
138	0xbdd6a0b9	-0.10479874
139	0x3ddb641b	0.10712453
140	0x3e02646f	0.12733625
141	0x3e35079c	0.17678684
142	0x3d696a37	0.05698606
143	0xbe81a094	-0.25317824
144	0xbc7363d7	-0.014855347
145	0x3e25f24c	0.1620571
146	0x3eb11f37	0.34594128
147	0xbe2f9d78	-0.17149913
148	0xbe832c7c	-0.25619876
149	0x3e91c88f	0.28473327
150	0x3e37ba73	0.17942218
151	0xbd29f00d	-0.041488696
152	0x3df5ce4a	0.12002237
153	0xbe53f676	-0.20699486
154	0x3ddb7c9d	0.107171275
155	0x3dc812a8	0.097691834
156	0xbe041d79	-0.12901868
157	0x3e885693	0.2662855
158	0x3e23401b	0.15942423
159	0xbe9721b6	-0.29517907
160	0xbd6e875c	-0.058234558
161	0x3d190626	0.03735938
162	0x3decf0b0	0.11569345
163	0xbd7d48e3	-0.06183709
164	0xbe85304e	-0.26013416
165	0x3ea5bc12	0.3237005
166	0xbe456757	-0.19277702
167	0xbe963958	-0.29340625
168	0x3d57f689	0.05272535
169	0x3e446841	0.19180395
170	0xbeef3ba8	-0.46725202
171	0xbd93091d	-0.071794726
172	0xbf098e7e	-0.5373305
173	0xbdcf16e0	-0.10111785
174	0x3d8af8c9	0.06785733
175	0x3df2b047	0.118500285
176	0x3ca95351	0.020669611
177	0xbd850a42	-0.06496097
178	0x3dd6da80	0.10490894
179	0x3c87a210	0.01655677
180	0x3ea340c5	0.31885353
181	0x3d461683	0.048361313
182	0xbe4ef602	-0.20211032
183	0xbdcb3ce0	-0.0992372
184	0x3c78ac0c	0.015177738
185	0x3b9d3404	0.0047974605
186	0x3b04161e	0.0020154784
187	0xbe03a97f	-0.12857626
188	0x3d1ec71f	0.038764115
189	0xbd9d0cd4	-0.076684624
190	0x3de91adf	0.113820784
191	0x3e8d0e78	0.275501
192	0xbd097bd9	-0.033565376
193	0x3d77cd3e	0.06049847
194	0x3dee7129	0.11642677
195	0x3e9d370e	0.30706066
196	0x3e9e9189	0.3097041
197	0xbe4437d7	-0.19161926
198	0xbb2b273e	-0.002611592
199	0xbde590f5	-0.11209289
200	0xbe6a85f1	-0.22902657
201	0xbd64f864	-0.055900946
202	0x3cd22e73	0.025656914
203	0xbd6ae25e	-0.057344787
204	0xbd699de5	-0.057035346
205	0xbe93ea89	-0.28889874
206	0x3dca9509	0.098917075
207	0x3ded5616	0.11588685
208	0xbe8d757e	-0.27628702
209	0xbe444570	-0.19167113
210	0x3e562770	0.20913482
211	0x3e9d49f5	0.30720487
212	0x3e54a463	0.20765834
213	0xbe1e96a7	-0.15487157
214	0x3e14d913	0.14535932
215	0xbe20ceb1	-0.15703847
216	0x3c9f99a5	0.019482443
217	0xbe281649	-0.16414751
218	0xbc8d02c2	-0.01721323
219	0x3da5659a	0.080760196
220	0xbdc9cb61	-0.098532446
221	0xbe1bb91a	-0.1520733
222	0x3e419b24	0.18906838
223	0xbe9a4a63	-0.30134878
224	0xbe59a54a	-0.21254459
225	0x3e835b38	0.25655532
226	0xbce9f00a	-0.028556842
227	0x3dbd7ca7	0.09252291
228	0x3d054310	0.03253466
229	0xbdef9ffc	-0.117004365
230	0x3dbddcce	0.09270631
231	0xbd904ea8	-0.070462525
232	0x3df51d9a	0.11968537
233	0x3c905846	0.017620217
234	0xbd0a5873	-0.033775758
235	0x3ea97e9e	0.33104414
236	0xbda0e393	-0.07855906
237	0xbe26e339	-0.16297616
238	0xbe51289b	-0.20425646
239	0x3e42b661	0.19014885
240	0x3e196021	0.14978077
241	0x3d239b61	0.039943103
242	0xbe011618	-0.12606084
243	0x3cdf2068	0.027237132
244	0xbe844103	-0.2583085
245	0xbd82ef05	-0.063932456
246	0xbe743a55	-0.23850377
247	0x3d9e294b	0.0772272
248	0xbea0c86e	-0.31402916
249	0x3dc2d494	0.09513202
250	0x3e12ef6c	0.14349145
251	0xbe8e2b50	-0.2776742
252	0x3eff366e	0.49846214
253	0x3e8391fb	0.25697312
254	0x3ddcbe56	0.10778491
255	0xbed2af2e	-0.41149276

model.8.bias f4 [32]
0	0xbb6b5638	-0.0035909545
1	0x3ae2ff18	0.0017318456
2	0xb8fcebb2	-0.00012060198
3	0x3b7e4356	0.003879746
4	0x3b845776	0.0040387465
5	0x3c166296	0.009178778
6	0xbbc8058e	-0.006104178
7	0xbb6c42ae	-0.0036050486
8	0xba98f45b	-0.0011669503
9	0xbbafcf10	-0.00536526
10	0xbaf9e2d6	-0.0019064795
11	0x3b8ba7f2	0.004261964
12	0xbc0a7b7a	-0.008452291
13	0x3af5b7b9	0.001874677
14	0xbb1a178e	-0.0023512575
15	0xbbb0a4c6	-0.0053907363
16	0x3aa8d950	0.0012882147
17	0xbc0bcd8e	-0.008532895
18	0xbb7c58ea	-0.0038505145
19	0xbaf10026	-0.0018386885
20	0x3c0704ce	0.008240892
21	0xbc0ae583	-0.008477571
22	0xba0d822b	-0.00053981197
23	0x3c095055	0.008380969
24	0x3c2a141a	0.010380769
25	0x3bc2b8ce	0.0059424406
26	0xbc0e02de	-0.008667676
27	0x3bff6fad	0.007795295
28	0xba8a3d6e	-0.0010546872
29	0xb8eba646	-0.00011236644
30	0x3b1d8148	0.0024033356
31	0xba6f26f2	-0.000912293

model.9.weight f4 [32]
0	0x3f5be7c3	0.85900515
1	0x3f6bc517	0.9209761
2	0x3f727ad9	0.947187
3	0x3f76c252	0.9639026
4	0x3f715704	0.942734
5	0x3f575486	0.8411335
6	0x3f672cfa	0.90303004
7	0x3f6db6e3	0.9285719
8	0x3f651e38	0.89499235
9	0x3f6456c6	0.89194906
10	0x3f6c6566	0.9234222
11	0x3f714eef	0.9426107
12	0x3f62020b	0.8828437
13	0x3f81f63d	1.0153271
14	0x3f771d1c	0.9652879
15	0x3f60c8cd	0.878064
16	0x3f6e07af	0.92980474
17	0x3f6b9915	0.9203046
18	0x3f4c0fd8	0.79711676
19	0x3f7eb511	0.99495035
20	0x3f34f4e0	0.7068615
21	0x3f4b242d	0.79352075
22	0x3f6afb44	0.9178965
23	0x3f6316a3	0.88706416
24	0x3f497088	0.78687334
25	0x3f456117	0.7710127
26	0x3f7140f2	0.94239724
27	0x3f6e17f0	0.93005276
28	0x3f6db011	0.9284678
29	0x3f7c4db8	0.9855609
30	0x3f4d29e1	0.8014203
31	0x3f4e5258	0.80594397

model.9.bias f4 [32]
0	0xbdf53ede	-0.119748816
1	0xbda7b60e	-0.08189021
2	0xbd1d0a5b	-0.038339954
3	0x3d6c034c	0.05762033
4	0x3cad9068	0.021187022
5	0xbdd160d6	-0.10223548
6	0xbd8ce09a	-0.06878777
7	0xbd5707d8	-0.052497715
8	0xbdceb5a8	-0.10093242
9	0xbda1200a	-0.07867439
10	0x3bdd8479	0.0067601767
11	0xbd782f4d	-0.060591985
12	0xbddb88e8	-0.10719472
13	0x3d3274b8	0.043568343
14	0xbbf149e7	-0.007363546
15	0xbdb21b95	-0.08696667
16	0xbd90ff79	-0.070799775
17	0xbd65f4a9	-0.05614153
18	0xbe33afd3	-0.1754754
19	0x3d5ccf2d	0.053908516
20	0xbe7c9e41	-0.24669744
21	0xbe53aeda	-0.2067217
22	0xbcbd1f18	-0.023086116
23	0xbde6b2f0	-0.11264598
24	0xbe378bab	-0.17924373
25	0xbde94797	-0.11390608
26	0x3c86199a	0.01636963
27	0x3d324468	0.04352227
28	0xbd73d16d	-0.059525896
29	0xbca5602c	-0.02018746
30	0xbe2b9aa9	-0.16758217
31	0xbe1d3a68	-0.15354311

model.9.running_mean f4 [32]
0	0xbf1d7e1b	-0.61520547
1	0xbfa71eb7	-1.3056248
2	0x3e87ba3f	0.26509282
3	0xbdac7be5	-0.084220685
4	0xbf021a03	-0.5082094
5	0xbf6d936f	-0.9280309
6	0x3f3f029c	0.74613357
7	0xbe8d59bb	-0.2760752
8	0xbfa9c84f	-1.3264254
9	0xbdb66b60	-0.08907199
10	0x3e476b46	0.19474515
11	0xbfbf38f9	-1.4939262
12	0x3db03563	0.08603933
13	0xbf853849	-1.0407802
14	0xbee1d920	-0.44110966
15	0xbde986c6	-0.11402659
16	0x3f8b47d7	1.0881299
17	0x3ea8fbea	0.33004695
18	0xbf7fb37c	-0.99883246
19	0x3e098231	0.1342857
20	0xbf9d808d	-1.2304856
21	0xbfaa337c	-1.3296962
22	0x3da77c6c	0.081780285
23	0xbf9481cb	-1.160211
24	0xbf9554de	-1.1666524
25	0xbf144d39	-0.5793033
26	0xbf56084a	-0.836064
27	0xbe9e6d03	-0.30942544
28	0xbe743a95	-0.23850472
29	0xbf772135	-0.96535045
30	0xbf6d3b50	-0.9266863
31	0xbf4cdd14	-0.8002484

model.9.running_var f4 [32]
0	0x4006fefd	2.1093132
1	0x4019367f	2.3939512
2	0x3ff9af6f	1.9506663
3	0x4005c3db	2.090079
4	0x4009be1a	2.1522279
5	0x40160f53	2.3446853
6	0x3ff5068d	1.9142624
7	0x3f205693	0.626321
8	0x405bd651	3.4349558
9	0x4002c51e	2.043281
10	0x3fdd58ea	1.729276
11	0x402aed2e	2.6707263
12	0x3f8be539	1.0929328
13	0x3fecca82	1.84993
14	0x3fc93307	1.5718697
15	0x3fe8e3b7	1.8194493
16	0x3ff3c3a8	1.9044085
17	0x3f801ec6	1.0009391
18	0x409f5b7f	4.979919
19	0x3f87496e	1.0569284
20	0x40c931d9	6.287335
21	0x40456a79	3.0846236
22	0x3f9a39fd	1.2048947
23	0x403a61b9	2.9122145
24	0x40666152	3.59969
25	0x3ff7a46f	1.9347056
26	0x4022b13a	2.542067
27	0x4004956f	2.0716207
28	0x3f77f2fc	0.9685514
29	0x3ff9aff0	1.9506817
30	0x3ffc9d7f	1.9735564
31	0x401fa91d	2.4946969

model.12.weight f4 [1, 32]
0	0x3d66d57e	0.056355946
1	0x3d8a9e28	0.06768447
2	0xbc6639ca	-0.014051864
3	0xbd2f764e	-0.042837434
4	0xbd4ef57d	-0.050527085
5	0xbd5e3373	-0.054248285
6	0xbd03b534	-0.03215523
7	0xbcc23712	-0.0237079
8	0x3db6c27d	0.089238144
9	0x3d896397	0.067084484
10	0xbcaa03b0	-0.020753711
11	0x3d90b161	0.07065082
12	0x3cf7e5b6	0.030260902
13	0xbcb3d8fd	-0.021954054
14	0xbd39e517	-0.045384493
15	0x3d609ec0	0.054838896
16	0xb911f8df	-0.0001392099
17	0xbd05b758	-0.032645553
18	0x3e28cb2b	0.16483752
19	0xbd0a729c	-0.033800706
20	0xbead7d81	-0.33884814
21	0x3e593865	0.21212919
22	0xbd0e015a	-0.034669258
23	0x3dcbbd76	0.09948246
24	0x3e20112a	0.15631548
25	0xbdabcee2	-0.08389069
26	0xbd7d0124	-0.061768666
27	0xbd3647b5	-0.04450198
28	0x3b612a2d	0.0034357414
29	0x3d9b921b	0.07596227
30	0x3db4a822	0.08821131
31	0x3e1ba9f8	0.15201557
