models/rainfall_model_20250211_150326.pth (torch, 60158 bytes, 19 tensors)

model.0.weight f4 [128, 6]
-0.89453727 0.10266857 0.7582914 -0.17987658 -0.79420495 -0.7171096 0.838195 -0.4235095
-0.09370131 0.14660142 -0.19555372 0.1960839 0.08983412 -0.36232457 0.31973466 -0.15143289
-0.81783557 0.07261796 -0.65514106 0.15490392 0.48054373 0.27557358 -0.67319214 0.14651322
-1.2117625 0.9767596 0.29020023 -0.74314857 -0.62053776 0.5703233 -0.42010286 1.1236757
-0.64125013 0.059253935 0.0016409359 -0.0048942845 -0.8955642 -0.19255273 -0.123148024 0.5694884
0.17107014 0.9398322 -0.15543309 1.3588535 -0.8042279 1.0908405 0.6133114 0.51410896
0.2944334 1.4147204 0.89629465 0.40702552 0.32521713 0.14156686 -0.6525595 -0.29279712
-0.3931076 0.23001735 0.35298872 0.5016389 0.8472169 1.2654073 -0.18611717 0.15261318
-0.007458835 -0.09997228 -0.048867024 -0.08069816 -0.014734564 0.0822815 -0.026068145 0.6660413
1.0567513 -0.17413434 -0.13191767 -0.012439292 0.20814934 0.99339 -0.3152721 -0.08710965
-0.031611487 -0.7546094 0.5176386 -0.11326208 -0.20322253 0.94070214 -0.023752794 0.120757066
-0.9990258 -0.4942312 -0.11101311 0.17388724 0.59503555 0.2115242 -0.20722136 0.77875274
0.057276677 -0.29870102 0.40694666 0.095133975 0.79238164 -0.3711058 0.15790501 -1.2979981
0.44551623 0.6001599 -0.47127092 0.07470372 -0.7634953 0.03229657 1.1233312 -0.02981813
0.2285554 0.20647341 0.7458671 0.3742846 -0.10835167 -0.029321142 -0.83241695 -0.5323523
-1.5591952 -0.34076092 0.84857094 0.49506652 0.24048567 0.56328624 0.951615 -1.2720662
0.6473863 0.11503718 0.025813745 -1.4330279 -0.18145397 -1.0153295 0.46335545 0.041218862
-0.22949532 -0.8001107 0.6750442 -0.22994156 0.63324434 -0.4030365 1.0750741 0.80421716
-0.21694255 0.32648054 1.3631606 0.055520326 0.16127773 0.39700684 -0.2385715 0.22285934
-0.292654 0.11537202 0.7799328 0.67017347 0.5152782 -0.66403866 -0.2420437 -0.09699801
0.06754874 0.03494608 -0.8784601 0.30038017 0.57513875 0.025177065 -0.003642089 0.03154312
0.3435471 -0.3874456 0.095635734 -0.55566514 0.043965865 -0.026299737 -0.023955364 -0.5580472
0.3367278 -0.112836175 0.20014402 -0.68006194 0.69457155 0.6071301 -0.7109493 -0.12832646
-0.5990499 -0.36062756 -0.5962976 -0.018149678 0.31884098 0.03546065 0.00093661866 -0.36978668
-0.10147765 -0.79734695 0.16269073 -0.050170977 0.26715094 0.08612304 1.42571 1.4186587
-0.56882536 -0.20248541 -0.34878153 0.20347096 0.016367683 -0.77881545 0.29761 -0.025084699
-0.5003976 -0.0764652 0.49506757 1.8272145 -0.14906724 0.18461467 -0.34523836 0.09715426
-0.65519536 -0.3218435 0.055871252 0.91157085 -0.16755036 -0.66156137 0.12653792 0.008726769
1.3181865 -0.047063354 0.0035485008 -0.5432017 0.89985514 -1.0397079 -0.0827721 -0.140259
-0.8061116 -0.100371405 -1.1270497 0.4436636 0.22980921 0.4203696 0.3083531 0.40925938
-0.3473706 0.9464457 -0.19557685 0.009010282 0.039392494 -0.017272642 0.5912609 0.91070586
0.38239858 0.6521179 -0.3150678 0.04466196 -0.052715335 -0.2000659 -1.0099983 0.27804804
00000000: 6500 65bf e643 d23d 631f 423f 9131 38be
00000010: 0451 4bbf 7f94 37bf f393 563f 3dd6 d8be
00000020: 79e6 bfbd af1e 163e 3c3f 48be 38ca 483e
00000030: f3fa b73d 9b82 b9be 43b4 a33e 3911 1bbe
00000040: ac5d 51bf bab8 943d 53b7 27bf 229f 1e3e
00000050: d409 f63e fb17 8d3e 5256 2cbf 9007 163e
00000060: 091b 9bbf eb0c 7a3f 2095 943e fc3e 3ebf
00000070: 90db 1ebf b500 123f b917 d7be 9bd4 8f3f
00000080: f828 24bf 41b4 723d ac14 d73a 3c60 a0bb
00000090: b243 65bf 8b2c 45be 0835 fcbd fec9 113f
000000a0: 032d 2f3e d898 703f da29 1fbe e9ee ad3f
000000b0: e1e1 4dbf a9a0 8b3f fa01 1d3f a59c 033f
000000c0: f9bf 963e 8f15 b53f 9173 653f a665 d03e
000000d0: dc82 a63e e7f6 103e 240e 27bf 81e9 95be
000000e0: 6645 c9be ab89 6b3e f0ba b43e 686b 003f
000000f0: 35e3 583f def8 a13f 8095 3ebe a146 1c3e
00000100: 3e69 f4bb 44be ccbd ca28 48bd 1445 a5bd
00000110: 3e69 71bc 3483 a83d dd8c d5bc af81 2a3f
00000120: a043 873f 4650 32be 6d15 07be 2cce 4bbc
00000130: 1a25 553e cf4e 7e3f 586b a1be 8b66 b2bd
00000140: 0c7b 01bd 152e 41bf f783 043f f3f5 e7bd
00000150: 9119 50be dbd1 703f 3895 c2bc 7b4f f73d
00000160: 28c0 7fbf df0b fdbe d75a e3bd 7f0f 323e
00000170: 4054 183f cd99 583e d631 54be 575c 473f
00000180: f39a 6a3d 57ef 98be 505b d03e 9ad5 c23d
00000190: 86d9 4a3f 9401 bebe dab1 213e cd24 a6bf
000001a0: b41a e43e 14a4 193f 6c4a f1be 44fe 983d
000001b0: 6e74 43bf 6849 043d 51c9 8f3f 2745 f4bc
000001c0: 6d0a 6a3e c46d 533e 25f1 3e3f 3ba2 bf3e
000001d0: 7be7 ddbd e432 f0bc 4719 55bf 3e48 08bf
000001e0: b593 c7bf 3778 aebe f23b 593f 5c79 fd3e
000001f0: e041 763e 8733 103f 0a9d 733f 11d3 a2bf
00000200: 1cbb 253f 9d98 eb3d 5977 d33c 756d b7bf
00000210: 12cf 39be 51f6 81bf ed3c ed3e 1cd5 283d
00000220: d200 6bbe 0ed4 4cbf b2cf 2c3f cd75 6bbe
00000230: 4d1c 223f cd5a cebe 079c 893f 2de1 4d3f
00000240: 3026 5ebe 7528 a73e 0c7c ae3f 4869 633d
00000250: fd25 253e 7b44 cb3e 164c 74be 3d35 643e
00000260: bfd6 95be 2a48 ec3d ada9 473f 7d90 2b3f
00000270: 46e9 033f 70fe 29bf 4eda 77be e5a6 c6bd
00000280: fe56 8a3d 9f23 0f3d c3e2 60bf 6ecb 993e
00000290: 4b3c 133f 2240 ce3c 1db0 6ebb 5c33 013d
000002a0: 68e5 af3e 455f c6be abdc c33d 1240 0ebf
000002b0: 8d15 343d 8c72 d7bc 0a3e c4bc 2edc 0ebf
000002c0: 9667 ac3e a716 e7bd 8ef2 4c3e 8a18 2ebf
000002d0: 71cf 313f e16c 1b3f c600 36bf 0368 03be
000002e0: 565b 19bf 2da4 b8be f6a6 18bf a2ae 94bc
000002f0: 203f a33e 303f 113d 6a87 753a ae54 bdbe
00000300: 84d3 cfbd ee1e 4cbf 6698 263e 1580 4dbd
00000310: 02c8 883e 4761 b03d aa7d b63f 9c96 b53f
00000320: 8a9e 11bf 5658 4fbe 7e93 b2be b15a 503e
00000330: 8515 863c 7360 47bf 5760 983e 6d7e cdbc
00000340: 0f1a 00bf c999 9cbd 7f79 fd3e 2ae2 e93f
00000350: 15a5 18be a10b 3d3e 15c3 b0be d0f8 c63d
00000360: e2ba 27bf acc8 a4be 41d9 643d b55c 693f
00000370: 5292 2bbe 165c 29bf 2893 013e b9fa 0e3c
00000380: 56ba a83f 81c5 40bd f78d 683b 440f 0bbf
00000390: e85c 663f 2615 85bf 6b84 a9bd 0ea0 0fbe
000003a0: 545d 4ebf 868f cdbd 2a43 90bf e027 e33e
000003b0: 1b53 6b3e af3a d73e 75e0 9d3e 728a d13e
000003c0: 8fda b1be 444a 723f 4c45 48be dd9f 133c
000003d0: 065a 213d 5b7f 8dbc e05c 173f 0524 693f
000003e0: bfc9 c33e 33f1 263f 9150 a1be 76ef 363d
000003f0: 09ec 57bd 13de 4cbe a047 81bf 505c 8e3e

model.0.bias f4 [128]
-0.0012406645 0.011534534 -0.011435296 0.0072899777 -0.0064129764 0.01014646 0.0014496208 0.0058934945
0.001108227 0.0048279325 -0.011431752 0.0051364223 0.01555337 0.00560092 -0.001178749 0.006563359
0.0016994526 -0.0053845537 0.016845332 -0.0036601895 0.0018834869 0.0025112096 0.0011969631 0.010549125
0.0012701687 0.0022939804 0.01846445 -0.005153484 -0.01795578 0.008687285 0.0005632805 -0.0072627463
0.0035793402 -0.0019066259 0.0155827645 -0.0033072112 0.003429236 0.0028041862 0.010813874 0.00927104
-0.0052096606 0.007855248 0.0010296329 0.0038754498 -0.0013742255 0.01709841 0.0022229787 -0.019410493
0.00031802946 0.0053704223 -0.00022531785 0.0059675444 0.0017373288 -0.026411692 0.008159504 0.0037879422
-0.0030707973 0.006568005 -0.0036585894 0.00023469036 0.006880159 -0.011439781 -0.0044701532 -0.0040152506
-0.0062675388 0.00091351883 -0.014976027 0.008230214 0.0041510626 0.0071229073 0.006979475 0.0039010744
0.0032422377 -0.004129681 0.012633954 0.0121441325 0.0071176076 -0.00717154 -0.02159283 -0.014180073
-0.002998179 0.00841644 0.00023181592 -0.002419812 0.005875206 0.029081333 0.0016131044 -0.0013570398
0.0036634395 -0.0018715879 0.00809374 -0.004527122 -0.0078909425 -0.0141173275 0.011819027 0.018433388
-0.010159516 -0.004093012 -0.006511952 0.00038974328 0.0013768259 -0.0017639827 0.008251298 -0.002584456
-0.0018554478 0.0013967063 -0.0016410437 -0.028450357 -0.002194575 0.009400478 0.0006727443 0.003944101
0.01048131 0.010024616 -0.0014196767 -0.06458866 0.0068832617 -0.00047825408 0.0010460557 -0.011866651
-0.004980812 0.0070600607 -0.0038257588 -0.00010022694 0.0050746566 -0.0025810732 0.012672361 -0.000105749845
00000000: cb9d a2ba 58fb 3c3c 1c5b 3bbc c4e0 ee3b
00000010: f223 d2bb 563d 263c 3401 be3a 371e c13b
00000020: ed41 913a a233 9e3b 3e4c 3bbc 6f4f a83b
00000030: 90d3 7e3c ec87 b73b 4180 9aba 7211 d73b
00000040: 2bc0 de3a e970 b0bb 39ff 893c cadf 6fbb
00000050: 55df f63a 1b93 243b 6be3 9c3a 3dd6 2c3c
00000060: ca7b a63a 9b56 163b c242 973c 8fde a8bb
00000070: 0018 93bc 1d55 0e3c 1da9 133a 55fc edbb
00000080: 5d93 6a3b c0e7 f9ba da4e 7f3c ccbd 58bb
00000090: 08bd 603b 70c6 373b ad2c 313c 8fe5 173c
000000a0: cdb5 aabb 4cb3 003c bff4 863a 42fb 7d3b
000000b0: 5b1f b4ba f711 8c3c 65af 113b c102 9fbc
000000c0: 31bd a639 5efa af3b 4d43 6cb9 648b c33b
000000d0: 15b7 e33a 555d d8bc 71af 053c 203f 783b
000000e0: 6e3f 49bb 6b38 d73b f2c4 6fbb 3717 7639
000000f0: f572 e13b eb6d 3bbc 5d7a 92bb 5d92 83bb
00000100: ed5f cdbb 3679 6f3a 035e 75bc 05d8 063c
00000110: a305 883b 4767 e93b 14b4 e43b 2ba9 7f3b
00000120: b97b 543b 4652 87bb a5fe 4e3c 2ff8 463c
00000130: d23a e93b 3dff eabb 72e3 b0bc 8953 68bc
00000140: 197d 44bb 1ce5 093c 9d13 7339 b595 1ebb
00000150: cd84 c03b fa3b ee3c cd6e d33a b3de b1ba
00000160: 5116 703b 1250 f5ba 9b9b 043c 4058 94bb
00000170: 0349 01bc 5d4c 67bc 98a4 413c 9e01 973c
00000180: 1974 26bc ac1e 86bb 3662 d5bb 7556 cc39
00000190: 9c76 b43a 7035 e7ba 7430 073c fa5f 29bb
000001a0: 7f32 f3ba b011 b73a 4a18 d7ba b910 e9bc
000001b0: dcd2 0fbb 7604 1a3c 1b5b 303a 843d 813b
000001c0: cdb9 2b3c 493e 243c 7214 baba 0f47 84bd
000001d0: fc8c e13b 2dbe fab9 ce1b 893a 576c 42bc
000001e0: 1436 a3bb 1558 e73b 95b9 7abb ee30 d2b8
000001f0: 4e49 a63b 3927 29bb bc9f 4f3c 04c6 ddb8

model.1.weight f4 [128]
0.83698004 0.9151676 0.9105553 0.976101 0.88783574 1.0863224 0.9097456 0.89274544
0.935532 1.0102068 1.0529314 1.1418815 1.0345957 0.9999418 0.8625237 1.0259231
0.77518505 0.93277293 0.9827757 0.9262089 0.91309303 0.84408784 0.95653063 0.76336336
0.9439103 0.8480667 0.8360672 1.0399181 1.0247253 0.83366966 0.97714394 1.0174384
0.9238187 0.9091192 0.96687645 0.9653747 0.78912187 0.92000645 1.125307 0.8701818
0.9870916 0.8472606 0.86642253 0.8626755 0.9923677 1.1362653 0.7692191 0.9582578
0.9037182 0.85881895 0.8019813 0.7912142 0.9988515 1.0836205 0.9798286 0.85368615
1.0509157 0.9406047 0.83698475 1.0213553 0.84896004 0.8690036 0.9849376 0.9136392
0.963943 0.8878941 1.0278957 0.9492319 0.93481153 1.0186133 0.8373624 0.84980494
0.85140085 1.0029476 0.91061395 0.89568895 0.90133905 1.0456694 1.0553154 0.92372304
0.97937363 0.9387954 0.7005193 0.823584 0.99453014 1.0262032 0.9405626 0.8719642
0.8991627 1.0450522 0.8990635 1.0415249 0.859918 0.86109084 1.0871266 0.9142836
0.8372957 1.0112894 0.8792515 0.98256695 1.0758142 1.0622079 0.9723221 0.86018616
0.7489809 0.84404886 0.89739776 1.0537084 0.8999863 0.78809744 0.9553339 0.8119996
0.8096861 1.0346229 0.8720459 1.0533295 1.1970876 0.8811232 0.88409716 0.84257746
0.95114857 0.7997877 0.9566885 0.97566944 0.78854984 1.0836685 0.89079344 1.077266
00000000: 5344 563f 6d48 6a3f 271a 693f c1e1 793f
00000010: 3449 633f 9d0c 8b3f 16e5 683f f78a 643f
00000020: 067f 6f3f 754e 813f 75c6 863f 2c29 923f
00000030: a26d 843f 30fc 7f3f 5ace 5c3f 7351 833f
00000040: 8772 463f 35ca 6e3f 3097 7b3f 071c 6d3f
00000050: 77c0 693f 2416 583f 31df 743f c86b 433f
00000060: 1ba4 713f e61a 593f 8008 563f 091c 853f
00000070: 332a 833f 606b 553f 1b26 7a3f 6c3b 823f
00000080: 627f 6c3f 09bc 683f 3785 773f cc22 773f
00000090: e403 4a3f 8b85 6b3f 0f0a 903f 3cc4 5e3f
000000a0: 09b2 7c3f 12e6 583f decd 5d3f 4dd8 5c3f
000000b0: cf0b 7e3f 2471 913f 8beb 443f 6250 753f
000000c0: 135a 673f 8fdb 5b3f a54e 4d3f 048d 4a3f
000000d0: bbb4 7f3f 14b4 8a3f 0cd6 7a3f 2d8b 5a3f
000000e0: 6884 863f 78cb 703f a244 563f c5bb 823f
000000f0: 7255 593f 0577 5e3f df24 7c3f 42e4 693f
00000100: f8c4 763f 074d 633f 1692 833f dd00 733f
00000110: cf4f 6f3f ec61 823f 625d 563f d18c 593f
00000120: 68f5 593f 9660 803f ff1d 693f df4b 653f
00000130: 28be 663f 7fd8 853f 9314 873f 1d79 6c3f
00000140: 3bb8 7a3f e554 703f 3c55 333f 67d6 523f
00000150: 8799 7e3f a05a 833f b6c8 703f 0c39 5f3f
00000160: 872f 663f 45c4 853f 0729 663f b050 853f
00000170: 9623 5c3f 7370 5c3f f726 8b3f 7d0e 6a3f
00000180: 0359 563f ee71 813f a016 613f 8289 7b3f
00000190: 48b4 893f 6ef6 873f 1aea 783f 2935 5c3f
000001a0: 36bd 3f3f 9613 583f dcbb 653f ebdf 863f
000001b0: 8165 663f c1c0 493f c390 743f 35df 4f3f
000001c0: 9747 4f3f 866e 843f 663e 5f3f 80d3 863f
000001d0: 2b3a 993f 4a91 613f 3154 623f 28b3 573f
000001e0: 797e 733f e3be 4c3f 8ae9 743f 79c5 793f
000001f0: 67de 493f a6b5 8a3f 0a0b 643f dae3 893f

model.1.bias f4 [128]
-0.14751293 -0.21039261 -0.30989006 -0.104001746 -0.15670049 -0.6530741 -0.16959348 -0.26790977
-0.2178353 -0.09558046 -0.48729655 -0.22141145 -0.34094334 -0.16847992 -0.21066947 -0.09477293
-0.1200813 4.1097785e-05 -0.2975068 -0.19958283 -0.090104476 -0.19716997 0.021284174 -0.12615877
-0.15724942 -0.20888521 0.07150503 -0.5182874 -0.417921 -0.35856465 -0.2072566 -0.057989225
-0.020878902 -0.47512323 0.0543748 -0.39919442 -0.033795856 -0.3063417 -0.13832743 -0.15633869
-0.17958452 -0.481064 -0.20760678 -0.256189 -0.17377537 -0.20362245 -0.1446063 -0.07232063
-0.44247115 -0.22391522 -0.21764573 -0.05079786 -0.41696572 -0.19307572 -0.17401585 -0.2396726
-0.23708524 -0.22369175 -0.46253797 -0.14337339 -0.29297388 -0.44102308 -0.09704072 -0.39278385
-0.42672276 -0.37175328 -0.19133818 -0.36719015 -0.28600454 -0.29657835 0.024435395 -0.315948
-0.27021873 -0.14324407 -0.516063 -0.37112924 -0.19524084 -0.1841995 -0.12516311 -0.23833919
-0.30634403 -0.050593164 0.02051161 -0.1768514 -0.28476074 -0.6456901 -0.3784672 0.210606
-0.47941712 -0.3982597 -0.22868106 -0.3072016 -0.44295114 -0.061643146 -0.8125072 -0.45004603
-0.32854322 -0.2017439 -0.48046172 0.011048383 -0.28795317 -0.21583502 -0.47040442 -0.3734095
-0.1610801 -0.2333707 -0.11419425 -0.40094155 -0.5132254 -0.14964229 -0.077680126 -0.3829673
-0.08709094 -0.16627072 0.06703279 -0.52793556 -0.19011363 -0.29485506 -0.3425709 -0.07991419
-0.5523192 -0.10930025 -0.27626568 -0.52257526 -0.41663107 -0.014731579 -0.29030615 -0.26947764
00000000: a10d 17be 2971 57be e9a9 9ebe defe d4bd
00000010: 1876 20be dd2f 27bf eaa9 2dbe 782b 89be
00000020: 3810 5fbe b0bf c3bd ef7e f9be afb9 62be
00000030: 2090 aebe 0086 2cbe bdb9 57be 4f18 c2bd
00000040: 2fed f5bd 6960 2c38 d052 98be 715f 4cbe
00000050: b288 b8bd ede6 49be 265c ae3c c42f 01be
00000060: fe05 21be 01e6 55be 3b71 923d 7cae 04bf
00000070: bef9 d5be c995 b7be 133b 54be 1c86 6dbd
00000080: 3b0a abbc 5a43 f3be 1cb8 5e3d 3663 ccbe
00000090: 866d 0abd d2d8 9cbe b5a5 0dbe 4017 20be
000000a0: 01e5 37be 054e f6be df96 54be 342b 83be
000000b0: 2cf2 31be 6782 50be ad13 14be d71c 94bd
000000c0: 948b e2be 084a 65be 86de 5ebe 6b11 50bd
000000d0: 887c d5be a4b5 45be 3631 32be bc6c 75be
000000e0: 79c6 72be 730f 65be c7d1 ecbe 79d0 12be
000000f0: ac00 96be c7cd e1be 49bd c6bd f71a c9be
00000100: 687b dabe 7256 bebe 28ee 43be 5900 bcbe
00000110: 306f 92be 1ed9 97be bd2c c83c f0c3 a1be
00000120: 1c5a 8abe 93ae 12be b41c 04bf a704 bebe
00000130: 37ed 47be cb9e 3cbe c22a 00be 300f 74be
00000140: 20d9 9cbe c73a 4fbd f707 a83c 8918 35be
00000150: 29cc 91be f24b 25bf 74c6 c1be 19a9 573e
00000160: 2976 f5be b2e8 cbbe 5e2b 6abe 8749 9dbe
00000170: 7eca e2be 867d 7cbd 7900 50bf 6f6c e6be
00000180: d136 a8be f495 4ebe 14ff f5be 4704 353c
00000190: 996e 93be db03 5dbe d9d8 f0be 882f bfbe
000001a0: 2ff2 24be bbf8 6ebe adde e9bd 3648 cdbe
000001b0: bd62 03bf d43b 19be c216 9fbd 4a14 c4be
000001c0: bc5c b2bd df42 2abe 7d48 893d c926 07bf
000001d0: 26ad 42be 3ef7 96be 7465 afbe 0daa a3bd
000001e0: cb64 0dbf cfd8 dfbd b272 8dbe 7ec7 05bf
000001f0: ab50 d5be b95c 71bc 02a3 94be f9f8 89be

model.1.running_mean f4 [128]
0.0053457594 0.028197337 0.0072874776 0.0462991 -0.052261572 -0.010362746 0.071258165 0.033156402
-0.04849655 0.045147147 -0.06324562 0.021219674 0.004183462 -0.05090144 -0.0013554507 0.020907514
-0.010965155 0.08791517 0.00988602 -0.016092788 0.06763566 0.016978858 0.03853774 -0.05237431
-0.021677228 -0.00396075 0.027648238 -0.0040015467 -0.051657025 0.0067057144 -0.022905488 0.0007441463
0.023330154 -0.07929596 0.050809983 -0.056638174 0.08986984 -0.025583252 0.04256725 0.037171207
-0.031148536 0.010518599 0.042264685 0.0048383116 -0.0740753 0.08954911 -0.0896934 0.031442657
0.0084957685 -0.047300287 0.107445106 -0.0011974211 -0.030030347 -0.032026455 -0.040754966 -0.022612471
-0.037740193 -0.0072685597 0.009058304 -0.072942406 0.04722677 0.011612706 -0.040914472 -0.025572956
-0.046991188 0.020927131 -0.055032525 -0.0016341079 -0.11234922 -0.09746623 0.0679112 -0.0726376
-0.018669454 0.0012604533 -0.0008608154 -0.018100327 -0.0056289546 0.029609272 -0.02299985 0.014102767
0.06979393 0.05152668 0.06623778 0.0097445045 -0.09051576 0.0262212 -0.0072115064 0.040141884
-0.052285876 0.013905829 0.017675754 -0.036733184 -0.01626138 -0.022232125 0.0049853567 0.008406749
0.024817983 0.021824323 0.0101498505 -0.107176416 -0.023571879 -0.040908456 0.015944375 0.0036977646
-0.04370526 0.07008866 0.033291742 -0.048286244 -0.05530764 0.0139541095 0.034101795 -0.011119767
0.043997053 -0.029675566 0.036653657 -0.07275181 -0.06733684 0.009644716 -0.081811115 -0.123332076
-0.05911252 -0.066292204 0.003315181 -0.07865583 -0.06132975 -0.09980148 0.03833236 -0.053548016
00000000: 7b2b af3b 1afe e63c cbcb ee3b 20a4 3d3d
00000010: 3b10 56bd 82c8 29bc cdef 913d 02cf 073d
00000020: 52a4 46bd 37ec 383d eb86 81bd e2d4 ad3c
00000030: 6c15 893b 077e 50bd 61a9 b1ba 3c46 ab3c
00000040: 32a7 33bc de0c b43d f9f8 213c 06d5 83bc
00000050: 9184 8a3d 3f17 8b3c c0d9 1d3d 7286 56bd
00000060: 7194 b1bc 2ec9 81bb 8f7e e23c 681f 83bb
00000070: 5196 53bd 9cbb db3b 4aa4 bbbc d012 433a
00000080: e11e bf3c ec65 a2bd 211e 503d 6efd 67bd
00000090: ae0d b83d f893 d1bc ff5a 2e3d d640 183d
000000a0: 372b ffbc 3456 2c3c bc1d 2d3d b38a 9e3b
000000b0: cab4 97bd 8665 b73d 2cb1 b7bd 04ca 003d
000000c0: d631 0b3c f2bd 41bd 2e0c dc3d c9f2 9cba
000000d0: 3402 f6bc 2c2e 03bd aeee 26bd ca3d b9bc
000000e0: 7695 1abd 192d eebb 4869 143c d462 95bd
000000f0: dc70 413d 3843 3e3c ef95 27bd 607e d1bc
00000100: d579 40bd 606f ab3c c969 61bd 902f d6ba
00000110: 5917 e6bd 609c c7bd 0715 8b3d 06c3 94bd
00000120: aff0 98bc cb35 a53a 58a8 61ba 2347 94bc
00000130: 1873 b8bb 258f f23c 2e6a bcbc 4b0f 673c
00000140: 1ff0 8e3d a40d 533d aca7 873d 6aa7 1f3c
00000150: 5460 b9bd d8cd d63c 804e ecbb d16b 243d
00000160: b729 56bd 46d5 633c becc 903c 8975 16bd
00000170: 9636 85bc 2520 b6bc 345c a33b 76bc 093c
00000180: 154f cb3c ecc8 b23c 8f4b 263c 4f7f dbbd
00000190: d019 c1bc a08f 27bd c79d 823c 3256 723b
000001a0: 4904 33bd a58a 8f3d ec5c 083d ccc7 45bd
000001b0: 448a 62bd c79f 643c 53ae 0b3d af2f 36bc
000001c0: 4136 343d 2c1a f3bc 2522 163d e7fe 94bd
000001d0: e6e7 89bd df04 1e3c 968c a7bd 8795 fcbd
000001e0: f81f 72bd 35c4 87bd 8243 593b 4f16 a1bd
000001f0: e734 7bbd b864 ccbd 6502 1d3d 2a55 5bbd

model.1.running_var f4 [128]
1.3756753 0.21393938 0.7961129 0.5166096 1.2489827 0.2365919 3.6731606 2.2896907
6.466249 2.9754462 4.0733085 0.5595267 1.0316724 1.106472 2.6355972 0.7101599
0.73870516 1.1043112 0.22405604 3.0307148 2.452509 2.805336 0.82773846 2.2378192
1.7540295 1.6748372 0.22028618 0.026248014 0.34252873 0.42880243 1.3866359 0.14772922
0.82494986 5.3951535 0.47275633 5.2182703 1.5573534 3.043775 0.89212275 0.9426485
0.2688843 4.3984895 1.8975233 2.0535748 3.574106 1.2255586 2.4245372 0.62707686
2.6081357 0.9287597 3.3938024 0.60745245 1.1745653 0.15632394 1.3444353 0.62400806
0.4826953 0.70719373 3.8319318 2.0063107 3.154307 1.0555811 1.8483461 2.4582572
2.4129925 1.1909274 0.42561147 0.74015564 7.7734857 3.648647 0.91392994 7.633391
2.1850832 0.7229632 0.2258611 1.6010063 0.64719254 1.2092606 0.25738043 0.6229993
3.835271 0.51958823 2.3968372 4.5716004 2.3533673 0.03753206 0.643695 2.0922382
10.689503 0.84060067 0.68850595 0.7475094 0.14964135 0.7455741 0.050225724 0.045728203
1.5629287 0.97831607 5.5826073 2.2865467 0.23395337 3.1601923 0.23103532 0.6855055
6.704281 4.9109535 1.550664 0.15324287 3.447679 0.695279 1.4270526 3.9929235
0.92195076 0.27956083 1.8173014 0.03967993 0.7682125 2.8626683 3.2910414 2.253101
4.201085 2.219159 0.9626818 1.4387183 2.5622282 2.2186832 1.1101352 2.0379417
00000000: 2116 b03f ed12 5b3e 0ece 4b3f 8740 043f
00000010: aade 9f3f 2645 723e 1015 6b40 4b8a 1240
00000020: 83eb ce40 b66d 3e40 8b58 8240 243d 0f3f
00000030: d70d 843f e0a0 8d3f a0ad 2840 0acd 353f
00000040: c81b 3d3f 125a 8d3f f26e 653e 3bf7 4140
00000050: e8f5 1c40 a08a 3340 abe6 533f 6e38 0f40
00000060: 0a84 e03f 1161 d63f b392 613e 1306 d73c
00000070: ed5f af3e fe8b db3e 497d b13f 5446 173e
00000080: ea2f 533f 19a5 ac40 1e0d f23e 12fc a640
00000090: 5b57 c73f 36cd 4240 2862 643f 6951 713f
000000a0: 34ab 893e 6dc0 8c40 0be2 f23f c56d 0340
000000b0: 27be 6440 1bdf 9c3f 9e2b 1b40 1c88 203f
000000c0: b2eb 2640 32c3 6d3f 0f34 5940 0182 1b3f
000000d0: 2858 963f 6213 203e 7516 ac3f febe 1f3f
000000e0: d723 f73e a60a 353f 5f3e 7540 6567 0040
000000f0: 2ae0 4940 481d 873f 9b96 ec3f 1654 1d40
00000100: 786e 1a40 4f70 983f bfe9 d93e d77a 3d3f
00000110: 65c0 f840 6f83 6940 50f7 693f bd44 f440
00000120: 67d8 0b40 1e14 393f 2248 673e c6ed cc3f
00000130: 69ae 253f 0dc9 9a3f 5ec7 833e e27c 1f3f
00000140: 1475 7540 bc03 053f c865 1940 8d4a 9240
00000150: 929d 1640 38bb 193d 32c9 243f 3be7 0540
00000160: 3408 2b41 9b31 573f ed41 303f c75c 3f3f
00000170: 953b 193e f2dd 3e3f 7db9 4d3d 7f4d 3b3d
00000180: 0c0e c83f ec72 7a3f b8a4 b240 c856 1240
00000190: 7991 6f3e 9740 4a40 8694 6c3e 4a7d 2f3f
000001a0: 7889 d640 8826 9d40 287c c63f b3eb 1c3e
000001b0: c6a6 5c40 cefd 313f a9a9 b63f 0f8c 7f40
000001c0: f704 6c3f 9922 8f3e 559d e83f 6c87 223d
000001d0: 93a9 443f f535 3740 6ca0 5240 cf32 1040
000001e0: 4a6f 8640 b306 0e40 5072 763f ec27 b83f
000001f0: 8cfb 2340 e8fe 0d40 e918 8e3f a36d 0240

model.4.weight f4 [64, 128]
0.119013935 -0.05466511 -0.016327584 0.12881681 -0.15697823 -0.20354031 0.121825695 -0.0077675204
-0.0554483 -0.035535656 0.08878804 0.17693342 -0.04040941 0.13619284 -0.05512775 0.06572682
0.08836386 0.065226994 -0.0661571 -0.33062732 0.15986522 0.22097835 0.11199326 0.0662727
0.0104158465 -0.005798679 -0.15067175 0.02198595 0.10705737 0.35569236 0.09752408 -0.07782513
-0.1285119 -0.12242508 -0.2798737 -0.20266926 -0.013054079 0.0060367165 0.22539477 0.2511702
0.017044049 -0.24658878 0.10067362 -0.031324662 -0.04480038 -0.1880396 0.011233189 0.0031215923
0.15417403 0.0497988 0.09750748 0.0816271 0.02883017 -0.03841257 0.014358785 0.016715921
0.11134867 0.20071866 0.0016219392 0.14236316 -0.17026182 -0.14528179 0.18465133 -0.042548586
-0.052381635 0.09515483 -0.024636744 0.115491055 0.15438986 0.013682266 -0.058173005 -0.08343909
-0.041495807 -0.03295694 -0.012100195 0.05217062 -0.019961564 -0.051380806 0.30451837 -0.029952543
-0.14279178 -0.12029438 -0.083149575 0.26892146 0.2321302 -0.29390728 0.20842962 -0.008580543
0.022369694 0.0627245 0.331499 -0.0829216 -0.077348076 -0.26300982 -0.09178908 -0.08525123
-0.25508928 0.15826124 0.2498446 0.17835651 0.19659325 0.01845807 -0.18815738 -0.053626146
0.020008095 0.08726693 -0.1147445 -0.04744492 -0.06520558 0.012572721 0.1213004 0.13211443
-0.17042212 0.13716695 -0.15312256 -0.06798381 0.39862135 -0.096204825 -0.32023245 -0.030848706
-0.19994012 0.2670572 0.107101865 0.33491835 -0.0040800255 0.097302094 0.1312768 0.05785108
0.11897282 -0.0869902 -0.09825638 -0.22055656 0.07115988 0.1018358 -0.08052022 -0.080240294
0.06381501 0.012677427 -0.017847115 0.12703261 -0.022124218 0.036026012 0.10176037 -0.20640221
0.32764554 -0.042672426 0.31805378 0.0162114 0.084278665 0.22347374 0.122386865 0.016214846
-0.014205901 0.15724695 -0.1338718 0.07496975 -0.07003847 0.08199592 0.08674748 0.38911822
0.026819339 -0.07199023 0.07498412 -0.08761975 -0.08826602 0.2121224 0.1921049 -0.063718006
0.019626928 -0.042275395 -0.21489993 -0.08559823 0.23507427 -0.17880534 0.18279074 -0.052911967
-0.06998409 -0.03358049 -0.019808035 0.21915625 0.36796865 -0.11330483 -0.15604192 0.010540826
-0.11487704 -0.12176769 0.12988082 0.07682877 0.21598257 0.40008804 0.23393114 0.07485963
0.17956412 0.021683676 -0.087373115 0.093414195 -0.12065291 0.14727874 0.031188287 -0.01140433
0.07850875 0.06914252 -0.025788028 -0.08836353 0.06456211 0.076975666 0.07205906 0.18931626
-0.23046546 0.05921982 0.038204513 0.005696756 0.1378301 0.23948313 -0.11303682 -0.059997175
-0.1210237 0.1579307 -0.060043983 -0.058208026 0.1771399 -0.03133173 0.024419704 0.017391711
0.25510272 0.24225308 -0.10475268 -0.022642842 0.12879519 0.036227994 -0.024681387 -0.043947037
-0.12893617 -0.15617864 0.22113456 -0.07703165 -0.034818035 0.2507176 -0.022466755 0.15588555
-0.039954424 -0.26576015 -0.035425283 0.2073097 -0.1172869 -0.05676449 0.16813129 -0.032469988
-0.008884076 -0.28390443 0.09970643 -0.11770221 0.056317244 0.18329407 0.024550844 0.11168478
00000000: 94bd f33d 86e8 5fbd 6dc1 85bc 8ee8 033e
00000010: e7be 20be df6c 50be c07f f93d af86 febb
00000020: c21d 63bd d68d 11bd 81d6 b53d 092e 353e
00000030: 5684 25bd 2376 0b3e a3cd 61bd c89b 863d
00000040: 1df8 b43d bb95 853d 607d 87bd fc47 a9be
00000050: b5b3 233e 2648 623e b95c e53d fbb9 873d
00000060: 3aa7 2a3c d802 bebb b249 1abe e11b b43c
00000070: e540 db3d 4f1d b63e b4ba c73d c862 9fbd
00000080: a098 03be 00ba fabd 9b4b 8fbe 8888 4fbe
00000090: c7e0 55bc a6cf c53b e3cd 663e 6199 803e
000000a0: f69f 8b3c c581 7cbe f92d ce3d 4a4e 00bd
000000b0: 9a80 37bd 748d 40be 690b 383c a193 4c3b
000000c0: ccdf 1d3e d4f9 4b3d 00b2 c73d 1c2c a73d
000000d0: 402d ec3c 8056 1dbd 1c41 6b3c d4ef 883c
000000e0: c60a e43d 3189 4d3e 4097 d43a a6c7 113e
000000f0: 1d59 2ebe c0c4 14be 3d15 3d3e 6d47 2ebd
00000100: 208e 56bd 89e0 c23d ffd2 c9bc 9386 ec3d
00000110: 6018 1e3e 952b 603c d146 6ebd 1de2 aabd
00000120: 82f7 29bd dbfd 06bd e53f 46bc dcb0 553d
00000130: 6f86 a3bc ae74 52bd d5e9 9b3e 095f f5bc
00000140: 0238 12be e65c f6bd 534a aabd 13b0 893e
00000150: 8ab3 6d3e 047b 96be 936e 553e 6895 0cbc
00000160: a640 b73c b475 803d 3dba a93e cdd2 a9bd
00000170: ab68 9ebd 39a9 86be eafb bbbd 3298 aebd
00000180: 109b 82be 3c0f 223e 43d7 7f3e 17a3 363e
00000190: be4f 493e 6135 973c 54ac 40be 17a7 5bbd
000001a0: 04e8 a33c 01b9 b23d 2aff eabd 9b55 42bd
000001b0: 818a 85bd d0fd 4d3c 586c f83d 0149 073e
000001c0: 2383 2ebe 7e75 0c3e 29cc 1cbe 193b 8bbd
000001d0: 1918 cc3e 0907 c5bd 82f5 a3be 6db6 fcbc
000001e0: 1abd 4cbe b9bb 883e 3958 db3d 6b7a ab3e
000001f0: bcb1 85bb 5246 c73d 6d6d 063e 41f5 6c3d
00000200: 06a8 f33d eb27 b2bd a43a c9bd 94d9 61be
00000210: 45bc 913d 4a8f d03d c9e7 a4bd 0655 a4bd
00000220: 72b1 823d fcb4 4f3c 1d34 92bc d614 023e
00000230: d93d b5bc 0390 133d be67 d03d 1a5b 53be
00000240: 28c1 a73e 48c9 2ebd f2d7 a23e c5cd 843c
00000250: 4b9a ac3d 4dd6 643e f7a5 fa3d ffd4 843c
00000260: debf 68bc 5805 213e b015 09be be89 993d
00000270: 5470 8fbd 7aed a73d aaa8 b13d 813a c73e
00000280: 3bb4 db3c 9d6f 93bd 4691 993d fc71 b3bd
00000290: d1c4 b4bd 9d36 593e 26b7 443e 967e 82bd
000002a0: a7c8 a03c f728 2dbd ba0e 5cbe 204e afbd
000002b0: 4fb7 703e bf18 37be 7f2d 3b3e 38ba 58bd
000002c0: d253 8fbd b28b 09bd 7644 a2bc 7f6a 603e
000002d0: 6366 bc3e 5d0c e8bd 74c9 1fbe 6eb3 2c3c
000002e0: a744 ebbd 5761 f9bd 7aff 043e 6758 9d3d
000002f0: 892a 5d3e 57d8 cc3e a58b 6f3e 0150 993d
00000300: a8df 373e f7a1 b13c adf0 b2bd f14f bf3d
00000310: df18 f7bd 3dd0 163e 947e ff3c 3ad9 3abc
00000320: 32c9 a03d 989a 8d3d 6a41 d3bc f0f7 b4bd
00000330: 2439 843d 6ba5 9d3d b393 933d 1fdc 413e
00000340: 23ff 6bbe 7b90 723d 567c 1c3d daab ba3b
00000350: 5523 0d3e 113b 753e d97f e7bd 99bf 75bd
00000360: 46db f7bd 96b8 213e aef0 75bd 8a6b 6ebd
00000370: 2964 353e b355 00bd d50b c83c 1079 8e3c
00000380: d39c 823e 3111 783e 9388 d6bd 7b7d b9bc
00000390: e3e2 033e ce63 143d 9f30 cabc cf01 34bd
000003a0: d807 04be 4bed 1fbe 1971 623e c5c2 9dbd
000003b0: 5b9d 0ebd 0f5e 803e 330c b8bc 76a0 1f3e
000003c0: 40a7 23bd b711 88be 1a1a 11bd fe48 543e
000003d0: 1d34 f0bd e281 68bd 9c2a 2c3e 40ff 04bd
000003e0: 848e 11bc ec5b 91be e332 cc3d db0d f1bd
000003f0: e9ac 663d 71b1 3b3e da1e c93c fdba e43d

model.4.bias f4 [64]
0.0013430709 -0.0022539934 -0.00040915946 -0.012476964 0.0013201042 -0.0015870288 -0.009011839 0.006384704
-0.00096251315 0.001200393 0.00704851 -0.009046382 -0.005892227 0.00429679 -0.0038043757 0.0057709976
-0.0015657245 0.007850908 -0.013982205 0.008669337 -0.0013695185 -0.0012372241 0.011249658 0.012463763
0.0027225094 0.011211512 -0.010499162 0.0030656727 -0.0054879976 0.0041081295 -0.0074130865 -0.0031736465
-0.0040579424 -0.00020963553 0.00232927 -0.009168901 -0.010843342 0.0056310147 0.007984086 0.0094035
0.0058477423 0.011172364 -0.0037646126 -0.009015035 -0.0011884475 -0.0033678538 0.0004140257 -0.0067110565
-0.018519633 -0.013238053 0.018766046 0.00218957 0.0023198235 -0.005483395 0.02151594 0.0032431127
0.01202507 0.004527918 -0.009836684 0.0020981391 0.006501065 -0.0067703472 -0.009832982 0.0078939935
00000000: fb09 b03a bcb7 13bb 7484 d6b9 2e6c 4cbc
00000010: 5907 ad3a da03 d0ba 64a6 13bc c736 d13b
00000020: 2a51 7cba 8156 9d3a 30f7 e63b 4737 14bc
00000030: 9513 c1bb 16cc 8c3b d552 79bb a31a bd3b
00000040: ff38 cdba 18a1 003c 9e15 65bc d609 0e3c
00000050: 6a81 b3ba 5a2a a2ba 7c50 383c d034 4c3c
00000060: 216c 323b 7db0 373c ad04 2cbc 74e9 483b
00000070: a9d4 b3bb 7d9d 863b 7ae9 f2bb f4fc 4fbb
00000080: 7df8 84bb 9cd1 5bb9 aaa6 183b 2839 16bc
00000090: 46a8 31bc 6084 b83b afcf 023c 2311 1a3c
000000a0: 6b9e bf3b 4a0c 373c b8b7 76bb ccb3 13bc
000000b0: aec5 9bba 36b7 5cbb 9711 d939 6ce8 dbbb
000000c0: 7cb6 97bc 6be4 58bc 40bb 993c e47e 0f3b
000000d0: 2e08 183b 0dae b3bb 3242 b03c 678a 543b
000000e0: cd04 453c ee5e 943b 0b2a 21bc ef80 093b
000000f0: e306 d53b cad9 ddbb 841a 21bc cf55 013c

model.5.weight f4 [64]
0.99928916 0.87548965 0.8233296 1.0034313 0.85641956 1.018984 0.9568038 1.0681554
1.0761086 0.99217486 0.99029005 1.1319138 0.9332075 0.9304152 0.89500946 1.0330069
1.006317 1.0465064 1.178467 0.93344754 0.80446726 1.059504 0.923261 0.98313755
0.947469 0.8820242 0.96916175 1.107187 0.9949321 1.0406065 1.0347009 0.88962525
1.1036913 0.9261672 1.0635079 0.93947977 1.0012493 0.8955807 0.8820599 1.102426
0.9409657 0.9594559 0.99653816 1.0782611 0.9670692 1.0038463 0.9691615 1.1199617
1.2066197 0.96202075 0.9328025 1.0354159 0.9429135 0.99683887 0.9868234 0.919045
0.9534204 0.833807 0.9229146 0.9569155 1.0811253 0.9718214 1.186527 1.0399401
00000000: 6ad1 7f3f 1720 603f bbc5 523f 7070 803f
00000010: 503e 5b3f 116e 823f 18f1 743f 51b9 883f
00000020: edbd 893f 2cff 7d3f a683 7d3f 8de2 903f
00000030: b0e6 6e3f b12f 6e3f 571f 653f 9239 843f
00000040: ffce 803f ecf3 853f 02d8 963f 6bf6 6e3f
00000050: 91f1 4d3f d49d 873f d55a 6c3f e7ae 7b3f
00000060: 548d 723f 57cc 613f fc1a 783f 4eb8 8d3f
00000070: dfb3 7e3f 9832 853f 1471 843f 7bbe 633f
00000080: c245 8d3f 4b19 6d3f 0721 883f bf81 703f
00000090: f028 803f c744 653f adce 613f 4c1c 8d3f
000000a0: 21e3 703f e79e 753f 201d 7f3f 7604 8a3f
000000b0: d991 773f 097e 803f f81a 783f e85a 8f3f
000000c0: 8472 9a3f fe46 763f 25cc 6e3f 8288 843f
000000d0: c762 713f d530 7f3f 75a0 7c3f 8846 6b3f
000000e0: 5c13 743f 6074 553f 2244 6c3f 6af8 743f
000000f0: 5062 8a3f 4ac9 783f 1ee0 973f c21c 853f

model.5.bias f4 [64]
-0.038620856 -0.3097039 -0.105366625 0.061869934 -0.15622693 -0.05625935 -0.23361906 -0.3428607
0.009245425 -0.09853488 -0.17058823 -0.041228596 -0.3346846 0.00568957 -0.39526427 -0.033448305
-0.24915634 -0.091420665 0.01008473 -0.09509643 -0.013204325 -0.09726908 -0.11276001 -0.15768063
-0.17207019 -0.43814862 -0.047182735 -0.079090185 -0.15458257 0.030944198 -0.039653007 -0.2895404
-0.051388342 -0.15158513 -0.2003259 -0.15867035 -0.04161788 -0.18357925 -0.29637665 -0.057485633
-0.14406113 -0.17943119 -0.14416075 -0.15206243 -0.13638856 -0.24569589 0.04690964 0.11364538
-0.10055956 -0.3112754 -0.2360594 -0.15577304 -0.07483616 -0.39645687 -0.2322888 -0.21196656
-0.27773997 -0.15781681 -0.26317045 -0.3246372 0.003768517 0.10511168 0.08731986 -0.2524586
00000000: e730 1ebd 8291 9ebe 75ca d7bd 546b 7d3d
00000010: f4f9 1fbe 3470 66bd d639 6fbe 708b afbe
00000020: 207a 173c a8cc c9bd aeae 2ebe 51df 28bd
00000030: c85b abbe 936f ba3b 1460 cabe 1701 09bd
00000040: d722 7fbe c23a bbbd 6c3a 253c ebc1 c2bd
00000050: f456 58bc 0335 c7bd b8ee e6bd 0877 21be
00000060: 2b33 30be 0455 e0be af42 41bd 09fa a1bd
00000070: e54a 1ebe b07e fd3c 316b 22bd a43e 94be
00000080: 957c 52bd 2239 1bbe 3c22 4dbe 7b7a 22be
00000090: 8377 2abd 33fc 3bbe aebe 97be 0e76 6bbd
000000a0: c384 13be cfbc 37be e09e 13be 41b6 1bbe
000000b0: 71a9 0bbe b497 7bbe 5324 403d e9be e83d
000000c0: 2cf2 cdbd 7d5f 9fbe 8eb9 71be f882 1fbe
000000d0: b343 99bd 65fc cabe 1ddd 6dbe c30d 59be
000000e0: ef33 8ebe bb9a 21be 47be 86be d936 a6be
000000f0: 39f9 763b cb44 d73d c1d4 b23d 4142 81be

model.5.running_mean f4 [64]
0.66843706 1.0161622 -1.2595991 0.15917489 0.09850491 -0.99581873 1.4444256 1.0711689
1.179408 -1.3940686 0.57329684 -1.1311662 1.3392638 -0.6472726 -0.32272437 -1.3008317
1.0408987 1.481209 -1.9337754 1.1704297 0.13268118 0.91199625 0.605011 -0.22012793
1.0516516 -0.19519621 -0.879511 -1.6688833 0.115308926 0.22689778 -1.5316674 1.2344915
0.6269107 -0.48298743 0.8417794 0.34068024 0.49970332 -0.114456885 -1.2124261 -0.1973577
1.2219442 0.11936422 1.2738609 0.2526942 -1.6074176 -1.0704988 0.4701904 -0.6673234
0.4684376 0.01357786 -0.7638554 0.1956299 0.5091972 1.0967726 0.66857594 0.7408998
-0.4623119 0.9810754 0.19785008 1.4811343 0.037270084 0.55393726 -1.2003477 0.49495327
00000000: b11e 2b3f 9a11 823f 8b3a a1bf befe 223e
00000010: f1bc c93d faed 7ebf f0e2 b83f 101c 893f
00000020: d7f6 963f d770 b2bf 95c3 123f 0eca 90bf
00000030: ff6c ab3f a8b3 25bf 213c a5be a781 a6bf
00000040: 2b3c 853f 4298 bd3f f485 f7bf a4d0 953f
00000050: 93dd 073e 9678 693f 00e2 1a3f 3769 61be
00000060: 859c 863f 84e1 47be a227 61bf f89d d5bf
00000070: 1627 ec3d e457 683e ad0d c4bf d103 9e3f
00000080: 387d 203f 214a f7be db7e 573f a46d ae3e
00000090: 1dd9 ff3e 5f68 eabd c730 9bbf 2318 4abe
000000a0: ab68 9c3f 3a75 f43d e00d a33f 2261 813e
000000b0: dcbf cdbf 1b06 89bf ccbc f03e b5d5 2abf
000000c0: 0ed7 ef3e ac75 5e3c 078c 43bf 3453 483e
000000d0: bf5a 023f 0b63 8c3f cb27 2b3f 9cab 3d3f
000000e0: 25b4 ecbe c227 7b3f 3699 4a3e cf95 bd3f
000000f0: 84a8 183d d5ce 0d3f fea4 99bf 846a fd3e

model.5.running_var f4 [64]
1.1701729 1.3956785 1.4037875 2.3413203 1.324674 1.5620997 1.7122855 2.05551
1.4409498 2.2447937 1.5970113 2.0509727 2.2478445 1.6077417 1.354977 2.5970268
1.7629654 1.9484899 2.1681137 2.0615573 1.3185886 2.0326097 2.5489974 1.801376
2.0797782 1.9114143 2.0273151 2.3008704 1.5766305 1.1424228 1.9059741 1.7223206
2.616712 0.8514525 2.850369 3.1944985 1.1994388 2.6439934 2.3265781 1.5965662
1.0565882 1.3563519 1.7784259 2.195946 2.860073 3.7769969 2.7268343 3.583786
1.873522 1.403975 1.8629776 1.8349632 1.9755566 1.6289374 1.70386 2.5612144
1.5871867 0.97172254 1.7470366 1.5076418 2.202104 1.3242632 2.945206 1.8507715
00000000: 3ac8 953f 98a5 b23f 4faf b33f 31d8 1540
00000010: eb8e a93f e2f2 c73f 2c2c db3f 7a8d 0340
00000020: 0b71 b83f b3aa 0f40 de6a cc3f 2343 0340
00000030: afdc 0f40 7bca cd3f e36f ad3f b035 2640
00000040: daa8 e13f 1e68 f93f 60c2 0a40 8ef0 0340
00000050: 83c7 a83f 4716 0240 c622 2340 7d93 e63f
00000060: 161b 0540 39a9 f43f 88bf 0140 7641 1340
00000070: 07cf c93f e93a 923f f6f6 f33f 0075 dc3f
00000080: 3678 2740 cbf8 593f 726c 3640 aa72 4c40
00000090: 3687 993f 3037 2940 a8e6 1440 485c cc3f
000000a0: 483e 873f f09c ad3f 76a3 e33f 618a 0c40
000000b0: 700b 3740 51ba 7140 7484 2e40 c05c 6540
000000c0: 92cf ef3f 74b5 b33f 0d76 ee3f 13e0 ea3f
000000d0: 0adf fc3f 0581 d03f 1618 da3f f0ea 2340
000000e0: ef28 cb3f cfc2 783f e59e df3f 68fa c03f
000000f0: 46ef 0c40 7581 a93f 417e 3c40 15e6 ec3f

model.8.weight f4 [32, 64]
-0.18811949 0.18297495 0.074668065 -0.08393988 -0.10476206 0.4243991 -0.10520615 -0.1405205
0.0042400314 -0.37757125 0.158883 0.09995424 0.030124377 0.076737985 -0.014723366 -0.111849755
-0.22784878 -0.0709846 -0.08571269 -0.11591701 -0.29770663 -0.081582464 0.15216789 0.08787865
-0.09126819 0.35892376 0.12661996 -0.18223064 0.2706044 -0.44966438 -0.13598602 -0.32197416
-0.2684727 -0.043955628 -0.26119733 -0.055004813 -0.3486309 -0.20128576 0.28284392 -0.21655102
-0.3083 -0.1623118 -0.22569384 -0.15510385 0.010957162 -0.081073746 -0.03759343 -0.17627263
-0.23332942 0.2861711 0.08982355 0.12445823 -0.024073003 -0.11526016 -0.14175186 0.025583139
-0.13116649 0.042141516 0.3306012 -0.20748124 -0.047295608 -0.32857403 -0.31528032 -0.052441843
-0.22496101 0.113998815 0.31366554 -0.35170206 -0.25587797 -0.13839309 -0.0014751621 -0.0647506
0.13226798 0.22500303 -0.07732219 0.0040455656 -0.05838997 -0.14705557 0.3787733 -0.34393814
-0.10918255 -0.11383393 -0.14579931 -0.018833028 -0.36082152 -0.42032707 -0.28607103 -0.033357333
-0.27098063 0.27870825 -0.09147568 -0.32065737 -0.14530404 -0.03938306 -0.3374435 -0.24820082
-0.32872555 0.041374844 -0.36955202 0.00204787 -0.3111854 -0.09587865 0.32939452 -0.10548004
-0.11982417 0.02866333 -0.36840975 -0.026132062 -0.029502962 0.22449747 -0.087274574 -0.15580726
-0.22978614 0.24346024 0.06280173 0.18633227 -0.09501767 -0.23677137 0.020698147 -0.009002165
-0.09737874 0.056565005 -0.006237036 0.14199206 -0.04498007 -0.27616826 -0.2829624 0.3339462
0.01958557 -0.12045545 0.044562753 -0.16785303 0.22244875 -0.23592982 0.19959898 0.27660742
-0.027768273 -0.22074597 -0.17415838 -0.29780284 0.1669047 0.14884986 -0.054767475 -0.20850854
0.072657116 0.08311634 0.31189045 -0.1697604 -0.072090745 0.26575828 0.18527442 -0.22574985
0.1761152 -0.26263535 -0.03311553 0.04686812 -0.47651252 0.1510221 0.1659784 -0.14849526
-0.038395483 0.0724543 0.08201525 0.061857782 -0.17136095 0.29784128 -0.012373827 -0.62150556
-0.068252444 0.18201782 -0.5009775 -0.071586534 -0.9502395 -0.34523496 0.089530244 0.09317887
-0.042221725 -0.010213067 -0.07637537 -0.1297863 0.14839222 0.1694071 -0.10389134 -0.026142756
-0.14406982 0.012592809 -0.10962932 -0.13046914 0.06317428 -0.07541033 0.041012272 -0.20203586
0.036291517 0.010795766 0.027854567 0.19905706 0.25335455 -0.42508507 0.052059542 -0.15231667
-0.24936035 -0.22988492 -0.0411996 -0.2606696 -0.048620652 -0.1794058 0.026389688 0.11961364
-0.3372253 -0.12255312 0.108985186 0.22401735 0.21587737 -0.11682189 0.14502531 -0.27591586
-0.07822957 -0.17222862 -0.15189429 -0.094004706 -0.23416045 -0.20120135 0.12686437 -0.29256797
-0.1509625 0.21716763 -0.013824616 0.16190493 0.10871951 -0.14677884 0.13598868 -0.19099304
-0.0019560857 0.07848928 -0.08714403 0.32452354 -0.23186089 -0.29682994 -0.12491749 0.11021928
0.10950617 -0.17371783 -0.2877866 -0.07572211 -0.42122635 -0.051930424 -0.19332811 0.05083681
-0.3714548 -0.09661829 0.034454085 -0.27164716 0.42990747 0.2191899 -0.07433641 -0.49924168
00000000: 65a2 40be c95d 3b3e 92eb 983d ace8 abbd
00000010: 7e8d d6bd d74a d93e 5276 d7bd 9be4 0fbe
00000020: f6ef 8a3b 0551 c1be 3ab2 223e cfb4 cc3d
00000030: 66c7 f63c ce28 9d3d 463a 71bc 7c11 e5bd
00000040: 3151 69be 6060 91bd 238a afbd e665 edbd
00000050: 016d 98be b514 a7bd e6d1 1b3e b9f9 b33d
00000060: d1ea babd dbc4 b73e aaa8 013e ab9a 3abe
00000070: a98c 8a3e 693a e6be eb3f 0bbe ccd9 a4be
00000080: 4175 89be d10a 34bd a8bb 85be ba4c 61bd
00000090: c07f b2be db1d 4ebe ebd0 903e 8dbf 5dbe
000000a0: 7fd9 9dbe 1135 26be 491c 67be 8bd3 1ebe
000000b0: ab85 333c fe09 a6bd 92fb 19bd d080 34be
000000c0: e8ed 6ebe 0585 923e 69f5 b73d f5e3 fe3d
000000d0: bf34 c5bc 850d ecbd 6627 11be bb93 d13c
000000e0: 8250 06be 959c 2c3d 8f44 a93e f675 54be
000000f0: 0ab9 41bd db3a a8be 6c6c a1be 42cd 56bd
00000100: 2e5c 66be 3678 e93d c598 a03e 4b12 b4be
00000110: 7002 83be ebb6 0dbe 3a5a c1ba f69b 84bd
00000120: 4271 073e 3267 663e 195b 9ebd aa90 843b
00000130: 522a 6fbd bc95 16be 93ee c13e a918 b0be
00000140: 1a9b dfbd c321 e9bd 6a4c 15be b947 9abc
00000150: 99bd b8be 1c35 d7be e777 92be b3a1 08bd
00000160: f9bd 8abe d9b2 8e3e 9a57 bbbd 342d a4be
00000170: 95ca 14be 2250 21bd 65c5 acbe 5b28 7ebe
00000180: b74e a8be ab78 293d ec35 bdbe 8f35 063b
00000190: b153 9fbe 075c c4bd 66a6 a83e eb05 d8bd
000001a0: 6066 f5bd 5ccf ea3c 34a0 bcbe e812 d6bc
000001b0: 32b0 f1bc aae2 653e 03bd b2bd f08b 1fbe
000001c0: 0f4d 6bbe a44d 793e 329e 803d e3cd 3e3e
000001d0: a098 c2bd 3274 72be 298f a93c d17d 13bc
000001e0: 816e c7bd b5b0 673d 0d60 ccbb 5e66 113e
000001f0: 063d 38bd ed65 8dbe 73e0 90be fffa aa3e
00000200: eb71 a03c 59b1 f6bd 6f87 363d aae1 2bbe
00000210: 9bc9 633e 9697 71be ad63 4c3e 7d9f 8d3e
00000220: 4a7a e3bc 3b0b 62be 9356 32be 9d79 98be
00000230: 11e9 2a3e 196c 183e dc53 60bd 4383 55be
00000240: 41cd 943d e638 aa3d 1bb0 9f3e acd5 2dbe
00000250: 50a4 93bd 7811 883e 94b8 3d3e f82a 67be
00000260: 8b57 343e 2478 86be 26a4 07bd c9f8 3f3d
00000270: 73f9 f3be 8aa5 1a3e 3ef6 293e 240f 18be
00000280: 9544 1dbd ec62 943d 9df7 a73d 965e 7d3d
00000290: 3f79 2fbe a77e 983e 98bb 4abc fd1a 1fbf
000002a0: f0c7 8bbd e162 3a3e 1040 00bf f69b 92bd
000002b0: e542 73bf a3c2 b0be a25b b73d 90d4 be3d
000002c0: b0f0 2cbd b554 27bc b16a 9cbd b3e6 04be
000002d0: 21f4 173e 0e79 2d3e fcc4 d4bd 5529 d6bc
000002e0: 0a87 13be 1252 4e3c 5685 e0bd b499 05be
000002f0: 8461 813d bb70 9abd 7cfc 273d 7de2 4ebe
00000300: 6aa6 143d b9e0 303c 432f e43c 9dd5 4b3e
00000310: b0b7 813e c0a4 d9be 633c 553d e7f8 1bbe
00000320: 5258 7fbe f466 6bbe e9c0 28bd 7c76 85be
00000330: 7326 47bd 27b6 37be 302f d83c fff7 f43d
00000340: cba8 acbe 21fd fabd a033 df3d ce64 653e
00000350: f50e 5d3e 5140 efbd 8481 143e d844 8dbe
00000360: d336 a0bd b35c 30be 2d8a 1bbe 8a85 c0bd
00000370: c2c7 6fbe ba07 4ebe bce8 013e 78cb 95be
00000380: ea95 1abe 3161 5e3e a480 62bc 68ca 253e
00000390: 56a8 de3d 314d 16be 9e40 0b3e ae93 43be
000003a0: ac31 00bb fdbe a03d 9278 b2bd f327 a63e
000003b0: f16c 6dbe 18fa 97be bed4 ffbd a5ba e13d
000003c0: c544 e03d 16e3 31be c458 93be 3214 9bbd
000003d0: fbaa d7be ffb4 54bd cef7 45be 423a 503d
000003e0: 532f bebe cfdf c5bd ba1f 0d3d 5615 8bbe
000003f0: d51c dc3e 5173 603e b03d 98bd 9b9c ffbe

model.8.bias f4 [32]
0.016501388 0.010170703 -0.003915437 0.0033390238 0.0070308857 0.010847619 -0.005867836 -0.007363542
0.0012890577 -0.0031620043 -0.0009083607 0.025437394 -0.012452875 0.0017285456 -0.0024691129 -0.0043499395
0.0024362884 -0.0098146 0.0033621767 0.0033850714 0.0027462125 -0.008742546 0.0011532763 0.010595534
0.0050572325 0.012005011 -0.0068921074 0.006483358 0.00040881603 -0.0028600027 -0.00076357427 0.020691445
00000000: eb2d 873c 05a3 263c 114d 80bb 86d3 5a3b
00000010: 5863 e63b 36ba 313c fa46 c0bb de49 f1bb
00000020: 99f5 a83a a139 4fbb 0e1f 6eba 1562 d03c
00000030: 2507 4cbc 5e90 e23a d7d0 21bb f089 8ebb
00000040: 23aa 1f3b 6bcd 20bc f757 5c3b 13d8 5d3b
00000050: cdf9 333b e53c 0fbc 8829 973a e498 2d3c
00000060: 24b7 a53b aab0 443c 30d7 e1bb 5972 d43b
00000070: 5c56 d639 e26e 3bbb 9a2a 48ba 1b81 a93c

model.9.weight f4 [32]
0.82838744 0.9064352 0.90031 0.9012604 0.8870166 0.82001317 0.83614296 0.89528435
0.8585823 0.8658149 0.870778 0.9205387 0.87530226 0.9718163 0.91049147 0.8548618
0.8533181 0.85165703 0.708471 0.9345604 0.6012273 0.7249941 0.86706924 0.85086894
0.7376377 0.7404763 0.89114416 0.8590239 0.87666035 0.9411745 0.7966563 0.7515109
00000000: 3311 543f 230c 683f b77a 663f 00b9 663f
00000010: 8513 633f 62ec 513f 770d 563f 5b31 653f
00000020: 0dcc 5b3f 0ca6 5d3f 4feb 5e3f 6da8 6b3f
00000030: cf13 603f f4c8 783f f815 693f 39d8 5a3f
00000040: 0e73 5a3f 3206 5a3f 5b5e 353f 5a3f 6f3f
00000050: 08ea 193f 3799 393f 40f8 5d3f 8cd2 593f
00000060: d3d5 3c3f db8f 3d3f 0622 643f fee8 5b3f
00000070: d06c 603f d0f0 703f abf1 4b3f 0563 403f

model.9.bias f4 [32]
-0.25062966 -0.16499576 0.1137632 0.085062504 0.03842136 -0.047231305 -0.17011076 0.051235646
-0.19385166 -0.04751394 0.050644007 -0.073640086 -0.017927459 -0.055188026 -0.012889423 -0.004800419
0.06917923 -0.13901363 -0.305881 0.08284966 -0.3043461 -0.31278658 -0.014162746 -0.20316784
-0.25589383 -0.05809705 0.026880747 0.09065237 0.022710046 -0.10202015 -0.18906343 -0.21714388
00000000: 8852 80be a6f4 28be aefc e83d 4035 ae3d
00000010: b75f 1d3d 9d75 41bd 8431 2ebe 78dc 513d
00000020: 0d81 46be fa9d 42bd 1770 4f3d 9dd0 96bd
00000030: 9bdc 92bc d70c 62bd 292e 53bc d54c 9dbb
00000040: d7ad 8d3d 9759 0ebe 6f9c 9cbe 15ad a93d
00000050: 41d3 9bbe 9025 a0be dd0a 68bc 3b0b 50be
00000060: 8404 83be 2cf7 6dbd 0335 dc3c f3a7 b93d
00000070: 6b0a ba3c f1ef d0bd d899 41be f75a 5ebe

model.9.running_mean f4 [32]
-1.6502748 -2.0221074 -0.9125168 -1.0908313 -1.1190835 -0.89562476 0.4261594 -1.1295053
-2.2498298 -1.3206706 -0.9979769 -1.9747862 -0.9052017 -1.8522006 -0.91198105 -1.0044984
-0.54625744 0.6307957 -1.9141834 -0.5758599 -1.799233 -2.1346989 -0.45791498 -2.2282033
-2.1145058 -1.0045923 -1.3362329 -1.1058427 -1.2227252 -1.926113 -1.7109822 -1.8836745
00000000: 343c d3bf 356a 01c0 b39a 69bf 5ca0 8bbf
00000010: 213e 8fbf aa47 65bf 9131 da3e a193 90bf
00000020: 36fd 0fc0 bc0b a9bf 6a7b 7fbf cbc5 fcbf
00000030: 4cbb 67bf e914 edbf 9777 69bf 6793 80bf
00000040: 87d7 0bbf d47b 213f f603 f5bf 8e6b 13bf
00000050: 444d e6bf e89e 08c0 d573 eabe e29a 0ec0
00000060: 1054 07c0 7b96 80bf ae09 abbf 418c 8dbf
00000070: 4282 9cbf df8a f6bf 7701 dbbf 3f1c f1bf

model.9.running_var f4 [32]
3.5687065 4.6031957 3.43476 3.3517747 3.217863 1.7918223 2.4845722 2.4729178
5.1119633 3.1862693 3.418057 4.228961 3.6309013 3.7605004 1.8192044 3.5027366
3.781356 0.9528333 3.917339 2.15834 3.530105 4.0687366 1.7694025 4.2942963
4.044605 1.8516289 3.3141165 3.039503 3.1490743 3.6476395 3.443442 4.7795095
00000000: b065 6440 614d 9340 1cd3 5b40 7a83 5640
00000010: 78f1 4d40 6f5a e53f 3b03 1f40 4944 1e40
00000020: 3495 a340 d6eb 4b40 72c1 5a40 a653 8740
00000030: b060 6840 0aac 7040 b1db e83f d62c 6040
00000040: bd01 7240 e2ec 733f afb5 7a40 3e22 0a40
00000050: 3eed 6140 1733 8240 c87b e23f e06a 8940
00000060: 676d 8140 2d02 ed3f 7c1a 5440 3887 4240
00000070: 6f8a 4940 ed72 6940 5b61 5c40 bef1 9840

model.12.weight f4 [1, 32]
0.07891875 0.08907638 -0.04650746 -0.036839377 -0.03624809 -0.052671235 -0.030435272 -0.046881124
0.08940457 0.0675752 -0.038893674 0.073891915 0.06001939 -0.045549363 -0.040374413 0.061328284
-0.031254794 -0.03539415 0.111527786 -0.03609276 -0.20511347 0.17431523 -0.032576535 0.09733935
0.12474994 -0.043845505 -0.045692306 -0.03136519 -0.039204653 0.0658898 0.105721734 0.106577225
00000000: 27a0 a13d ad6d b63d 9b7e 3ebd e3e4 16bd
00000010: e178 14bd cbbd 57bd 6453 f9bc 6c06 40bd
00000020: be19 b73d de64 8a3d f94e 1fbd a554 973d
00000030: e4d6 753d f891 3abd a45f 25bd 5e33 7b3d
00000040: 0705 00bd 75f9 10bd ae68 e43d 00d6 13bd
00000050: 4409 52be b17f 323e f96e 05bd da59 c73d
00000060: e67c ff3d 5897 33bd db27 3bbd c978 00bd
00000070: 0f95 20bd 3bf1 863d a384 d83d 2945 da3d
